runs/StudentModel_Distill_01122148/student_best_rmse.pth (torch, 361087 bytes, 47 tensors)

discrete_embedding.embedding_layers.0.weight f4 [7, 6]
000000 2f c6 52 3e de 18 ef 3e b7 fa 86 be 22 32 17 bf
       0.20583414 0.4669866 -0.26363155 -0.5906087
000010 6e df 11 3e 42 f7 65 3d 22 c2 6f be 97 7b 39 bc
       0.14245388 0.056144007 -0.234139 -0.01132097
000020 23 c1 27 3e cd b3 85 be 05 b0 73 3f f2 b8 ac 3e
       0.1638227 -0.2611374 0.9519046 0.33734852
000030 d7 6b 03 3e 93 d9 aa 3e 88 b8 3a 3e 9e e0 ce bd
       0.12834106 0.3336912 0.18234456 -0.10101436
000040 fe 37 3c be df 5f 22 3d a4 9b b2 3d 91 b4 f2 be
       -0.18380734 0.03964221 0.08721092 -0.47403386
000050 bf f4 9d 3e 83 25 83 be 8e 2c de 3e 35 eb a9 3e
       0.3085079 -0.25614557 0.43393368 0.3318726
000060 3c 8b 8e 3e 7b 98 b3 bd 19 91 e0 be 07 8e ca 3d
       0.27840602 -0.08769318 -0.438607 0.09890371
000070 39 5a 6b 3e fc 51 cc 3e 9c 56 19 be 5d 42 78 be
       0.22983636 0.399063 -0.14974445 -0.24244066
000080 a8 59 97 bd 29 eb 8c be 3b 32 9e 3d b6 a0 15 3f
       -0.073901474 -0.27523163 0.077244245 0.5844835
000090 73 84 2e be 2b be 61 be 4b 0d ae be 99 6d c6 3b
       -0.17042713 -0.220452 -0.33994517 0.0060555455
0000a0 1b 52 27 3e 81 5a 05 3e
       0.16339915 0.13022806

discrete_embedding.embedding_layers.1.weight f4 [2, 1]
000000 da 62 f7 be 29 cf d9 bd
       -0.48317605 -0.10635216

discrete_embedding.embedding_layers.2.weight f4 [2, 1]
000000 c6 aa 85 3e 11 28 73 be
       0.26106852 -0.23745753

discrete_embedding.embedding_layers.3.weight f4 [3, 2]
000000 60 9b c9 be 2d 0b 41 be 77 5d 2c 3c 70 00 4c 3e
       -0.39376354 -0.1885192 0.010520331 0.19922042
000010 ce 2b 8e 3e 7c 5c 56 be
       0.27767795 -0.20933717

mlp_encoder.lins.0.weight f4 [128, 14]
000000 cb 14 66 bd 7b 4a 10 3f 3a a1 8e 3d 92 6e 2a bf
       -0.056172173 0.5636365 0.06964345 -0.66574967
000010 37 82 92 3e 61 8b e7 3d 5d a8 57 3d 74 bc da bd
       0.2861497 0.11305881 0.052650798 -0.10680476
000020 61 30 d4 3d cf e2 39 be b6 9a 01 3f b0 4f 96 3e
       0.1036079 -0.18152927 0.50626695 0.29357672
000030 a1 42 28 3f b5 18 7d 3e f1 08 e6 be a9 ae e7 3e
       0.6572667 0.24716456 -0.44928697 0.45250443
000040 36 0d 8a bf 98 06 8d be 38 3a 80 bc b6 07 3d 3e
       -1.0785282 -0.27544093 -0.01565276 0.18459973
000050 5d 51 73 3e b2 c9 49 3e 3f 18 0d 3e f1 03 d6 3e
       0.23761506 0.19705847 0.1377878 0.41799882
000060 b2 d8 7b bb 74 55 2e bb ea ae 4c 3c c0 18 c7 bb
       -0.003842872 -0.0026601227 0.012492875 -0.0060759485
000070 ea df 0e bf e2 ef 25 3f 85 ce f2 3e 18 2b e2 3d
       -0.55810416 0.6481916 0.47423187 0.11043376
000080 80 bb 0b 3d cd 61 91 3e 7c 41 f4 3a f5 d5 92 be
       0.03411436 0.2839493 0.0018635239 -0.2867886
000090 ce 3f 00 be 3f d8 e7 bd 18 83 67 bc 7a 08 6a 3c
       -0.1252434 -0.113205425 -0.014130376 0.0142842475
0000a0 c8 c7 82 bc cb ab df 3b 0d 24 12 bf 02 8a 35 3e
       -0.015964404 0.0068258992 -0.5708626 0.17728427
0000b0 46 8f 09 bf 0d 4b c5 bd 2d a3 58 be 88 56 97 be
       -0.5373424 -0.096334554 -0.21155997 -0.29558206
0000c0 1c 28 8c 3e ec e7 17 3e 21 4c d3 3e 21 a8 85 3d
       0.2737435 0.14834565 0.4126902 0.06526209
0000d0 b3 5b 2b 3f 70 3f f8 3e 79 a9 1a 3e 92 fb 14 3e
       0.66936797 0.484859 0.15103711 0.14549091
0000e0 27 a5 84 3f d7 5c 96 be 9c 3f b4 3d 18 3f 42 3e
       1.03629 -0.29367706 0.08801195 0.18969381
0000f0 e1 08 70 be e9 c8 06 3e 23 9d 96 be 14 9a a6 be
       -0.23440887 0.13162579 -0.2941676 -0.32539427
000100 c6 3a 7f be 96 33 f5 3c 4a f7 f6 3e 5f 3b cb 3d
       -0.24924764 0.029931825 0.48235542 0.099234335
000110 11 41 22 3e a3 14 0b 3f 38 c7 92 3f df 1c 9a bd
       0.15845133 0.54328364 1.1467047 -0.07525038
000120 8f ab fc 3c de 51 22 3f a3 a7 97 3d 6c fd 85 3c
       0.030843524 0.6340617 0.07405021 0.016356193
000130 e6 15 ca be b7 ff a2 bc aa 27 8f 3d 6f cc bd 3e
       -0.39469832 -0.019897325 0.06989987 0.37070033
000140 48 8e 1c be cb f9 dc bd 99 f2 77 3e f3 07 90 be
       -0.15288651 -0.10789832 0.24213637 -0.28131065
000150 f6 2a 67 be 45 07 16 3f b2 3c e3 bd a3 4a 4e bf
       -0.22574982 0.5860484 -0.11095561 -0.80582637
000160 7e 30 c7 bc 57 d6 87 bc f2 d6 df bd 99 6e 29 be
       -0.024315115 -0.016581697 -0.109296694 -0.16546096
000170 cf 45 e0 bc 87 18 cf bd 22 a4 aa 3d 2a 28 fa bd
       -0.027377037 -0.101121 0.08332087 -0.12214692
000180 be 64 8f 3e 7f 62 42 3e 2a 14 db be 6d 06 4e 3d
       0.28006548 0.18982886 -0.4278882 0.050299097
000190 90 c1 24 3f de b4 43 be ea b4 d2 3e 1b f6 00 3f
       0.6435785 -0.19111964 0.4115365 0.5037553
0001a0 7e ee 58 bd 8c 15 36 3e 31 d8 25 be 11 c3 6c be
       -0.05296182 0.17781657 -0.16195752 -0.23121287
0001b0 cb 99 ad 3d 21 8c 24 3d da 93 28 3e 11 78 9e bd
       0.08476599 0.0401727 0.16462651 -0.077377446
0001c0 6f 82 42 bd 0d ca bc 3c 58 bb 84 bb 0b 18 a2 bf
       -0.047487672 0.023045564 -0.0040506534 -1.2663587
0001d0 6e ea 7c be c2 4e 19 3e 9f dd 32 be 0b b0 47 be
       -0.24698803 0.1497145 -0.17467354 -0.19500749
0001e0 0c 43 35 3e 79 5b 37 bd 32 d6 5b 3d 87 8f db 3c
       0.17701358 -0.04476497 0.05367107 0.026801838
0001f0 04 fe 11 bd 23 3c 58 bd be c5 20 bf 14 1d 1e 3e
       -0.03564264 -0.052791726 -0.6280173 0.1544078
000200 e7 c9 26 3f 10 39 45 3e 8a 03 ef 3d 7d 42 ce 3e
       0.6515183 0.19260049 0.11670597 0.40285102
000210 e6 d5 7d be d9 e7 8a bd b3 d9 0b be 7f fa af bd
       -0.24788627 -0.06782503 -0.13657264 -0.085927
000220 f3 82 c4 3c 7a f5 81 bd 47 fb 8e bd bf ab 9b be
       0.023988223 -0.06345649 -0.06981521 -0.3040447
000230 b7 d4 c0 be 4e 9f 75 3d 5f 85 85 3f 8f 98 74 3d
       -0.3766229 0.059966378 1.0431327 0.059715804
000240 15 39 a4 be eb 05 b2 3e 3d 01 b7 be 6b 2b 9c be
       -0.320748 0.3477014 -0.35743132 -0.30501875
000250 6f 0f 70 be 53 a4 2d 3e 6d 58 ae 3d 94 21 38 ba
       -0.23443387 0.16957216 0.0851296 -0.00070240465
000260 b4 5a 9b 3d e3 8e 3e 3c b5 8e 08 bf 9b d9 02 3f
       0.075856596 0.011630747 -0.53342754 0.5111329
000270 ea 61 f8 3e a6 62 96 3d 14 1d 32 3e 31 e4 66 3e
       0.48512203 0.073430344 0.17393905 0.22547986
000280 1e 7e 03 bf f2 a8 8b be 14 8a cb 3d c5 b3 6f 3e
       -0.51364315 -0.27277333 0.09938446 0.2340842
000290 3a 9f fa be 6e 21 2b 3e 46 32 a1 3e a8 8f ac 3e
       -0.48949605 0.16711971 0.31483668 0.3370335
0002a0 68 d9 a4 3f ef 42 87 be 9f 70 20 3f 94 76 20 be
       1.2878847 -0.26418254 0.62671846 -0.15670234
0002b0 f5 27 2c be e2 09 1b bf 09 6a 9b be 56 6a 2a bc
       -0.16812117 -0.60561955 -0.30354336 -0.010401329
0002c0 36 c8 f6 3d b6 fa 7d 3e 58 dc 77 bc 93 a3 6e bc
       0.12049906 0.2480267 -0.015128218 -0.014565366
0002d0 45 c4 45 3c fe 6d 94 bc b1 9b f5 3e 60 8c 14 bf
       0.01207072 -0.018118855 0.47970346 -0.58026695
0002e0 6f 1b c6 3b e4 a0 83 3e a2 df 71 3c ae a8 18 bd
       0.006045751 0.25708687 0.014762791 -0.03727024
0002f0 44 fb d3 3d df ab df 3d 51 db 8c bd 16 9f 12 3d
       0.103506595 0.10921454 -0.06877769 0.035796247
000300 a9 98 eb 3e 50 6e 29 3c 59 67 e4 3e 3b b5 88 3e
       0.46014908 0.010341242 0.44610098 0.26700768
000310 f7 dd ff 3e 0a 39 05 bf 29 d6 12 3e 42 24 e7 bb
       0.49974033 -0.5204016 0.14339508 -0.007053883
000320 16 13 09 3b a3 ca b6 bd c1 0f a5 be 85 40 0c 3c
       0.0020915917 -0.08925369 -0.32238582 0.0085603045
000330 93 a4 0e be 2d a1 e1 bd 0a 95 05 bf 98 0b 09 3e
       -0.13929968 -0.1101707 -0.5218054 0.13383329
000340 3b 0f 43 be 11 ea 42 3f 9e ea a0 be 36 be 99 be
       -0.19048779 0.76138407 -0.31429 -0.30027932
000350 41 fe e6 3d 05 bb 33 bf 51 cf bd 3e b3 40 dc 3d
       0.11278964 -0.70207244 0.37072232 0.10754528
000360 0a 32 bd be 16 5d d5 3c f4 a2 c0 3e 9e a0 c7 3e
       -0.3695224 0.026045363 0.37624323 0.3898973
000370 c4 36 21 3f f7 9c 16 bf 44 58 a0 bd 4a 35 e3 3d
       0.6297419 -0.5883326 -0.07829335 0.110941485
000380 c5 b2 3f be 0d ad e4 3c 2e 7a 98 be 6c 94 43 3f
       -0.18720539 0.027914548 -0.29780716 0.7639835
000390 53 e9 4a 3d a6 b3 94 3e ab 88 20 3c 5e 1d ed 3e
       0.04953892 0.2904331 0.009798209 0.46311468
0003a0 9d 33 c5 3a 06 11 66 be 7a 9c d3 be 15 48 96 bc
       0.0015045289 -0.22467431 -0.4133032 -0.018344918
0003b0 73 c4 aa 3e bd ef 0f 3f cb 7c 3b be 9a c8 11 3f
       0.33353004 0.56225187 -0.18309323 0.5694672
0003c0 13 40 01 bf cd de 8f be 2f ec 47 be b3 3d af bd
       -0.50488394 -0.2809967 -0.1952369 -0.0855669
0003d0 4a 88 0f 3e e7 58 00 3d cd c2 86 3e 3d a8 6b 3e
       0.14016834 0.031334784 0.26320496 0.23013397
0003e0 66 81 ee 3d fd 21 a0 ba a0 96 d6 bd 38 7f 27 3d
       0.116457745 -0.001221716 -0.10477948 0.04089281
0003f0 76 cc ba be 9f d2 86 bf c4 f0 06 3f 5a 23 99 3e
       -0.36484116 -1.0533026 0.5271113 0.29909784

mlp_encoder.lins.0.bias f4 [128]
000000 b6 ce 14 bf dd 1c a8 bd f5 61 40 3e b4 ed 65 3e
       -0.58127916 -0.0820863 0.18787368 0.22453958
000010 03 37 89 3e 6a 1a 41 be 15 2a d9 bd a0 04 67 bd
       0.26799783 -0.18857732 -0.1060373 -0.056400895
000020 13 cf 56 be 25 6c 0b be 87 dc 09 be e7 52 49 3e
       -0.2097743 -0.13615473 -0.13463031 0.19660531
000030 4e db 67 be 8f 0e b2 3e f1 05 26 3e 17 9b 24 3e
       -0.22642252 0.34776732 0.16213204 0.16074787
000040 18 e6 b7 3f 81 96 13 3e bb 98 a9 3e 33 b0 b3 be
       1.4367094 0.14412881 0.33124337 -0.35095367
000050 0c 54 9a 3e fb 3d a5 bd 37 4d c9 be a9 66 84 bc
       0.30142248 -0.080684625 -0.39316723 -0.016162233
000060 7a 96 9f 3e 57 62 ee be 26 f9 e0 3e cb 7f 87 3e
       0.31169492 -0.46559402 0.43940085 0.26464686
000070 14 a6 20 3f 61 59 79 bf 12 b8 c6 bc 07 38 5d bf
       0.62753415 -0.97402006 -0.024257693 -0.86413616
000080 49 59 d8 3e 86 d8 e5 3c 2a 7e 20 3f 8e ad 27 3f
       0.4225562 0.028057348 0.6269251 0.654992
000090 c5 68 95 be b9 c9 6f 3e 17 0f 6c be 69 a8 7d 3e
       -0.29181495 0.23416795 -0.23052631 0.24771275
0000a0 fb d4 99 3e b1 de 1d 3f 1f 78 b3 be b6 77 9b 3e
       0.30045304 0.61667925 -0.35052583 0.3036477
0000b0 87 9d 8a 3e 9b a6 f5 be dc 65 a0 bd 49 ff 1a bc
       0.2707331 -0.47978672 -0.07831928 -0.009460279
0000c0 20 31 2b 3d 90 24 9d be 07 1c d7 3d 61 fb 39 bf
       0.041794896 -0.30691957 0.10503393 -0.726492
0000d0 9d 0f 87 3e 71 3a 32 3f e8 90 e3 3e 21 51 58 bd
       0.263791 0.69620425 0.44446492 -0.052811746
0000e0 64 dc d3 3e 4e c6 e0 3e 35 20 6a be fb 47 2d bf
       0.41379082 0.43901294 -0.22863849 -0.6768796
0000f0 7f 32 1e 3f 03 3d 12 3e fc 15 a9 be 05 15 30 bf
       0.617958 0.14281087 -0.33024585 -0.68782073
000100 1f c9 1b 3e 8a f4 bd 3e 56 06 5e 3e 95 03 21 3d
       0.1521344 0.3710063 0.21682104 0.039310057
000110 48 cd 59 3e f8 49 af 3d f3 fc 1b 3e d5 e1 26 3e
       0.21269715 0.0855903 0.15233211 0.16297086
000120 8f 58 59 bf b9 5b 2d 3e e9 5f c5 3e 34 b4 30 3e
       -0.84900755 0.1692952 0.38549736 0.17256242
000130 1d 9a 56 3f 12 5a a0 3e 15 c7 28 3e 05 d9 26 bf
       0.8382891 0.31318718 0.16482194 -0.65174896
000140 4e 47 cb be cb bf 08 bf 1c bf 8b be b7 e8 15 3f
       -0.3970284 -0.5341765 -0.27294242 0.5855822
000150 62 bd df 3e ce 4f 54 3f 15 66 b8 3d d7 d4 03 bf
       0.43699175 0.8293427 0.090038456 -0.5149664
000160 c6 35 42 be c2 22 8e bd fc 09 c5 bd ad ea b6 3e
       -0.18965825 -0.06940223 -0.09621045 0.35725918
000170 bc 32 a9 be 0f 52 40 be 9d 4a 0e be 91 62 cb be
       -0.3304652 -0.18781303 -0.1389565 -0.39723638
000180 2b a8 84 3e 35 c8 fa 3d 2e 5a e3 be 22 1d c7 be
       0.25909552 0.12245218 -0.4440474 -0.38889414
000190 e6 9d 2e 3f 76 04 0d bf 0f 3c 54 3e fe 22 1b be
       0.68209684 -0.5508493 0.20726036 -0.15150067
0001a0 89 5e 75 be bd 79 26 bd 79 77 11 bf 7a 01 28 bf
       -0.23961844 -0.040643442 -0.56822926 -0.65627253
0001b0 e9 2e cd 3d 49 59 a6 3e 98 85 0d 3f 1e 9c d8 3e
       0.10018713 0.32489994 0.5528197 0.42306608
0001c0 8d 5f 37 3e 2f cb 4a bf 79 56 82 be b3 20 cd bc
       0.17907543 -0.79216284 -0.25456598 -0.025040006
0001d0 9e 5c 95 3e eb 2c 46 3e 9e b3 96 be 5c 32 ca 3e
       0.29172224 0.19353072 -0.29433912 0.39491546
0001e0 5d 72 75 3e a3 10 8d 3e 7e c0 c7 bc 87 f6 61 3e
       0.23969407 0.27551755 -0.02438378 0.22066699
0001f0 8d 43 a4 3e 2c 97 d1 be 47 cd 6d be 0a 65 72 3d
       0.32082787 -0.40935647 -0.23222838 0.05917839

mlp_encoder.lins.1.weight f4 [128, 128]
000000 18 2d 6c be 61 0d 30 be 28 c0 ab be db 82 c7 bd
       -0.23064077 -0.17192604 -0.3354504 -0.097417556
000010 ff 0b de 3d 86 6c 8a 3d a4 07 d1 bd 81 d1 d8 bd
       0.10842132 0.067589805 -0.102065355 -0.10586835
000020 3b 72 8d bf 4d 24 61 be d6 e2 6e be 80 d2 5b 3d
       -1.1050485 -0.21986504 -0.23328719 0.053667545
000030 21 a6 62 3e f6 3f 7e 3e 03 6a 60 3e ed 43 60 be
       0.22133686 0.24829087 0.2191544 -0.21900912
000040 9b fb 13 bd 6c 91 93 be 4a 76 13 3e 3a 67 67 3d
       -0.03612862 -0.28821886 0.14400592 0.05649493
000050 b7 ab d6 3d d1 97 a4 3d f3 16 d2 3d 67 3a a7 be
       0.10481971 0.08036769 0.102582835 -0.32661745
000060 58 92 d6 be aa c3 4a 3e 7a 75 7e 3d f3 e6 d7 bd
       -0.41908526 0.19801202 0.062123753 -0.10542097
000070 66 b5 2a 3d a0 e5 17 3e e5 cc ce bd a9 6a 9d be
       0.0416769 0.14833689 -0.10097674 -0.30745438
000080 91 d6 35 3e bc ae 4b be 66 e5 d0 3d 49 d0 48 3e
       0.17757632 -0.19890875 0.10200004 0.19610704
000090 b9 c5 c6 bd eb b3 7c 3e eb ba 84 3e 75 48 de be
       -0.09705681 0.24678008 0.25923857 -0.43414655
0000a0 32 14 92 3d c1 82 76 be cf 4f bc be 44 d2 25 be
       0.07132758 -0.24073316 -0.3677964 -0.16193491
0000b0 fe 29 03 bd 90 91 2a be 9d 47 f8 bd d1 38 d5 bd
       -0.03202247 -0.1665709 -0.12123034 -0.104112275
0000c0 55 2c 87 bd 47 9f 92 bc 05 0c 80 bd 6b 96 9b 3d
       -0.066002525 -0.017898215 -0.062522925 0.07597049
0000d0 d6 82 4a be 4e cd d4 bd bc 24 91 be d7 ae 92 bd
       -0.19776472 -0.10390721 -0.2834834 -0.07162254
0000e0 67 49 d7 3d d4 b1 3d be de 5c 42 bd 73 7f b4 3d
       0.10512047 -0.18524867 -0.047451846 0.088133715
0000f0 dd 79 68 3e 82 13 83 be a1 43 6c 3e 1b 47 a9 3d
       0.22702737 -0.2560082 0.23072673 0.082655154
000100 98 39 78 be 02 0b 97 be f1 0d f8 3d 11 8c 9c 3d
       -0.2424072 -0.29500586 0.12112034 0.07643903
000110 21 d6 03 3e 4c 46 e7 3d 8b ea ef be 93 8f 3f 3e
       0.12874652 0.11292705 -0.4685863 0.18707113
000120 45 a1 d0 bb c9 02 68 be ce a3 6f bb 9e 93 d3 be
       -0.006366881 -0.22657312 -0.003656614 -0.4132356
000130 e3 b6 83 be d6 bd 76 bd e7 1e b5 3d 59 06 aa be
       -0.2572547 -0.060239635 0.08843785 -0.33207968
000140 38 bd 8a be d7 7b 37 bd 66 2c 1c be f0 d9 09 be
       -0.27097487 -0.044795837 -0.15251312 -0.13462043
000150 65 60 8a 3c 76 ee 28 3e 46 2b c0 bd 79 ab ad bc
       0.016891668 0.16497216 -0.09383254 -0.021199929
000160 94 7b 8a 3d aa 02 83 3d f6 55 ae bd 6d d4 aa be
       0.06761852 0.063969925 -0.085124895 -0.33365193
000170 b8 a0 1a 3e 5e ab 0e bd 65 4c 6a 3e 38 b9 49 bd
       0.15100372 -0.034831397 0.22880705 -0.049248904
000180 f9 76 93 bd 77 81 32 be 83 0f dd bd 91 54 9f bb
       -0.072004266 -0.174322 -0.10793974 -0.004862376
000190 49 1e d4 3d 2a 1e e0 3d 46 6c 8e 3d b7 e3 89 bc
       0.10357339 0.10943253 0.06954245 -0.016832216
0001a0 c5 9c a6 3c 6d 59 a3 3d 7c 98 b7 be 2b b6 02 3e
       0.020338425 0.07976041 -0.35858524 0.12764804
0001b0 32 da 33 3d c6 15 ad 3c 0d 78 50 be 69 c7 64 bd
       0.04390926 0.021128546 -0.20358296 -0.055854235
0001c0 ae dc 82 3d 02 0f dc 3d d4 eb 46 bb 31 4b cf 3d
       0.063897476 0.1074505 -0.0030352967 0.101217635
0001d0 ad 60 54 3e 23 7e 90 3d c1 ae ef 3d 60 a5 ad be
       0.20740004 0.07055309 0.117032535 -0.33915234
0001e0 a8 b5 01 be b8 9d 64 bd fa d8 d1 bd 1c 48 a1 3d
       -0.12666953 -0.055814475 -0.10246463 0.07875082
0001f0 97 ea bc 3e ab 86 62 bd 69 ae 1f bf 51 b7 70 bd
       0.36897728 -0.05530421 -0.62375504 -0.058768574
000200 22 1a 07 bf fb ab c5 bd 3b 82 64 3e eb 2d a5 3d
       -0.5277425 -0.09651943 0.22315304 0.08065399
000210 1b a3 12 bf de 00 16 bf ad bd 3b bc ad 8c 7d be
       -0.5728013 -0.58595073 -0.011458796 -0.24760695
000220 75 5d be be b8 bc 27 3f c5 46 a7 3e 38 d7 20 bc
       -0.37180677 0.65522337 0.3267118 -0.009816937
000230 9d e3 77 3c 65 c1 42 3d 0b d7 5f be ae 50 7a 3c
       0.015129951 0.047547717 -0.21859376 0.015278025
000240 56 7f d8 be a6 24 2a 3e b1 26 76 bd 80 0a 2d 3e
       -0.4228465 0.16615543 -0.060095493 0.16898537
000250 43 d9 2a 3e a0 d7 b9 be bb d4 1d bd 56 56 8c be
       0.16684441 -0.3629732 -0.038532954 -0.2740962
000260 56 c7 bb 3e 84 68 f2 be 62 f1 65 be 4e 56 35 be
       0.3667552 -0.47345364 -0.22455361 -0.17708704
000270 7d bc 87 bd 09 b1 1b be cb 21 00 3e a4 b0 9f bd
       -0.06627748 -0.15204252 0.12512891 -0.077973634
000280 78 f3 7d 3e 4a d4 a4 bc c2 4d 1b 3d 06 e1 ba be
       0.24799907 -0.020120759 0.037915953 -0.36499804
000290 12 72 e9 bd b8 a3 8f be 64 bd 0a bf 03 e0 f1 bb
       -0.1139871 -0.28054595 -0.5419524 -0.0073814406
0002a0 5c cc fc bb ec 53 e4 3e d9 5c 46 bf ac 0e a8 3d
       -0.007714791 0.44595277 -0.77485424 0.082059234
0002b0 95 e1 d2 3d 4a 48 2d be 7b 1b e7 3d 27 1e 96 3d
       0.102969326 -0.16922107 0.11284538 0.0732997
0002c0 d4 13 4c bd f1 76 89 bd 95 1d 04 bd 0d 30 a5 bd
       -0.049823597 -0.067121394 -0.032254774 -0.080658056
0002d0 dc a1 14 be a2 85 38 bc a3 f8 35 be 81 4b 14 bf
       -0.1451487 -0.011262329 -0.17770629 -0.5792771
0002e0 a5 55 9d be 97 04 7a bc f6 81 4d bd 54 29 be be
       -0.30729404 -0.015259883 -0.05017277 -0.37140906
0002f0 38 7b ac be e2 df 76 3d c8 4d b3 bf 7a 5e 8e bd
       -0.33687758 0.060272105 -1.4008112 -0.06951614
000300 02 e4 5b be 00 1b ba be 60 24 80 bc c2 4c be be
       -0.21473697 -0.36348724 -0.015642345 -0.37167937
000310 5a b9 10 3d ba 93 82 bc 8b 88 b2 bd 32 ca 03 bf
       0.035333015 -0.015939582 -0.0871745 -0.514804
000320 f7 9d 5d be d4 3a 55 3e e9 53 78 3e dd f6 92 3d
       -0.2164229 0.20823222 0.24250759 0.07175992
000330 4a 22 fe 3b ce e5 8f 3e db 6a 21 bd 53 83 7d 3e
       0.0077555524 0.28105015 -0.039408546 0.24757127
000340 c6 ef d1 3e 4c fc 23 3f 6f 7f 2d 3e 83 c4 f2 3c
       0.41003245 0.6405685 0.16943143 0.02963472
000350 c7 34 05 3e df 8e 9c bd 51 bf 82 3c bb 46 9a 3e
       0.13008414 -0.07644438 0.015960367 0.30132088
000360 d6 37 81 3e 12 ad 2f 3d 79 e8 5f 3e 40 91 4e be
       0.25237912 0.042889662 0.21866025 -0.20172596
000370 c0 75 73 be 5c 1e f7 bd 19 b1 0d 39 ca 7a 47 bf
       -0.23775387 -0.120663375 0.00013512782 -0.77921736
000380 56 66 ec 3c 0a 34 68 be a9 77 f0 3d a2 27 37 be
       0.028857391 -0.22676101 0.11741573 -0.17886212
000390 47 e7 20 bf 24 bf fc bd 91 01 bf be 47 50 ca 3e
       -0.628529 -0.12341145 -0.37305883 0.39514372
0003a0 97 d0 a5 3d ca f4 09 3e bf e7 8a bc 40 14 a4 3e
       0.08096426 0.13472286 -0.016956208 0.320467
0003b0 00 40 ae 3e 71 82 85 be 81 fb 5a bf 5a ce b5 be
       0.34033203 -0.2607608 -0.85540015 -0.35508996
0003c0 13 78 10 bf c8 d8 8f 3d 8e bc 1b bf d8 07 0d bf
       -0.5643322 0.070237696 -0.60834587 -0.55090094
0003d0 ce be b0 be 54 70 4e 3e 5a be 18 3d d6 8b a6 bd
       -0.34520572 0.20160037 0.03729091 -0.0813214
0003e0 2b 1e 61 be ed 88 58 3c de 9e 39 bd 70 46 89 3d
       -0.21984164 0.013216239 -0.045317523 0.06702888
0003f0 95 2a 40 be b0 5b 2f 3e 8d d6 be bc 81 98 d0 be
       -0.18766244 0.1712482 -0.023295665 -0.4074135

mlp_encoder.lins.1.bias f4 [128]
000000 0b f3 9b 3e 6e d7 1b be 25 32 a2 be 2d 2c 36 3f
       0.30458865 -0.15218899 -0.31678882 0.71161157
000010 4b 7c b5 be d3 f7 cc bd 07 cb e8 be 14 13 82 3d
       -0.3544639 -0.10008206 -0.45467398 0.06351295
000020 27 f8 b5 3d d4 f7 ba be 7c b2 16 bf 81 07 91 be
       0.08885222 -0.36517203 -0.58866096 -0.28326038
000030 a4 56 95 3d 3a 87 a8 bd c4 47 48 3e 7b 0f ad 3e
       0.07291916 -0.082289174 0.19558626 0.33800873
000040 63 61 1e 3f ba 82 71 3e a8 7c bc bd 13 06 54 bd
       0.6186735 0.23585024 -0.09203464 -0.051763605
000050 a2 5f 02 bc fe a6 97 3e bf c4 ad bf 83 f7 4c 3d
       -0.007957371 0.29619592 -1.3575667 0.050040733
000060 e2 f9 94 be 59 87 a5 be 08 16 94 3d 9a fb e8 3d
       -0.29096895 -0.32329825 0.072307646 0.11376114
000070 ae c6 f0 3d 11 15 ec be 82 3c 27 3e 4a 00 2a 3e
       0.11756645 -0.46109822 0.16331676 0.16601673
000080 c0 fe 84 3e d7 4b 1f bf c9 a1 2c be 4f aa e8 be
       0.2597561 -0.622251 -0.16858591 -0.45442435
000090 fb 01 f3 be 59 8f 01 bf 28 0c a6 3e 45 f9 94 3d
       -0.47462448 -0.50609356 0.3243115 0.07274107
0000a0 24 4f 29 3e 6c 58 75 3d df b9 a8 be 2f 20 e6 3e
       0.16534096 0.05989878 -0.32954308 0.4494643
0000b0 ed fc 06 bd 90 dc 03 3d 55 28 40 3e ca a1 e0 3c
       -0.032956053 0.032192767 0.18765385 0.027420897
0000c0 d9 32 b5 be 63 66 77 3e d0 bf 39 3f af 42 01 be
       -0.35390356 0.24160151 0.7255831 -0.12623094
0000d0 20 96 3d bc 5f 34 b3 bd 75 cb f3 be 21 22 50 be
       -0.011571437 -0.08750223 -0.47616163 -0.20325519
0000e0 e3 7a dd be 37 25 12 3f 79 e1 da 3d f6 27 78 3e
       -0.43257818 0.57088035 0.10687537 0.24233994
0000f0 f0 82 2a bd 06 79 81 3e 0c f0 28 3e 3c 5b 97 bd
       -0.041628778 0.25287646 0.1649782 -0.073904485
000100 11 5e c1 be 73 0f e3 bc 2a e2 f5 be 7d ff dd 3d
       -0.3776708 -0.027717328 -0.48024112 0.10839746
000110 53 82 16 3f 5e 1c f7 3e 90 18 88 bf d5 57 4c 3e
       0.5879261 0.4826383 -1.0632496 0.1995538
000120 b2 f3 99 3e 7c fd b6 3d f8 fd 9d bc 0f be 4e 3f
       0.30068737 0.08935067 -0.01928614 0.80758756
000130 b0 c3 40 be 08 94 63 3f 9b 9b dc 3e c5 80 fc 3e
       -0.18824649 0.8889775 0.43087468 0.49316993
000140 0d 74 ef be 88 d3 c5 bd 9b 4d ed be 43 be 68 be
       -0.46768227 -0.09659487 -0.4634827 -0.22728829
000150 bd ba 8e be ce 26 60 3e f2 09 86 be 8d 58 52 3d
       -0.27876845 0.21889803 -0.26179463 0.05135398
000160 55 9d 59 3e 55 f9 2e 3e fd e6 6f be f6 f5 17 bf
       0.21251424 0.170873 -0.23427959 -0.5935968
000170 22 cc b5 3e d1 7b d0 3e e2 46 2c be 36 2e 3e bd
       0.35507303 0.40719464 -0.16823915 -0.04643079
000180 dc 1d be be 0e 52 ef 3c b0 f1 9e 3e db a9 9c 3e
       -0.37132156 0.029213931 0.31043768 0.3059834
000190 eb 14 b5 bd 70 fa 1c bf a6 12 79 be 1d d5 bb 3e
       -0.088418804 -0.6131964 -0.2432352 0.3668603
0001a0 ff b1 2a 3f ad a2 9a 3c 13 b8 10 bd e6 c5 21 3e
       0.6667785 0.018876398 -0.035331797 0.15798149
0001b0 5e 9d f7 3e fc 85 d1 be 22 ab 4b 3d 26 b0 04 bf
       0.4836225 -0.40922534 0.04972375 -0.5183128
0001c0 47 90 66 be a4 15 0c bd 2a 22 23 bf c7 71 f3 bd
       -0.22515975 -0.034200326 -0.63724005 -0.11886936
0001d0 65 6d 15 3f c4 5a a4 be 33 d7 94 be 5e 95 74 be
       0.5837005 -0.321005 -0.29070434 -0.23885104
0001e0 d4 24 b1 3e cc 55 1c 3f 58 e9 19 bf 3b b3 d0 3e
       0.3459841 0.61068416 -0.6012168 0.40761742
0001f0 2a 2f 96 3e 1f aa 7c bb 65 20 83 3b 4e 9d 83 3d
       0.29332858 -0.0038553549 0.0040016645 0.06426488

mlp_encoder.lins.2.weight f4 [128, 128]
000000 d9 fc 91 bd 44 e5 b3 be 72 a0 05 be 37 3f 61 bd
       -0.07128305 -0.35135853 -0.13049486 -0.054991927
000010 58 01 a1 3d 33 9f 22 3d 93 ea 83 3e 96 9a 27 bf
       0.078615844 0.039702605 0.25764903 -0.65470254
000020 56 54 ea 3d c8 dd 57 be 8f 12 12 3e 26 ee be bd
       0.11441867 -0.21080697 0.14264892 -0.09322767
000030 5f 1a fd bd 6a 7d ab 3e 52 eb 61 be 14 e9 68 3d
       -0.123585455 0.3349412 -0.22062424 0.056862906
000040 5d 96 ab be d9 f2 06 bd e8 f3 63 3d cf ea da be
       -0.33513156 -0.03294644 0.05565253 -0.4275727
000050 8c 95 4d 3e a9 a5 b9 3e d8 23 39 bd 85 a6 22 3e
       0.20076579 0.362592 -0.0452002 0.15883835
000060 d9 3d c0 3e fc 1f 46 3e 5a 9d 74 bc de 1d 6a bc
       0.37547186 0.19348139 -0.014930094 -0.014289347
000070 59 b4 15 be 1a 0e 27 be c7 e2 07 3e 91 a3 7c be
       -0.14619578 -0.16313973 0.13270102 -0.2467177
000080 f1 a1 bd 3e 17 43 61 bd 7e a2 77 bd 09 dc 53 be
       0.37037614 -0.054995622 -0.0604577 -0.20689406
000090 14 98 08 be 57 80 a0 be f7 ac 8c bd 0d 5f 8d 3d
       -0.13339263 -0.31347916 -0.06868928 0.06902895
0000a0 4d a0 3b bd 29 53 e8 bd b2 7e 3e 3d d8 c2 af bd
       -0.04580717 -0.113439865 0.046507545 -0.08582085
0000b0 c6 6d 3e 3f bf cf bf bc 12 78 75 bd 22 14 33 be
       0.7438625 -0.02341449 -0.05992896 -0.17488149
0000c0 ad c2 ac be 67 a1 e9 bd fe cf 81 be dc 09 49 bc
       -0.33742276 -0.11407738 -0.25353998 -0.012270417
0000d0 ad 1d 47 3d e8 4e 4d 3d e9 d6 88 3d 4f 63 18 bf
       0.048612285 0.05012408 0.06681616 -0.5952653
0000e0 dc 75 94 3b 37 a6 68 3d 55 4a 67 3f f4 1b 06 be
       0.0045306515 0.05679914 0.90347797 -0.13096601
0000f0 cd 8c 13 be 89 0c 0a be 9c cb c3 3d 10 a3 8f 3e
       -0.1440918 -0.13481344 0.0956032 0.28054094
000100 a6 75 62 3d b8 29 c7 bd 98 05 70 be a1 4e 0b 3e
       0.05528798 -0.09724754 -0.23439634 0.13604213
000110 db ef 80 be ce 23 ee bd 18 0f 48 ba ef 9c c2 3e
       -0.25182995 -0.11627923 -0.00076316437 0.38010356
000120 86 15 23 be 9a 07 86 3e dd e4 0a 3e 4b 9a 69 be
       -0.1592618 0.26177675 0.13563867 -0.22812764
000130 af 52 ec be f4 70 64 3f ff b8 56 bc b2 7d 70 be
       -0.46156833 0.8923485 -0.01310563 -0.23485449
000140 b2 3b cc bd 28 7a 9c bc 77 fb f3 3e ac ee 38 3e
       -0.099723235 -0.019101217 0.4765279 0.18059796
000150 e7 b7 97 3d 01 2b 1b 3f 6b 3a 2a 3f 5f 16 b0 be
       0.074081235 0.60612494 0.6649539 -0.34392068
000160 fc 1f 9b 3d a4 97 00 bf 99 53 b9 be 0d 82 95 be
       0.0757446 -0.50231385 -0.36196592 -0.29200783
000170 80 f7 05 be 33 a2 6e be 10 8f 0a 3f e4 be 0f 3f
       -0.13082695 -0.23304062 0.54124546 0.5615065
000180 1d cb b4 3c 20 d4 05 3f 9f f3 bf 3d 2c 91 cb 3c
       0.022069508 0.522768 0.09372639 0.024849497
000190 02 c4 42 3c 94 ef c7 3d ea 20 51 be 12 39 3d 3e
       0.011887552 0.09762493 -0.20422712 0.18478802
0001a0 a4 9a c6 3d 54 c5 b3 bd 32 7c d8 be f1 be c6 3e
       0.09697464 -0.08777872 -0.42282254 0.38817552
0001b0 79 67 27 3f 88 54 06 bf 5d ad 71 be a9 95 23 bf
       0.6539226 -0.52472734 -0.23601289 -0.6390024
0001c0 6d dc 4d 3e 53 41 3f 3e 69 d3 01 be e7 58 92 3e
       0.20103617 0.18677263 -0.12678303 0.28583452
0001d0 b0 39 e3 3e 4a 2f 1d 3f 5d cc a4 3c de 3c ce be
       0.4437995 0.6140028 0.02011698 -0.40280813
0001e0 5f 5f f7 3d 93 17 ef 3e e4 e7 01 be 15 ad dc 3c
       0.120787375 0.46697673 -0.12686116 0.026938
0001f0 ac 93 00 bf ea 3f 6b 3e 27 e9 3d 3e 9e e0 1c bd
       -0.5022533 0.229736 0.18545972 -0.03830015
000200 fe e3 2c 3d db 98 c8 bc b2 ec c0 3d b6 c5 b7 bd
       0.042209618 -0.02448695 0.09420146 -0.08973257
000210 af 18 d3 bd 37 6a 7b be bf 5c 70 3e be 51 f9 3c
       -0.103074424 -0.24552236 0.2347288 0.030434486
000220 01 f1 fc bd 73 20 a1 3e 65 fe f6 be ee 95 c9 bd
       -0.12350655 0.3147007 -0.48240963 -0.0984305
000230 1e 97 c1 3d 10 20 9b 3e 01 d8 91 3e 8a 56 9d be
       0.094526514 0.302979 0.2848511 -0.30730087
000240 a9 8c 9f 3d b9 f2 3c bd ef d5 65 bc 09 a2 58 3e
       0.07790501 -0.046129916 -0.0140280565 0.21155562
000250 cb 02 ab bc 6e ae b1 3c 83 d9 d3 3d 92 54 ee 3d
       -0.020875355 0.02168962 0.103442214 0.11637224
000260 c8 22 00 3e 62 59 15 be 72 c3 e1 bc 86 b1 b2 3d
       0.12513268 -0.14584878 -0.027559016 0.08725266
000270 c8 8a 91 3d 01 04 d7 3d 38 c3 aa 3e d9 7c ab 3e
       0.071065485 0.104988106 0.33352065 0.3349369
000280 6f 23 ec 3d d5 53 79 3e 4f 3e f1 3e a9 70 59 be
       0.11530196 0.24348386 0.4711785 -0.21234383
000290 04 0d 7b be ef 98 55 bd d8 30 bc 3d 96 4f 15 be
       -0.24516684 -0.052147802 0.09189004 -0.14581141
0002a0 2d 21 22 3d 5d 84 a3 3d 59 9a f7 bd 07 50 08 3e
       0.03958242 0.07984231 -0.12089986 0.13311778
0002b0 26 1a 11 3e af 02 3a 3e f0 a0 c3 be cf 97 ed 3d
       0.14170131 0.18165086 -0.38208723 0.11601221
0002c0 a7 51 fd be 1b c2 2d be 03 45 ec 3d 3a ba 0d 3e
       -0.49476358 -0.16968577 0.115366004 0.13840571
0002d0 01 18 36 3c 14 09 93 3d 14 26 2f 3c 22 8b ad be
       0.011114121 0.07179466 0.010690231 -0.33895212
0002e0 3d 1b 80 3d c4 de ea be 53 37 c5 3d c7 55 49 3d
       0.06255195 -0.45873082 0.09629693 0.04915407
0002f0 ca 56 c5 be 8d 68 9a be 0f a8 c6 bc e9 b7 08 3e
       -0.38542777 -0.3015789 -0.024250058 0.13351406
000300 34 86 39 bb 6f 0c 0f 3e 5e 78 86 3e 18 05 ca 3e
       -0.002830875 0.13969587 0.26263708 0.3945701
000310 78 2b d0 be 36 2a ee 3d e7 71 4a 3e 09 fb 25 3e
       -0.40658164 0.11629145 0.19770013 0.16209044
000320 9d a4 01 3e 62 64 b3 bd be d2 8d 3d 35 ca 53 3e
       0.12660451 -0.08759381 0.069249615 0.20682605
000330 89 28 b8 be 5a b5 c1 3c a3 c7 56 3e f7 08 26 be
       -0.35968426 0.023646045 0.20974593 -0.16214357
000340 1a 5e 6b bd fa 2b a5 bd c8 94 07 be d3 52 f4 3d
       -0.05746279 -0.080650285 -0.1324035 0.1192986
000350 31 e7 82 be f7 2c 8c 3e a7 a4 87 3d a4 dc 36 3e
       -0.2556701 0.27378055 0.06623202 0.17857605
000360 7a a7 08 be 9b 67 f0 bd bb 13 e7 be e7 5c de be
       -0.13345137 -0.11738511 -0.4513224 -0.43430254
000370 cf 83 d0 be a2 a5 ce be 64 08 7c 3d f1 c0 89 3d
       -0.40725562 -0.40360743 0.06153144 0.06726254
000380 a4 0a e5 3e e3 d6 37 3e 12 e8 42 be 23 54 84 3d
       0.4473468 0.17953067 -0.1903384 0.0646136
000390 41 88 51 3e e4 fd 51 bd 57 16 49 be 4c 5d 35 3e
       0.20462133 -0.05126752 -0.19637428 0.17711371
0003a0 3b bf 95 3e 6b d8 53 be b4 aa 15 bd ac 5c 3e bd
       0.2924746 -0.20688026 -0.03653975 -0.046475098
0003b0 1e cc 70 3e 47 2a 0c bf 42 d9 d0 bd 66 c7 c7 be
       0.23515365 -0.5475201 -0.10197689 -0.39019316
0003c0 42 eb 7f 3e 93 bd d1 bd 37 f5 08 3e 77 ad ff bb
       0.24992087 -0.102412365 0.13374792 -0.007802661
0003d0 28 09 63 3d c9 08 86 3e d4 b4 08 bd 6a 73 0d 3e
       0.055428654 0.26178578 -0.033375576 0.13813558
0003e0 2f 5a a0 3d 03 d7 c4 3a 49 ea cd 3c 58 a5 f4 3d
       0.07829701 0.0015017692 0.02513613 0.11945599
0003f0 8f da 4a 3d c6 c3 d8 bd 74 82 2d 3c 4d b3 8c 3e
       0.04952484 -0.10584216 0.0105901845 0.27480546

mlp_encoder.lins.2.bias f4 [128]
000000 4a 3f 1d be 77 1b e9 3e f1 d4 71 3e da 44 e4 bd
       -0.15356174 0.45528767 0.23616387 -0.11145945
000010 d7 3f a1 3e 78 80 ef 3e 91 6b 26 3f 4e a0 8b bd
       0.31494018 0.467777 0.65007883 -0.06817685
000020 30 5e e5 3e a8 23 4d 3e 67 1c bc 3e 29 e0 4c 3e
       0.44798422 0.20033133 0.3674042 0.20007385
000030 66 ab b7 3e e2 2c 05 bd 57 d4 06 3f 45 c5 90 3e
       0.35872954 -0.032513507 0.52667755 0.28275505
000040 9f 86 9b bd ea 86 b7 3e 6b 87 20 3e 3b 33 dc bd
       -0.07594036 0.3584512 0.15676658 -0.10751959
000050 32 60 2f be c5 a2 c4 3c a4 a3 f3 3e d5 f2 63 3e
       -0.1712654 0.024003396 0.47585785 0.22260602
000060 a1 b9 e7 3e a5 33 01 be d7 34 4b be c7 cd bc 3e
       0.4525881 -0.12617357 -0.19844376 0.36875746
000070 97 01 7a be 0a a1 9e bd 8e bc 93 3e 73 61 fb 3e
       -0.24414669 -0.077455595 0.28854793 0.49097785
000080 ce a0 13 be c4 b1 1c 3e fe 53 3b be 3e 8e 90 3d
       -0.14416811 0.15302187 -0.18293759 0.070583805
000090 56 12 17 bd 82 cf 9f 3e 47 a3 0d be 93 7d 1d be
       -0.03688272 0.31213003 -0.13831817 -0.15379934
0000a0 94 21 39 3e 73 bb e6 be f2 25 10 be 22 c1 2b 3e
       0.18079215 -0.45064887 -0.14076975 0.16772893
0000b0 03 c8 5a be 0b 87 a3 bd db 56 d4 be 06 5d 25 3f
       -0.21365361 -0.07984742 -0.41472515 0.6459507
0000c0 3b c8 3b 3f c5 62 bc 3d 5c 6d c6 3e 9b bf 17 3d
       0.733524 0.09198526 0.3875531 0.037047964
0000d0 aa 38 07 bf 37 a9 0f 3e 54 f2 84 3e ca fb 97 3e
       -0.5282084 0.14029394 0.25966132 0.29684287
0000e0 ac 47 e9 be 53 c0 a8 be c3 2d 91 3e 72 bf eb 3e
       -0.45562494 -0.32959232 0.28355226 0.460445
0000f0 96 7b 02 be fc a2 6c 3b 42 03 05 3f 2b c4 2a be
       -0.12742457 0.0036107888 0.51958096 -0.16676395
000100 9d 4a 76 bd 7b 72 06 3f 2d 2b bb bd d2 67 f6 bd
       -0.06012975 0.52518433 -0.091390945 -0.12031521
000110 b2 c4 e3 3c 12 3b 4b be ca 6e 0c 3d d5 cc b0 3e
       0.027803753 -0.19846752 0.034285344 0.34531274
000120 ad ba 9d 3e 25 78 99 bd c0 fa e2 be 34 06 a4 be
       0.30806485 -0.07493619 -0.44331932 -0.32035983
000130 31 a4 b7 bd 06 44 19 3e e9 fb 42 3e 80 7f 23 3f
       -0.08966864 0.14967355 0.19041409 0.63866425
000140 b8 3b 0e bf 46 65 9e 3e 88 cf cb bc 67 79 3d 3e
       -0.55559874 0.3093664 -0.024879232 0.18503343
000150 e5 bc b7 bd 7e 2f 48 be 8d 57 53 3e 67 db d5 be
       -0.08971576 -0.19549367 0.20638867 -0.41768953
000160 c3 d5 dc 3d 68 6d 79 3e 25 70 80 3f 21 b6 86 bc
       0.10782959 0.24358141 1.0034224 -0.016444268
000170 e8 a4 e1 3e c3 42 08 3f 75 4f bf bd a7 21 a9 be
       0.44071126 0.5322687 -0.09341327 -0.33033487
000180 eb 34 04 3f 92 14 5e b9 3b 48 1c 3e a4 33 64 bd
       0.51643246 -0.00021179233 0.15261929 -0.05571331
000190 b8 aa 97 bd ab be 1a 3e 89 b5 45 3f d8 ac b7 3d
       -0.07405609 0.15111797 0.77230126 0.08968514
0001a0 74 c6 f2 be d8 38 80 3b ce 01 ac bb c3 aa 7d 3e
       -0.47417033 0.0039130263 -0.0052492386 0.24772172
0001b0 ed e2 97 3d 59 06 64 be c7 81 6c be 4f 8b ab 3c
       0.074163295 -0.22268046 -0.23096381 0.020940451
0001c0 05 a2 23 3e 20 3d 9a 3e 86 2c bd 3e 1c 4e b9 3e
       0.15979774 0.3012476 0.3694803 0.36192405
0001d0 91 df 8f be de 03 1b 3e 13 e8 36 3f 1a cd 94 bd
       -0.28100255 0.15138194 0.7144787 -0.072656825
0001e0 50 51 1e be f6 25 e6 3e 0f 2c ac 3e b7 df bb 3d
       -0.15460706 0.44950837 0.33627364 0.091735296
0001f0 fa ca 98 3e 4d 59 63 3c 72 b9 8a 3e fd 75 03 3e
       0.2984236 0.013876271 0.2709461 0.12837978

mlp_encoder.lins.3.weight f4 [96, 128]
000000 58 df dd ba 53 c8 17 bd 18 19 60 be db f8 ea 3e
       -0.0016927524 -0.03705628 -0.21884573 0.45892987
000010 f8 60 f5 bd b8 e3 52 bf e5 4a 83 3d 82 5e 01 be
       -0.11981386 -0.8237872 0.064107694 -0.12633708
000020 f2 d0 0f be e4 0a 25 3f df 79 47 3d 1e 5f e2 bc
       -0.1404455 0.6446974 0.04870021 -0.027633246
000030 40 00 b1 bf 47 12 11 3e e2 54 61 3e 7a f4 74 3d
       -1.3828201 0.14167129 0.22005036 0.059803464
000040 64 d8 c3 bd 5a 46 be bd ab ee 00 be f0 b7 76 3e
       -0.095627576 -0.09290762 -0.12591045 0.24093604
000050 c3 33 ef 3c f1 a9 56 be 45 fa 28 3d 5c e0 5d 3e
       0.029199487 -0.20963265 0.0412543 0.21667618
000060 9a 56 f4 be 3e 42 b4 3d 83 e2 4b be 96 9f a2 be
       -0.47722322 0.08801697 -0.19910626 -0.3176238
000070 84 bd b9 bf b8 bd 98 3c ea b6 ff bc ac 93 ca 3b
       -1.451096 0.018645152 -0.03121515 0.0061821546
000080 66 09 b5 3e 56 41 a2 3d 77 04 b9 bc 22 7f 10 bc
       0.35358733 0.07922618 -0.022585137 -0.008819373
000090 70 6a ad 3c e3 d8 b1 3b 71 d7 12 3e be 79 d5 3c
       0.021168917 0.0054274662 0.14339997 0.026059028
0000a0 c0 1d a7 be 25 74 ff 3f 2d d6 81 bf cb 23 a1 bd
       -0.32639885 1.995732 -1.0143486 -0.07868155
0000b0 9b 98 f4 be 12 81 de 3d a3 80 d0 b9 50 00 f9 3b
       -0.4777268 0.10864462 -0.00039768693 0.007598914
0000c0 a6 ad 3f 3e 14 77 6d 3e c1 57 f2 bd f9 66 35 bf
       0.18718585 0.23189956 -0.11833144 -0.7086025
0000d0 95 07 58 be c0 da 43 bd a7 65 8e 3e 0c 05 a9 bb
       -0.21096642 -0.047816038 0.2781193 -0.0051580723
0000e0 4e 89 32 be b6 9f 81 bd c5 ea f0 bf 58 d1 1e be
       -0.1743519 -0.063292906 -1.8821646 -0.15509546
0000f0 4d 3f 26 bf 18 83 28 3e 04 7f 8d bd a5 04 06 be
       -0.6494034 0.16456258 -0.06908992 -0.13087709
000100 4e 6c ae bc d7 94 49 3e fe 5e 1b be 65 49 c6 be
       -0.021291878 0.19685684 -0.15172955 -0.3872787
000110 ab 9e 72 be 02 c8 e1 3d b2 7e 5f 3d 9b c6 98 bd
       -0.2369334 0.110244766 0.054564185 -0.07459756
000120 6b da 29 3e 64 5b 36 3d c0 2e 22 3e f6 29 9e 3e
       0.16587226 0.04452075 0.15838146 0.3089139
000130 fa ce 01 bf 91 18 31 3d 9a 6a 36 3e 00 65 a5 3f
       -0.50706446 0.04323632 0.17814103 1.2921448
000140 40 8c 02 be c8 31 18 be 96 a7 78 3f a3 cb 9a be
       -0.12748814 -0.1486274 0.97130716 -0.30233487
000150 c0 39 17 bd 82 34 59 bf d6 ee 1c 3e 55 0d 46 3e
       -0.03692031 -0.84845746 0.15325484 0.19341023
000160 17 ee 10 3e 23 5c c1 be 1f 51 f2 3d 91 69 8f bf
       0.14153324 -0.37765607 0.11831879 -1.1204091
000170 c8 b2 0e bf 6d 6b 04 3e e4 fe d6 ba 45 4c 25 bf
       -0.5574155 0.12931605 -0.0016402868 -0.64569503
000180 c2 cd 84 3f 97 92 1e 3c 9f 20 95 3d 18 40 2b bf
       1.0375292 0.009678504 0.072816126 -0.66894674
000190 53 b5 c8 be bd 64 a1 bb 1f 75 cb bd c3 7b 85 3b
       -0.3920084 -0.004925339 -0.099344485 0.0040735914
0001a0 98 c8 c6 3d 96 7e 86 3e 70 1c 08 3f 40 57 4b be
       0.09706229 0.26268452 0.5316839 -0.19857502
0001b0 f7 2f c8 3e 05 a2 4d be bf bf a9 bd 34 48 ef 3e
       0.39099094 -0.20081337 -0.08288526 0.46734774
0001c0 b4 4b e8 be 83 52 b6 be 50 d5 02 3e eb 5f 00 3e
       -0.45370257 -0.35609826 0.12776685 0.1253659
0001d0 6b 0f 02 bd 6a be 85 bd a6 7e d7 bd 55 5c f2 3d
       -0.031752985 -0.06530459 -0.10522203 0.11834017
0001e0 49 8f 3c be 3f e9 b6 bd b3 2f f4 bd ea bb be bd
       -0.18414034 -0.08931207 -0.119231604 -0.093131855
0001f0 65 dd 3f bd 00 80 14 3f f2 d5 b6 3d 7f e9 a9 bd
       -0.046841998 0.5800781 0.089275256 -0.08296489
000200 a6 99 ad 3d 85 de 00 bd 06 85 5c be 8e 8a 06 3f
       0.08476572 -0.03146221 -0.2153512 0.5255517
000210 e7 3c d7 bd 7b fe b4 be 93 52 48 3f e5 53 b8 be
       -0.10509663 -0.35350403 0.78251 -0.36001506
000220 4a 31 2a bd 72 40 c3 bb 95 10 0a bd 2b fb b7 bc
       -0.041550912 -0.00595861 -0.03370722 -0.022458633
000230 ff e4 19 bf 3d be 06 3e 39 4b 04 3e 5d da a0 3d
       -0.60115045 0.13158508 0.1291932 0.078541495
000240 8d 7a c8 3d c2 2a a4 bd 56 8c f4 bd f2 c6 87 3d
       0.09789 -0.08015968 -0.119408295 0.06629743
000250 4f d5 30 3d 27 01 63 bc c8 e0 c0 bc 7f 1e b5 3d
       0.043172177 -0.013855255 -0.023544684 0.08843707
000260 a4 97 cf bd da f0 7a 3d 98 0c ad bb 22 5d bd 3e
       -0.10136345 0.06126485 -0.0052810423 0.36985117
000270 fe b3 4f be 8d c1 94 3e 13 5b 91 3c 2b e1 c3 3c
       -0.20283505 0.29053918 0.017743623 0.02391108
000280 5a 2d 21 3e 96 67 1b 3d a1 f0 48 3d 32 c2 d1 bd
       0.15739956 0.037940584 0.049057607 -0.10242118
000290 81 6c 04 bd 9b 57 23 3d 72 b4 85 3e cc 8f 98 3d
       -0.03233004 0.03987847 0.2611423 0.07449302
0002a0 b2 28 05 be a8 37 20 3f df c3 92 be c4 d1 5d 3c
       -0.13003805 0.62584925 -0.28665063 0.013538782
0002b0 03 76 c3 bd 24 2f e8 bd a7 98 40 3d d8 36 5a bc
       -0.09543993 -0.11337116 0.04702058 -0.01331874
0002c0 1d a2 42 3e ac 82 b3 bd b2 33 2a be 2e 8c 50 3e
       0.19007154 -0.08765158 -0.16621283 0.20365974
0002d0 7c 4f 5b be 60 c0 61 bb fa 3b 17 3e 36 01 80 bd
       -0.2141704 -0.003444694 0.14768973 -0.06250231
0002e0 75 bb 0b be 0b f0 70 3d 66 c3 4f bf 22 3f 7d bd
       -0.13645728 0.058822673 -0.8115753 -0.061827786
0002f0 db 0d 3a bf 81 f5 d6 bd 99 fd 8a 3d e1 6e 22 bd
       -0.7267739 -0.10496045 0.06786651 -0.039656524
000300 b0 b5 c4 be b4 1d f0 3d 48 13 27 3d 9f cb b5 bd
       -0.38419867 0.117244154 0.040789872 -0.08876728
000310 fb da 93 be b4 b4 98 3d 42 25 dc 3d 9d 51 99 bc
       -0.28878006 0.074563414 0.10749294 -0.018715674
000320 e5 f1 84 3d f7 fc 3c bd 05 99 7d bd 46 b2 40 bc
       0.0649145 -0.046139684 -0.06191351 -0.011761254
000330 6d e9 72 be 10 5d 36 bd 63 76 51 3d b7 b7 4c be
       -0.23721857 -0.044522345 0.051138293 -0.19991957
000340 e6 2a ba 3b 38 9a 8e 3d 47 03 df 3e 2b 36 22 3d
       0.0056813834 0.06963009 0.43557188 0.03960244
000350 82 eb fb bc 5e 09 b7 be 9b 5d 60 3d 5e db 43 3d
       -0.030751947 -0.35749334 0.05477677 0.047816627
000360 21 b3 0b bd f8 05 fa bd 55 62 b3 bd 42 97 a0 be
       -0.034106378 -0.1220817 -0.0875899 -0.313654
000370 62 dd 48 be bb c0 ea 3d 08 26 41 bd ff 4a 0c bf
       -0.19615701 0.11462542 -0.04715541 -0.54801935
000380 1e fa 09 bf ed 12 44 3d d2 f9 a3 bc 34 f5 05 bf
       -0.53897274 0.04786961 -0.020016585 -0.52327275
000390 93 3a 3e bc 79 87 79 3c 0b e7 f8 3d 75 3c d4 bd
       -0.011610645 0.015230053 0.12153443 -0.10363094
0003a0 eb 55 41 3d c4 93 4b be 07 b9 c3 3e fd c5 49 be
       0.04720108 -0.19880587 0.38227102 -0.19704433
0003b0 78 c5 e1 3e 9e 17 2e be 5c 98 95 bd 8e e5 83 bb
       0.4409597 -0.17001197 -0.07304451 -0.004025168
0003c0 1f 41 1b bf f9 5e 29 be 93 e9 06 bd bd 51 55 3d
       -0.6064624 -0.16540135 -0.032937597 0.052079905
0003d0 8a 6f 38 3e 58 9a e8 bc be 9e 1f be 24 7f 79 3d
       0.18011299 -0.02839391 -0.15587899 0.060912266
0003e0 78 11 63 3e da 79 b8 bd c1 a2 76 bd b5 12 8a bd
       0.22174633 -0.09007616 -0.060213808 -0.06741849
0003f0 c8 6e ba 3c 91 92 ec 3e ca 7d 68 39 22 3b d6 bd
       0.022757903 0.4620557 0.00022172104 -0.104604974

mlp_encoder.lins.3.bias f4 [96]
000000 23 70 95 bf cc ae 5b bf 02 5b 8e 3f 5c 9d 8c bf
       -1.1674846 -0.85813594 1.1121523 -1.0985522
000010 af 8b 4c bf d0 b6 1f 3f b5 d7 7e bf 54 17 38 bf
       -0.7990064 0.62388325 -0.9954789 -0.71910596
000020 6c f3 56 bf 6e 32 ca 3f b5 8f 57 bf 69 23 2c bf
       -0.8396518 1.579664 -0.84203655 -0.6724153
000030 d5 70 80 bf c7 ec 08 bf de 59 78 bf e2 02 29 bf
       -1.0034434 -0.53486294 -0.97012126 -0.66020024
000040 2b df 0d 3e 3c f6 0e bf e7 7d 6a bf ab 8d 3a be
       0.13854663 -0.55844474 -0.9159836 -0.18218105
000050 3f 64 05 bf 37 55 2a bf 4d 35 99 bf aa 3e 53 be
       -0.5210609 -0.6653628 -1.1969391 -0.20629373
000060 5a 74 51 bf c1 f5 84 bf 42 95 6e bf 2d 3b 34 3f
       -0.81818163 -1.0387498 -0.931965 0.70402795
000070 32 3f 36 3e 75 d0 00 c0 7d 78 b9 be 87 ac 46 be
       0.17797545 -2.0127232 -0.36224738 -0.19401751
000080 a5 98 01 bf 63 7e fa be 89 1e 90 bf b5 28 4b bf
       -0.5062354 -0.4892455 -1.1259319 -0.7935899
000090 fa 47 34 bf 02 3e 95 bf 0a 06 75 bf 16 0f 96 bc
       -0.7042233 -1.1659548 -0.9571234 -0.01831774
0000a0 58 1e 60 bf 00 e9 71 bf 9a a7 a2 bf 79 75 46 bf
       -0.875463 -0.94496155 -1.2707398 -0.77523
0000b0 ed 4d b6 be 7a 8a f9 3e 31 7b 1f 40 a8 27 00 bf
       -0.35606328 0.48738462 2.491894 -0.5006051
0000c0 99 e6 65 3f 4f 98 25 bf e2 a9 22 bf bd 62 95 bf
       0.8980499 -0.6468553 -0.6354047 -1.1670758
0000d0 a4 0e 6e 3f 2b a4 ac bf 23 8e e1 be 39 cf 2b bf
       0.9299109 -1.34876 -0.44053754 -0.6711307
0000e0 3a 1f 91 3f 2f 85 1e 3f ad 16 36 3f 53 73 4d 3f
       1.1337655 0.6192197 0.7112835 0.80254096
0000f0 a9 85 5f 3f 36 b9 16 bf 47 48 0a 3f 83 5c 7d bd
       0.87313324 -0.5887636 0.54016536 -0.061855804
000100 04 d1 2a bf 88 01 93 3f 9e 20 93 be f6 a2 a8 3f
       -0.6672518 1.1484842 -0.28735822 1.3174732
000110 f3 57 28 bf 08 c0 2c bf 5b f6 d0 bf 1b 4c 3f 3f
       -0.657592 -0.67480516 -1.6325182 0.747255
000120 4b 0b 10 bf 18 69 57 3f 39 d6 21 bf 44 42 95 bf
       -0.5626723 0.84144735 -0.632175 -1.1660848
000130 00 03 1c 3f 08 37 4f 3f d1 73 27 3f 03 17 8c 3f
       0.6094208 0.80943346 0.65411097 1.0944523
000140 dc 40 f5 be 5f e1 73 3f 08 62 17 bf e8 f0 2c 3e
       -0.47901046 0.95265764 -0.5913396 0.16888773
000150 7c ca 72 3f 09 fa 0e bf a1 df 01 bf 51 e2 fe 3e
       0.94840217 -0.55850273 -0.50731856 0.4978204
000160 c0 d6 39 bf ae cf 1b 3f 8e 13 26 be a2 e1 91 be
       -0.7259331 0.6086377 -0.16218397 -0.28492457
000170 15 61 9e 3f ff 46 15 bf 32 74 fa 3e 9c 73 1f 3f
       1.2373377 -0.58311456 0.48916775 0.6228578

mlp_encoder.norms.0.module.weight f4 [128]
000000 4b 12 7b 3f d3 45 a8 3f 0b 20 99 3f 2d 98 3e 3f
       0.9807479 1.3146309 1.1962904 0.7445095
000010 13 0b 6d 3f e7 87 72 3f 58 ea 95 3f 8a 0b 82 3f
       0.9259502 0.9473862 1.1712141 1.0159771
000020 99 bc 98 3f 22 fe 85 3f 67 d3 89 3f df 62 80 3f
       1.1932555 1.046818 1.076764 1.0030173
000030 60 66 8e 3f f6 75 47 3f e7 d5 4a 3f 5e 3f 8b 3f
       1.1124992 0.7791437 0.7923264 1.0878713
000040 7b 49 79 3f 5c cc 97 3f 82 6a 78 3f 53 ea 71 3f
       0.9737775 1.185924 0.9703752 0.94498175
000050 56 b4 41 3f dc 34 6a 3f 30 fb 2e 3f 61 50 52 3f
       0.75665796 0.91486907 0.6835203 0.821539
000060 32 8c 8c 3f 3c ae 57 3f 37 cf 60 3f 66 3f 81 3f
       1.0980284 0.84250236 0.87816185 1.0097473
000070 2a 16 8a 3f 06 b5 8a 3f 44 ab 9b 3f 8b f0 8b 3f
       1.0788014 1.0836494 1.2161641 1.0932783
000080 7a ba 6d 3f 0b 4b 7a 3f 5c ab 65 3f 66 b1 7c 3f
       0.92862666 0.97770756 0.897146 0.9870819
000090 b2 83 67 3f c8 eb 6f 3f 9c 8f 80 3f 4c 90 97 3f
       0.90435326 0.9371915 1.0043826 1.1840911
0000a0 6a 2e 7b 3f 10 2e 92 3f d5 99 90 3f 0c 50 6a 3f
       0.981177 1.1420307 1.1296946 0.9152839
0000b0 21 fc 86 3f 3a 99 81 3f be 72 8a 3f cd e3 5e 3f
       1.0545694 1.0124886 1.0816267 0.87066346
0000c0 85 d0 5f 3f f2 84 80 3f 72 4a 78 3f d6 0f 39 3f
       0.8742755 1.0040572 0.96988595 0.7228979
0000d0 a0 43 85 3f fa 48 7f 3f 01 b1 8a 3f 8c 42 41 3f
       1.0411263 0.9972073 1.0835267 0.7549217
0000e0 93 8a 89 3f bf c8 90 3f 1b c3 8f 3f 6f 70 75 3f
       1.0745414 1.1311263 1.1231416 0.95874685
0000f0 e9 30 5e 3f 7b 47 5d 3f ca 64 76 3f 2e 71 4f 3f
       0.8679338 0.86437196 0.9624754 0.81032073
000100 94 d7 8c 3f 6e be 86 3f a0 a1 5a 3f d3 82 59 3f
       1.1003289 1.0526865 0.8540287 0.84965247
000110 02 c2 87 3f 5e 6f 64 3f 5e f7 c1 3f 93 b8 71 3f
       1.0606081 0.8923243 1.5153615 0.9442226
000120 1e b7 67 3f 93 d8 7e 3f fa c6 97 3f 5d 61 54 3f
       0.9051379 0.99549216 1.1857598 0.82961065
000130 15 e3 8a 3f 04 dc 92 3f df b0 80 3f f3 ff 85 3f
       1.085055 1.1473393 1.0053977 1.0468735
000140 11 37 83 3f 04 3c 58 3f a7 14 83 3f 4f 0a 81 3f
       1.025118 0.84466577 1.0240678 1.0081271
000150 38 95 4f 3f 48 9a 72 3f 98 df 70 3f a0 7e 84 3f
       0.81087065 0.94766665 0.94091177 1.0351143
000160 a6 09 66 3f 3e 2f 68 3f f9 bb 8a 3f 89 4e 51 3f
       0.8985847 0.90697086 1.0838615 0.8176046
000170 5b 0c 65 3f 70 12 62 3f 71 8c 77 3f 39 f3 73 3f
       0.8947198 0.88309383 0.9669867 0.95293003
000180 31 a6 78 3f ee 35 3f 3f f5 63 80 3f 68 ec 6d 3f
       0.9712859 0.74691665 1.0030504 0.9293885
000190 ad fa 56 3f ea 16 4b 3f 92 b9 81 3f ab 24 7b 3f
       0.8397625 0.7933184 1.0134757 0.98102826
0001a0 39 05 70 3f 06 6e 7c 3f d4 68 94 3f 25 1f 2b 3f
       0.9375797 0.9860538 1.1594491 0.668444
0001b0 f5 95 68 3f d3 46 81 3f 58 b1 85 3f f8 04 73 3f
       0.90853816 1.0099739 1.0444746 0.94929457
0001c0 10 66 54 3f a9 cc 55 3f 91 34 6c 3f d0 dc 76 3f
       0.82968235 0.8351541 0.9226771 0.96430683
0001d0 b7 03 5b 3f 52 73 50 3f ef 38 7f 3f 9b d1 50 3f
       0.85552543 0.81425965 0.9969625 0.8156983
0001e0 51 c7 8a 3f 5c 98 8b 3f ed 06 5d 3f d4 39 4d 3f
       1.0842077 1.0905871 0.8633869 0.80166364
0001f0 b3 c3 6e 3f 45 bf 82 3f a4 ad 8a 3f dc 5a 81 3f
       0.93267363 1.0214621 1.0834241 1.0105853

mlp_encoder.norms.0.module.bias f4 [128]
000000 2e 9b a5 be 62 3b e1 be ce b7 b4 be 23 dd 93 bb
       -0.32344955 -0.43990618 -0.35296482 -0.0045124455
000010 28 86 0c bf ab 75 1f bf e7 b9 15 be 42 21 f5 bd
       -0.54892206 -0.6228892 -0.14621697 -0.11969234
000020 92 65 50 bf cb de 5e bd 09 75 f5 be 9d bb 06 be
       -0.81404984 -0.05441169 -0.47940853 -0.13157506
000030 34 e4 0a bf f2 ae a2 be 74 75 19 bf a9 dc 25 bf
       -0.5425446 -0.31774098 -0.59944844 -0.64789826
000040 c2 16 fa be e9 35 89 bd 81 13 44 bf 29 9e d8 be
       -0.48845488 -0.06699736 -0.7659226 -0.42308167
000050 78 3b d6 be 40 4c 05 bf d7 ca 53 be 47 8a 07 bf
       -0.41842246 -0.52069473 -0.20682846 -0.5294537
000060 44 40 02 bf 24 55 b3 be 7f 82 2d bf 4a 85 36 3e
       -0.5087931 -0.35025895 -0.67777246 0.17824283
000070 43 c2 71 bf e0 86 94 be c3 f6 6f be 1c 28 2f bf
       -0.94437045 -0.2900915 -0.23433976 -0.6842058
000080 2e af ca be fa f6 4b be ee 94 02 bf 9b d5 7b bf
       -0.39586776 -0.19918433 -0.510085 -0.9837281
000090 79 9f 05 bf 8b 04 ec be 9e 9e 5b bf 61 65 ec be
       -0.5219646 -0.46097216 -0.85788906 -0.46171096
0000a0 5e 56 05 3e 1a e7 6e bf 42 f2 c4 be ce c5 9d be
       0.13021228 -0.93321383 -0.38466078 -0.30814976
0000b0 9c 0a ed bd a5 4a 30 bf cc 19 80 3d aa d8 d8 bd
       -0.11574289 -0.688639 0.0625492 -0.105882004
0000c0 d5 9f 9c be 54 19 a4 be bd 02 de bc 3a 9b 1c bf
       -0.30590692 -0.32050574 -0.027100915 -0.61174357
0000d0 a1 b6 0a bf ba 28 fc be 9b 12 39 be bd 4c ac bd
       -0.5418492 -0.49249822 -0.18073504 -0.08413074
0000e0 a8 93 e8 be 68 41 93 be b7 04 40 bf c3 22 90 be
       -0.45425153 -0.28760839 -0.75007194 -0.2815152
0000f0 c5 47 d6 be 39 df fb be 02 4c 52 bf 50 57 f5 be
       -0.4185163 -0.49193743 -0.8214723 -0.47918177
000100 08 da 6d bf 25 e5 d6 bd 2d 4a 05 bf d5 92 ea be
       -0.92910814 -0.104929246 -0.5206631 -0.4581515
000110 c7 8a 24 bf 5a db 26 bf 44 07 b4 be 20 ee 4e bf
       -0.6427426 -0.65178454 -0.35161793 -0.808321
000120 df cf fc bc 78 88 98 be 1c 48 05 be 98 ee 90 3e
       -0.03086084 -0.29791617 -0.13015789 0.28307033
000130 a0 74 cf be 37 d7 70 be 62 11 5d bf d7 dc b4 bd
       -0.40518665 -0.23519598 -0.8635465 -0.08831184
000140 1c b3 6f be b7 4a 1e be 36 e0 26 3e 13 9d 9c be
       -0.23408169 -0.15458189 0.16296467 -0.30588588
000150 7b 9b c9 be f5 ad 39 bf 36 99 61 bd 83 05 2e bf
       -0.39376435 -0.7253106 -0.055077754 -0.6797716
000160 c9 17 96 be 56 e2 0a bd 40 fb 2a bf d1 2a 5c 3e
       -0.29315022 -0.033907257 -0.6678963 0.21500708
000170 a7 8e 2d bf 0d d6 80 3e e4 89 9a be 58 4c 15 bf
       -0.67795795 0.25163308 -0.30183327 -0.58319616
000180 62 e4 33 3e 32 df d7 be 42 c0 df be dc ae 00 bf
       0.1756759 -0.42162472 -0.4370137 -0.50266814
000190 b7 c8 df be 02 e4 24 bf 51 c3 78 bf 91 92 c4 be
       -0.4370782 -0.6441041 -0.9717303 -0.3839307
0001a0 2d 22 13 bf 9b 53 03 bf ce a5 82 be 5d c3 2f be
       -0.57474023 -0.51299447 -0.25517124 -0.17164369
0001b0 2c bc 7a bf 2e 3a 32 bf 86 30 39 bf 63 d7 1a be
       -0.9794338 -0.69620025 -0.72339666 -0.15121226
0001c0 86 9d d4 be dc ff 27 bf a2 00 23 bf 85 94 e9 be
       -0.4152643 -0.65624785 -0.6367284 -0.45621124
0001d0 35 c3 56 be d7 c2 f7 be 98 57 4d bf cd 71 5e 3e
       -0.20972903 -0.48390839 -0.8021178 0.21723099
0001e0 19 b5 fa be f2 88 38 bf 2f 02 17 3e 7c a9 31 bf
       -0.48966292 -0.7208396 0.14746927 -0.6939924
0001f0 a1 06 07 bf c5 0f 81 bf 4d 4e 9a be d7 54 1f 3d
       -0.5274449 -1.0082937 -0.30137864 0.03889927
