runs/StudentModel_Distill_01122148/student_best_accu.pth (torch, 361087 bytes, 47 tensors)

discrete_embedding.embedding_layers.0.weight f4 [7, 6]
0.19804052 0.45688128 -0.26269013 -0.5985558 0.14449115 0.05371971 -0.2341173 -0.015202863
0.1566961 -0.2486921 0.95011103 0.3359788 0.13133076 0.3354711 0.17825544 -0.09751109
-0.18119964 0.04858958 0.095410034 -0.45232984 0.3095559 -0.26063406 0.43003786 0.3418184
0.27759448 -0.08862236 -0.44333223 0.09526035 0.23098332 0.38397098 -0.15988357 -0.24812299
-0.07172627 -0.2699747 0.0758739 0.5929272 -0.16684897 -0.22021052 -0.3339293 0.006195132
0.16612263 0.12231276
00000000: 22cb 4a3e 58ec e93e 527f 86be f43a 19bf
00000010: 7df5 133e 3309 5c3d 72bc 6fbe 6e15 79bc
00000020: f174 203e 24a9 7ebe 7a3a 733f 6a05 ac3e
00000030: 927b 063e dec2 ab3e 9888 363e e5b3 c7bd
00000040: 668c 39be de05 473d 5666 c33d c797 e7be
00000050: 1c7e 9e3e d471 85be ec2d dc3e d202 af3e
00000060: dd20 8e3e a47f b5bd 71fc e2be dc17 c33d
00000070: e486 6c3e d897 c43e 85b8 23be f413 7ebe
00000080: 39e5 92bd 203a 8abe c663 9b3d 14ca 173f
00000090: 75da 2abe de7e 61be c8f8 aabe 8900 cb3b
000000a0: 0d1c 2a3e 1d7f fa3d

discrete_embedding.embedding_layers.1.weight f4 [2, 1]
-0.48369935 -0.10578602
00000000: 71a7 f7be 57a6 d8bd

discrete_embedding.embedding_layers.2.weight f4 [2, 1]
0.26709884 -0.24348937
00000000: 2ec1 883e 4755 79be

discrete_embedding.embedding_layers.3.weight f4 [3, 2]
-0.39547044 -0.18640625 0.016050726 0.19968544 0.27361575 -0.21243873
00000000: 1a7b cabe 48e1 3ebe d07c 833c 577a 4c3e
00000010: 5d17 8c3e 8a89 59be

mlp_encoder.lins.0.weight f4 [128, 14]
-0.0634756 0.5554409 0.07413475 -0.67988247 0.31902114 0.11458409 0.03916369 -0.07310044
0.097930945 -0.16113614 0.503305 0.28352243 0.6674931 0.27246004 -0.4434429 0.45467424
-1.0857993 -0.27109334 -0.024806447 0.17196125 0.2571557 0.19711289 0.13081238 0.43728682
0.010319754 0.018824384 -0.0104997065 0.00024800308 -0.5692542 0.654891 0.46174145 0.12781976
0.038266856 0.28019232 0.004954595 -0.3055821 -0.1264627 -0.09685706 -0.011294981 -0.011556219
-0.013182563 0.022173684 -0.57155883 0.17330424 -0.546109 -0.08770592 -0.20664275 -0.28512177
0.27815077 0.15034845 0.41900796 0.06300583 0.691292 0.47063872 0.14692624 0.16429351
1.0276401 -0.26320335 0.08756375 0.18742076 -0.24237697 0.1318734 -0.29359034 -0.34533232
-0.27002662 0.026995279 0.4996033 0.09565685 0.15742037 0.54146457 1.1534134 -0.09497782
0.008092393 0.6302777 0.055853155 0.014477587 -0.4040237 -0.002651726 0.08350947 0.37388214
-0.17855078 -0.110810325 0.25046507 -0.2566017 -0.22256887 0.57904726 -0.11154889 -0.82543445
-0.014658113 -0.027151365 -0.11912126 -0.16015328 -0.011885569 -0.081286445 0.08899544 -0.120820954
0.28941923 0.17033952 -0.4289512 0.057775985 0.646036 -0.17397805 0.42800996 0.49667194
-0.06923629 0.18665127 -0.16132276 -0.22782469 0.09292001 0.067335404 0.18148041 -0.054784864
-0.046551544 0.018013861 -0.0016483677 -1.290934 -0.2101844 0.1631008 -0.18300444 -0.18161434
0.16933282 -0.05090069 0.0420206 0.034491356 -0.038499095 -0.05576282 -0.6328529 0.1612819
0.6538159 0.17565419 0.10936995 0.40099165 -0.24527186 -0.090879895 -0.116175406 -0.10951953
0.038970213 -0.04282647 -0.092708714 -0.31772178 -0.39476436 0.06391617 1.0466807 0.028066324
-0.30281112 0.3479143 -0.36290538 -0.29091787 -0.25614998 0.14932562 0.06720269 -0.022312067
0.07676461 -0.0075960737 -0.54588276 0.52119243 0.48765147 0.068538256 0.15714832 0.22011971
-0.5101513 -0.3004393 0.10608415 0.23152028 -0.46886855 0.17211889 0.3130812 0.340285
1.2743578 -0.26808786 0.6404035 -0.15374488 -0.1836271 -0.59489775 -0.3183596 -0.0058834255
0.11259234 0.25702918 -0.009427498 0.0006670817 -0.00024271633 -0.023319531 0.4743579 -0.60146123
0.0101739755 0.27024937 0.018162683 -0.028204074 0.10125499 0.09591429 -0.06406589 0.03596722
0.42476258 -0.018016834 0.4525216 0.2919367 0.5148358 -0.5511004 0.16361378 0.0049076844
-0.0012149992 -0.10699288 -0.31745875 0.0047270674 -0.1121365 -0.06854992 -0.4973278 0.12688515
-0.20299347 0.7741694 -0.3359892 -0.33328235 0.13975014 -0.68681735 0.3811327 0.09005062
-0.36660457 0.023506638 0.35768747 0.3715719 0.63188636 -0.59794325 -0.11298823 0.07341762
-0.2127869 0.042721555 -0.29864326 0.744843 0.05691797 0.3003807 0.028242039 0.49987096
0.006715113 -0.23008409 -0.39540634 -0.0064932806 0.34809175 0.55747133 -0.18052495 0.56678355
-0.514699 -0.27887937 -0.18170525 -0.088796765 0.15341844 0.023285348 0.25989214 0.24686627
0.11077385 -0.0025037366 -0.09610588 0.025792673 -0.3644613 -1.051788 0.52252495 0.31017426
00000000: 7fff 81bd 6031 0e3f f6d3 973d c70c 2ebf
00000010: bd56 a33e 10ab ea3d 1b6a 203d afb5 95bd
00000020: 0590 c83d df00 25be 99d8 003f da29 913e
00000030: d4e0 2a3f e27f 8b3e f30a e3be 10cb e83e
00000040: 79fb 8abf bfcc 8abe e436 cbbc 9c16 303e
00000050: e9a9 833e f6d7 493e aef3 053e 0fe4 df3e
00000060: 2f14 293c 9835 9a3c f606 2cbc 6906 8239
00000070: a5ba 11bf f0a6 273f 6069 ec3e 2fe3 023e
00000080: b5bd 1c3d 5e75 8f3e 285a a23b 4275 9cbe
00000090: 707f 01be ff5c c6bd 960e 39bc 4c56 3dbc
000000a0: adfb 57bc 96a5 b53c ae51 12bf ab76 313e
000000b0: cdcd 0bbf 299f b3bd 289a 53be 7bfb 91be
000000c0: c769 8e3e f2f4 193e 3688 d63e 3309 813d
000000d0: 83f8 303f 8ff7 f03e d573 163e 8f3c 283e
000000e0: b689 833f 97c2 86be a054 b33d 3aeb 3f3e
000000f0: ab31 78be d209 073e 7951 96be 66cf b0be
00000100: ee40 8abe 3425 dd3c 01cc ff3e bde7 c33d
00000110: ce32 213e 6c9d 0a3f 0da3 933f bb83 c2bd
00000120: f595 043c e159 213f 47c6 643d 6733 6d3c
00000130: 32dc cebe 94c8 2dbb 0307 ab3d 7b6d bf3e
00000140: 04d6 36be 86f0 e2bd f53c 803e 4c61 83be
00000150: 18e9 63be 713c 143f bf73 e4bd ac4f 53bf
00000160: 9528 70bc 8a6c debc d9f5 f3bd 39ff 23be
00000170: b1bb 42bc 8279 a6bd 3e43 b63d fa70 f7bd
00000180: c22e 943e 7c6d 2e3e 7e9f dbbe 83a6 6c3d
00000190: 9e62 253f 4d27 32be 1f24 db3e c94b fe3e
000001a0: c2cb 8dbd 8321 3f3e cb31 25be e04a 69be
000001b0: d94c be3d 25e7 893d 00d6 393e 1866 60bd
000001c0: d5ac 3ebd ce91 933c 0b0e d8ba 533d a5bf
000001d0: 943a 57be e503 273e 8465 3bbe 1cf9 39be
000001e0: 9565 2d3e 3e7d 50bd cb1d 2c3d cf46 0d3d
000001f0: 3ab1 1dbd 8e67 64bd a602 22bf 1527 253e
00000200: 7b60 273f b1de 333e 5afd df3d c74e cd3e
00000210: 8c28 7bbe 3d1f babd 5fed edbd c64b e0bd
00000220: 3b9f 1f3d cf6a 2fbd 11de bdbd 6eac a2be
00000230: 8e1e cabe 7be6 823d a2f9 853f 59eb e53c
00000240: 0f0a 9bbe d321 b23e bcce b9be 30f3 94be
00000250: 1726 83be d1e8 183e 90a1 893d ccc7 b6bc
00000260: c436 9d3d 7ce8 f8bb f9be 0bbf de6c 053f
00000270: 74ad f93e c95d 8c3d 7deb 203e 1067 613e
00000280: 4799 02bf 2ed3 99be a642 d93d a713 6d3e
00000290: 8a0f f0be ef3f 303e 2e4c a03e d639 ae3e
000002a0: 281e a33f d042 89be 7cf1 233f 4c6f 1dbe
000002b0: be08 3cbe 384b 18bf 0800 a3be c0c9 c0bb
000002c0: d096 e63d 5499 833e cb75 1abc 18df 2e3a
000002d0: ab81 7eb9 9a08 bfbc 0adf f23e 5df9 19bf
000002e0: bfb0 263c 205e 8a3e e8c9 943c 3b0c e7bc
000002f0: c75e cf3d b66e c43d fa34 83bd 5d52 133d
00000300: 7b7a d93e 0a98 93bc e9b0 e73e ba78 953e
00000310: 47cc 033f ea14 0dbf 5f8a 273e a4d0 a03b
00000320: 9c40 9fba 151f dbbd f489 a2be 84e5 9a3b
00000330: d2a7 e5bd e763 8cbd c0a1 febe 2eee 013e
00000340: 85dd 4fbe f72f 463f c706 acbe fca3 aabe
00000350: a91a 0f3e 43d3 2fbf d323 c33e 766c b83d
00000360: 98b3 bbbe fe90 c03c d022 b73e ac3e be3e
00000370: 4ec3 213f cf12 19bf 6066 e7bd fa5b 963d
00000380: cfe4 59be ccfc 2e3d c5e7 98be 08ae 3e3f
00000390: d122 693d 80cb 993e d95b e73c 16ef ff3e
000003a0: 730a dc3b 2a9b 6bbe b372 cabe 96c5 d4bb
000003b0: 1539 b23e 71b6 0e3f 88db 38be ba18 113f
000003c0: 50c3 03bf 47c9 8ebe f110 3abe 14db b5bd
000003d0: b919 1d3e eac0 be3c 9510 853e 83ca 7c3e
000003e0: 66dd e23d bb15 24bb 29d3 c4bd 284b d33c
000003f0: ac9a babe fda0 86bf 32c4 053f 29cf 9e3e

mlp_encoder.lins.0.bias f4 [128]
-0.51746404 -0.06904207 0.23386477 0.24349873 0.32622403 -0.19867544 -0.050425645 -0.08348056
-0.22196518 -0.19279534 -0.13595507 0.16234604 -0.285369 0.33390355 0.07129675 0.19570197
1.4503021 0.15658891 0.30039048 -0.3472262 0.35714442 -0.05326892 -0.39332527 -0.032273676
0.34108624 -0.42810118 0.4674117 0.18445791 0.58780825 -0.95431536 -0.037787605 -0.8488824
0.36360317 0.0502717 0.5877791 0.7043249 -0.30049422 0.2724382 -0.24418083 0.20898591
0.27827567 0.5937537 -0.26455832 0.28041685 0.2734044 -0.3949636 -0.057647616 0.0048557306
0.008124567 -0.29967648 0.13942194 -0.71003824 0.21294534 0.7598199 0.46971798 -0.14863826
0.41354585 0.38852778 -0.27764186 -0.66685075 0.5603576 0.11104059 -0.24636453 -0.6747563
0.1773097 0.29011452 0.2629884 0.042378366 0.2533143 0.15117747 0.16720124 0.22815375
-0.8405748 0.22172712 0.39422727 0.1599156 0.82808316 0.35577494 0.11797471 -0.6381786
-0.3958593 -0.57433504 -0.26802385 0.6591202 0.47580355 0.83453476 0.06802701 -0.4688888
-0.14381175 -0.06037594 -0.13512291 0.26824525 -0.36345065 -0.22594357 -0.15816358 -0.40480018
0.29128462 0.14875999 -0.49248198 -0.3808581 0.64002824 -0.58655113 0.18016392 -0.082163274
-0.2656832 -0.02606861 -0.56332344 -0.6313661 0.16955385 0.38905632 0.64790714 0.38052788
0.20988157 -0.6864512 -0.28517124 -0.060251396 0.2677208 0.2321064 -0.26924682 0.36503866
0.20939378 0.3139495 -0.06653776 0.23944648 0.35220778 -0.43399516 -0.27246302 0.049197737
00000000: 8678 04bf ee65 8dbd 3f7a 6f3e bb57 793e
00000010: d606 a73e 9371 4bbe 1f8b 4ebd dbf7 aabd
00000020: d74a 63be 246c 45be ce37 0bbe 0a3e 263e
00000030: e31b 92be 68f5 aa3e 0804 923d 1966 483e
00000040: 80a3 b93f d858 203e c8cc 993e a2c7 b1be
00000050: a2db b63e 8330 5abd ee61 c9be 6731 04bd
00000060: dba2 ae3e 1430 dbbe 9650 ef3e 89e2 3c3e
00000070: 9a7a 163f 034e 74bf 2dc7 1abd 5b50 59bf
00000080: 322a ba3e b3e9 4d3d b178 163f a34e 343f
00000090: 61da 99be 057d 8b3e 8a0a 7abe 6700 563e
000000a0: 267a 8e3e 3e00 183f 3074 87be cc92 8f3e
000000b0: a9fb 8b3e ab38 cabe e81f 6cbd d21c 9f3b
000000c0: e71c 053c 326f 99be a0c4 0e3e 11c5 35bf
000000d0: 580e 5a3e 8f83 423f e07e f03e a134 18be
000000e0: 48bc d33e 1ded c63e 1327 8ebe bbb6 2abf
000000f0: 9873 0f3f 4069 e33d fc46 7cbe d4bc 2cbf
00000100: ad90 353e e489 943e 6aa6 863e f094 2d3d
00000110: 69b2 813e 44ce 1a3e cd36 2b3e 23a1 693e
00000120: e92f 57bf 6f0c 633e 28d8 c93e eac0 233e
00000130: 42fd 533f 2228 b63e ba9c f13d ac5f 23bf
00000140: 12ae cabe 9f07 13bf 6c3a 89be 1abc 283f
00000150: 869c f33e 12a4 553f bf51 8b3d 3112 f0be
00000160: 6343 13be c34c 77bd a95d 0abe 7157 893e
00000170: 3416 babe c05d 67be a2f5 21be f841 cfbe
00000180: 4223 953e 8a54 183e 9926 fcbe d5ff c2be
00000190: e4d8 233f 3728 16bf e47c 383e 3845 a8bd
000001a0: a107 88be d68d d5bc f735 10bf 35a1 21bf
000001b0: 869f 2d3e 6432 c73e 3edd 253f 8dd4 c23e
000001c0: 32eb 563e 44bb 2fbf f701 92be 2bca 76bd
000001d0: b312 893e 4dad 6d3e b8da 89be 59e6 ba3e
000001e0: 536b 563e fdbd a03e f344 88bd 7531 753e
000001f0: 9454 b43e 9d34 debe 4680 8bbe 9183 493d

mlp_encoder.lins.1.weight f4 [128, 128]
-0.24090973 -0.17398305 -0.30981895 -0.090660244 0.101035 0.06721271 -0.10076478 -0.109836765
-1.1342703 -0.21974714 -0.22941466 0.06794288 0.19501233 0.2599613 0.2223211 -0.21790856
-0.031881705 -0.29457048 0.14895038 0.07087187 0.100048855 0.08229099 0.08658054 -0.35057083
-0.4220092 0.18236469 0.05631188 -0.08735897 0.05187615 0.16899878 -0.09723422 -0.31150547
0.18366845 -0.19540001 0.088176176 0.20505378 -0.106034 0.24626635 0.2485752 -0.43747377
0.0901617 -0.24950475 -0.3590039 -0.16608718 -0.032623842 -0.17903244 -0.10381417 -0.113154136
-0.07011724 0.012525684 -0.053949393 0.070835985 -0.19359623 -0.086717136 -0.289131 -0.097148955
0.1213104 -0.18769732 -0.043581918 0.08438297 0.21793364 -0.24930663 0.23251355 0.072974205
-0.26354843 -0.30542108 0.11722656 0.07268282 0.122880325 0.11308403 -0.45331433 0.18290883
-0.00488931 -0.23340654 -0.0049872342 -0.4084598 -0.27627605 -0.05000764 0.091584146 -0.32856154
-0.2804568 -0.059533585 -0.15801612 -0.13573422 0.026228087 0.17536698 -0.08042914 -0.009042106
0.056282073 0.07249994 -0.0979947 -0.32868207 0.15100828 -0.022950342 0.24035238 -0.051638443
-0.060841348 -0.19414239 -0.10077419 -0.011813191 0.09504317 0.099426664 0.076881796 -0.008780621
0.014772868 0.08765834 -0.36201182 0.12503955 0.057353664 0.021861041 -0.20428748 -0.064387076
0.059946533 0.11230644 -0.006673459 0.11462277 0.20544831 0.06266421 0.12301333 -0.31573606
-0.13487358 -0.04533069 -0.08272429 0.08062813 0.38345265 -0.04976032 -0.64612824 -0.039552983
-0.52386016 -0.09037566 0.22802292 0.070267215 -0.574956 -0.6113777 -0.0031560673 -0.25128353
-0.36458036 0.65398395 0.33398712 0.0035890236 0.049590934 0.036723595 -0.22017558 -0.013226505
-0.44135916 0.17708373 -0.035110008 0.14928317 0.16454515 -0.3911618 -0.03772867 -0.27421188
0.34423336 -0.46601456 -0.22918688 -0.18828343 -0.08760856 -0.15255173 0.11091502 -0.06725835
0.27404302 -0.04712503 0.039606187 -0.3974809 -0.13410035 -0.28139237 -0.55003875 -0.015448715
0.003992718 0.454914 -0.77690595 0.092602484 0.10093131 -0.12950481 0.11923952 0.06760183
-0.05625902 -0.048209134 -0.010849075 -0.047454566 -0.15924902 -0.007869742 -0.15949723 -0.5830439
-0.31349155 -0.021558972 -0.026677717 -0.34378958 -0.3390444 0.054349314 -1.4472417 -0.03521855
-0.19821253 -0.34404612 -0.018569976 -0.3895487 0.058592487 -0.018222962 -0.092617504 -0.5325485
-0.21718293 0.2080983 0.24245928 0.068926886 -0.023999715 0.25809917 -0.054469094 0.23457146
0.4241033 0.66662675 0.16452181 0.020996077 0.15214081 -0.118040346 0.005292422 0.30918387
0.23142175 0.02157358 0.22104336 -0.214847 -0.25987718 -0.12538326 -0.008488329 -0.7938479
0.022199247 -0.23414513 0.12985577 -0.16291921 -0.60470986 -0.09695971 -0.36619383 0.39823148
0.10327886 0.14011773 -0.02024423 0.3311298 0.36823726 -0.27494457 -0.84526014 -0.33040765
-0.5762999 0.06889514 -0.61186695 -0.5304831 -0.36699116 0.21706085 0.029960152 -0.08162479
-0.23164885 0.00011052614 -0.032454908 0.06766509 -0.18187821 0.16893588 -0.0025726561 -0.4248397
00000000: 0ab1 76be 9d28 32be 97a0 9ebe 14ac b9bd
00000010: 70eb ce3d d1a6 893d c45d cebd 19f2 e0bd
00000020: c52f 91bf 6505 61be adeb 6abe a325 8b3d
00000030: 50b1 473e a619 853e 24a8 633e 6c23 5fbe
00000040: 6496 02bd f1d1 96be 7386 183e 4525 913d
00000050: 6ae6 cc3d 2e88 a83d 2351 b13d 057e b3be
00000060: 9711 d8be cfbd 3a3e 49a7 663d 42e9 b2bd
00000070: 167c 543d 040e 2d3e bc22 c7bd a57d 9fbe
00000080: 9513 3c3e f116 48be b695 b43d 9ef9 513e
00000090: 5b28 d9bd 3f2d 7c3e 7f8a 7e3e 90fc dfbe
000000a0: b3a6 b83d 2c7e 7fbe 5ccf b7be c212 2abe
000000b0: 94a0 05bd 4854 37be 869c d4bd 5bbd e7bd
000000c0: a199 8fbd 8738 4d3c 0afa 5cbd 7512 913d
000000d0: 173e 46be c198 b1bd fa08 94be 08f6 c6bd
000000e0: 9671 f83d ba33 40be f482 32bd fbd0 ac3d
000000f0: ff29 5f3e 3d4a 7fbe 0818 6e3e 8073 953d
00000100: d2ef 86be 2760 9cbe 7b14 f03d bbda 943d
00000110: aea8 fb3d 9a98 e73d d118 e8be 744c 3b3e
00000120: 8136 a0bb 2002 6fbe f46b a3bb a521 d1be
00000130: 0e74 8dbe d0d4 4cbd 7890 bb3d 3839 a8be
00000140: 0998 8fbe 7dd9 73bd face 21be e9fd 0abe
00000150: 49dc d63c 6793 333e 08b8 a4bd 5725 14bc
00000160: 0888 663d d97a 943d 72b1 c8bd 0449 a8be
00000170: eaa1 1a3e 5b02 bcbc ef1e 763e d582 53bd
00000180: c734 79bd 43cd 46be b362 cebd 1d8c 41bc
00000190: fea5 c23d 35a0 cb3d 3474 9d3d 98dc 0fbc
000001a0: e609 723c 3786 b33d 9d59 b9be 5e0a 003e
000001b0: adeb 6a3d ed15 b33c bd30 51be 5fdd 83bd
000001c0: 7f8a 753d eb00 e63d 08ad dabb 58bf ea3d
000001d0: 0b61 523e 1856 803d 6aee fb3d 28a8 a1be
000001e0: 4d1c 0abe acac 39bd 5a6b a9bd 5c20 a53d
000001f0: e853 c43e 7ad1 4bbd a968 25bf 4f02 22bd
00000200: b31b 06bf e016 b9bd d77e 693e 42e8 8f3d
00000210: 5130 13bf 4083 1cbf 06d6 4ebb 3ca8 80be
00000220: 47aa babe 7e6b 273f 5c00 ab3e d335 6b3b
00000230: dd1f 4b3d 7b6b 163d b575 61be fcb3 58bc
00000240: d4f9 e1be 7055 353e 83cf 0fbd b0dd 183e
00000250: 867e 283e 5c46 c8be 6189 1abd 8065 8cbe
00000260: 5b3f b03e 7699 eebe f7af 6abe 5fcd 40be
00000270: 1e6c b3bd 8536 1cbe 6a27 e33d bfbe 89bd
00000280: 5e4f 8c3e 2d06 41bd 193a 223d 9e82 cbbe
00000290: 9a51 09be a912 90be 57cf 0cbf 9b1c 7dbc
000002a0: 59d5 823b 7dea e83e 4fe3 46bf 5fa6 bd3d
000002b0: 13b5 ce3d e99c 04be d933 f43d d472 8a3d
000002c0: dc6f 66bd f176 45bd 52c0 31bc b85f 42bd
000002d0: 2d12 23be 17f0 00bc 3e53 23be 5d42 15bf
000002e0: f781 a0be 719c b0bc 3a8b dabc 3005 b0be
000002f0: 3a97 adbe 639d 5e3d 373f b9bf 5441 10bd
00000300: 3af8 4abe d026 b0be 1020 98bc ed72 c7be
00000310: adfe 6f3d 5248 95bc 3fae bdbd 1955 08bf
00000320: 3465 5ebe b917 553e 3f47 783e 8a29 8d3d
00000330: 0d9b c4bc 9325 843e fc1a 5fbd 8033 703e
00000340: 1124 d93e 0da8 2a3f 6878 283e f7ff ab3c
00000350: cdca 1b3e 23bf f1bd 0e6c ad3b 594d 9e3e
00000360: d3f9 6c3e 14bb b03c 3159 623e da00 5cbe
00000370: 9f0e 85be 7864 00be a212 0bbc 9e39 4bbf
00000380: 32db b53c bec3 6fbe e9f8 043e 4bd4 26be
00000390: 44ce 1abf d092 c6bd c27d bbbe ffe4 cb3e
000003a0: de83 d33d 067b 0f3e 3ad7 a5bc d889 a93e
000003b0: 9889 bc3e 89c5 8cbe f862 58bf 312b a9be
000003c0: 6488 13bf e518 8d3d 50a3 1cbf becd 07bf
000003d0: 44e6 bbbe 3345 5e3e fe6e f53c e62a a7bd
000003e0: 5b35 6dbe 45ca e738 70ef 04bd ff93 8a3d
000003f0: 483e 3abe 87fd 2c3e 029a 28bb 9784 d9be

mlp_encoder.lins.1.bias f4 [128]
0.30561608 -0.035443626 -0.29884595 0.7245791 -0.3192478 -0.059296966 -0.4683886 0.14970991
0.034817792 -0.42474908 -0.5725388 -0.22364394 0.10668705 -0.10823068 0.17331958 0.19034074
0.59505856 0.1582944 -0.12396701 -0.13195787 -0.04907586 0.23092438 -1.3595446 0.007715219
-0.26778314 -0.37557596 0.059364762 0.155748 0.13063958 -0.492818 0.15863082 0.20062672
0.27756882 -0.55763125 -0.19795007 -0.3588552 -0.40924078 -0.5002785 0.35071245 0.11649948
0.17188095 -0.02658967 -0.3300303 0.41571724 -0.03513487 0.018229175 0.16413194 0.00024246266
-0.3159038 0.26267216 0.791639 -0.15858033 0.009008015 -0.06374082 -0.4957118 -0.24100322
-0.47141147 0.5254106 0.122500636 0.25299752 0.035962436 0.17437053 0.13947771 -0.078172825
-0.36377847 0.00033840555 -0.4657199 0.10391407 0.54945546 0.5101681 -1.0109966 0.23842883
0.33118442 0.09697586 0.005476896 0.83949155 -0.16127063 0.882713 0.44865885 0.5416121
-0.490678 -0.1108636 -0.44923687 -0.31981736 -0.33195046 0.27109337 -0.28772962 0.06849497
0.21120015 0.12298928 -0.23999184 -0.56690353 0.32316533 0.4044518 -0.2108133 -0.045081317
-0.3509356 0.07087075 0.297215 0.30036056 -0.042849444 -0.60924554 -0.22972193 0.3192663
0.6349932 -0.020433271 -0.023940453 0.16805312 0.49514654 -0.4175546 0.07657431 -0.5615617
-0.1961203 -0.078550085 -0.608385 -0.065250605 0.557899 -0.30391523 -0.25070047 -0.22738804
0.34872365 0.53489596 -0.5510465 0.31909713 0.29177615 0.016047671 0.04565104 0.05042576
00000000: b679 9c3e 562d 11bd 5602 99be 047e 393f
00000010: 7374 a3be 60e1 72bd a1d0 efbe 8e4d 193e
00000020: 1a9d 0e3d b678 d9be e791 12bf eb02 65be
00000030: bd7e da3d 0ca8 ddbd b07a 313e afe8 423e
00000040: c255 183f ed17 223e 6ae2 fdbd f71f 07be
00000050: c503 49bd 7177 6c3e 8f05 aebf f3cf fc3b
00000060: df1a 89be 7e4b c0be 7728 733d 677c 1f3e
00000070: 62c6 053e a452 fcbe 1e70 223e 1771 4d3e
00000080: 801d 8e3e ecc0 0ebf 6cb3 4abe debb b7be
00000090: 0288 d1be 4012 00bf 9590 b33e 4897 ee3d
000000a0: 8f01 303e 94d2 d9bc bbf9 a8be e4d8 d43e
000000b0: 95e9 0fbd 5a55 953c 3412 283e 933d 7e39
000000c0: 25be a1be f77c 863e daa8 4a3f e262 22be
000000d0: 5a96 133c 8c8a 82bd f0cd fdbe 8cc9 76be
000000e0: d85c f1be 4f81 063f 9de1 fa3d e488 813e
000000f0: 594d 133d 308e 323e 3fd3 0e3e 1319 a0bd
00000100: 2c41 babe 066c b139 d772 eebe e6d0 d43d
00000110: 1da9 0c3f 609a 023f 5668 81bf b026 743e
00000120: 0191 a93e 489b c63d 8977 b33b ebe8 563f
00000130: 2124 25be 7bf9 613f 9db6 e53e 17a7 0a3f
00000140: 263a fbbe 750c e3bd 6002 e6be 1abf a3be
00000150: 69f5 a9be c0cc 8a3e 4c51 93be 1747 8c3d
00000160: da44 583e cee1 fb3d 6cc0 75be 9720 11bf
00000170: ed75 a53e 4e14 cf3e 71df 57be 30a7 38bd
00000180: d5ad b3be af24 913d 912c 983e dcc8 993e
00000190: e682 2fbd 84f7 1bbf 3a3c 6bbe df76 a33e
000001a0: ea8e 223f ad63 a7bc c51e c4bc 1e16 2c3e
000001b0: d983 fd3e b7c9 d5be fed2 9c3d 82c2 0fbf
000001c0: c3d3 48be dede a0bd 1fbf 1bbf 1ca2 85bd
000001d0: 78d2 0e3f c79a 9bbe d05b 80be 69d8 68be
000001e0: e88b b23e f1ee 083f 6211 0dbf b360 a33e
000001f0: af63 953e 6876 833c 96fc 3a3d 3e8b 4e3d

mlp_encoder.lins.2.weight f4 [128, 128]
-0.098597586 -0.3385237 -0.13909744 -0.03134819 0.08671804 0.04114112 0.24698304 -0.66878724
0.10131992 -0.19874123 0.14208128 -0.078505784 -0.11590719 0.34758735 -0.23826858 0.06968546
-0.35492268 -0.020190531 0.05877675 -0.43984616 0.19548628 0.362752 -0.061592683 0.15344422
0.38760385 0.1915999 -0.020792583 -0.04495223 -0.11736281 -0.15580136 0.15842964 -0.24861309
0.35464832 -0.05193471 -0.07454389 -0.19210845 -0.14829479 -0.32921296 -0.061417475 0.07003426
-0.017379059 -0.11407971 0.04444115 -0.098013364 0.7228079 -0.023467276 -0.054206602 -0.1920421
-0.34309873 -0.083291486 -0.2755234 -0.0076255803 0.024272205 0.034694124 0.07390795 -0.6045695
-0.0074773617 0.056618225 0.9183609 -0.11594157 -0.13610369 -0.13772923 0.08914133 0.28131062
0.038606495 -0.11880026 -0.24883093 0.13321851 -0.2761358 -0.10105929 -0.006429079 0.34676257
-0.17236134 0.27963644 0.12931181 -0.24892978 -0.46698204 0.9059868 -0.0052698334 -0.25855458
-0.0720903 -0.03019242 0.46522513 0.20059533 0.09073732 0.6130125 0.67771894 -0.34935635
0.08330179 -0.49349582 -0.3656581 -0.29028064 -0.13691767 -0.24085216 0.56871843 0.5595882
0.021100584 0.49678224 0.06954782 0.023461089 0.0075587444 0.09730605 -0.21060243 0.16321793
0.08090741 -0.0966365 -0.42252702 0.38794407 0.67112494 -0.52699566 -0.23823386 -0.64480036
0.19780903 0.19125828 -0.14351593 0.30142346 0.44624043 0.57599294 0.0020945657 -0.40865028
0.120223835 0.44677436 -0.111515105 0.019391617 -0.5075045 0.23841123 0.17424808 -0.044212133
0.02689678 -0.0037646436 0.08974558 -0.090100095 -0.10613264 -0.23411609 0.22598965 0.018146584
-0.13598034 0.3341279 -0.5115396 -0.09128999 0.104820535 0.30474374 0.2860217 -0.287616
0.081658855 -0.034736875 -0.0035785316 0.2187961 -0.007741705 0.027116729 0.10267015 0.120172195
0.12923485 -0.13346231 -0.02247985 0.07977427 0.06414939 0.10460302 0.34790418 0.34906366
0.10897119 0.23768759 0.46708632 -0.20693266 -0.24585019 -0.057980217 0.098850705 -0.15064603
0.054897025 0.08465705 -0.1064755 0.13473499 0.13339171 0.1883596 -0.37272292 0.12221991
-0.49813995 -0.16285783 0.12062494 0.14193341 0.01371907 0.07893055 0.023719555 -0.3293003
0.073508054 -0.46304822 0.09952094 0.071589395 -0.41857478 -0.30688846 -0.03005004 0.12805022
0.0019894324 0.13230929 0.26393723 0.39894542 -0.42216912 0.13592836 0.19789211 0.15192102
0.13405105 -0.08054068 0.08074292 0.21201847 -0.3397056 0.023130307 0.21613818 -0.14607663
-0.04826246 -0.08615039 -0.1379569 0.12872542 -0.26430732 0.27874258 0.07025419 0.15953454
-0.11255527 -0.11716585 -0.4476925 -0.4445525 -0.42913884 -0.40396816 0.08041991 0.060808487
0.459308 0.16552353 -0.19883955 0.072087206 0.20878139 -0.04558872 -0.18492971 0.16842479
0.29568475 -0.19233708 -0.019232556 -0.045517433 0.24500337 -0.5672734 -0.104664244 -0.38983563
0.26422247 -0.09856811 0.12418467 -0.005797347 0.06137552 0.2519891 -0.031854533 0.13287964
0.090477414 -0.005214837 0.012629602 0.11298007 0.05973013 -0.10386629 0.003491951 0.30579233
00000000: 88ed c9bd fa52 adbe 8f6f 0ebe f666 00bd
00000010: 3a99 b13d 9783 283d 1fe9 7c3e a435 2bbf
00000020: d180 cf3d d282 4bbe c17d 113e a4c7 a0bd
00000030: c060 edbd f8f6 b13e aefc 73be 40b7 8e3d
00000040: 6db8 b5be 9d66 a5bc e4bf 703d 8433 e1be
00000050: 8e2d 483e a1ba b93e 9c48 7cbd 7b20 1d3e
00000060: 0374 c63e c432 443e 3555 aabc d41f 38bd
00000070: ea5b f0bd 648a 1fbe 613b 223e 6e94 7ebe
00000080: 7794 b53e 7eb9 54bd 78aa 98bd 14b8 44be
00000090: 97da 17be 9a8e a8be e490 7bbd 1f6e 8f3d
000000a0: 875e 8ebc 9fa2 e9bd ec07 363d 3bbb c8bd
000000b0: f009 393f 723e c0bc be07 5ebd afa6 44be
000000c0: a3aa afbe ba94 aabd 6711 8dbe 01e0 f9bb
000000d0: 81d6 c63c 6d1b 0e3d 0d5d 973d 11c5 1abf
000000e0: a804 f5bb 83e8 673d b319 6b3f c672 edbd
000000f0: c45e 0bbe e408 0dbe bb8f b63d f207 903e
00000100: d821 1e3d 8d4d f3bd 89cd 7ebe 6f6a 083e
00000110: ac61 8dbe 2cf8 cebd 06ab d2bb dd8a b13e
00000120: 7e7f 30be 822c 8f3e 516a 043e 73e7 7ebe
00000130: 4518 efbe c0ee 673f 91ae acbb 4461 84be
00000140: 14a4 93bd 1856 f7bc fd31 ee3e dd68 4d3e
00000150: 7dd4 b93d 63ee 1c3f fd7e 2d3f d6de b2be
00000160: 219a aa3d 7cab fcbe 8a37 bbbe aa9f 94be
00000170: 2534 0cbe f3a1 76be 8897 113f 2c41 0f3f
00000180: 22db ac3c 3e5a fe3e 166f 8e3d 7831 c03c
00000190: 58af f73b 6548 c73d 2aa8 57be 9a22 273e
000001a0: c9b2 a53d 5be9 c5bd 7655 d8be 9ba0 c63e
000001b0: d8ce 2b3f 30e9 06bf 94f3 73be a311 25bf
000001c0: 738e 4a3e 36d9 433e d7f5 12be 2d54 9a3e
000001d0: a079 e43e 4674 133f fb44 093b 9c3a d1be
000001e0: ea37 f63d 9cbf e43e 0862 e4bd 2bdb 9e3c
000001f0: d1eb 01bf 1322 743e 176e 323e c817 35bd
00000200: a356 dc3c 3db8 76bb 88cc b73d 6686 b8bd
00000210: 125c d9bd 21bc 6fbe d569 673e 25a8 943c
00000220: 6e3e 0bbe d012 ab3e 42f4 02bf 3ff6 babd
00000230: 26ac d63d 5f07 9c3e 7071 923e 6842 93be
00000240: c23c a73d 4148 0ebd cc85 6abb 160c 603e
00000250: 21ae fdbb e723 de3c ba44 d23d d71c f63d
00000260: 2456 043e 58aa 08be aa27 b8bc b160 a33d
00000270: c160 833d 1c3a d63d 7f20 b23e 79b8 b23e
00000280: 4a2c df3d 6064 733e f025 ef3e 28e6 53be
00000290: 27c0 7bbe aa7c 6dbd 3d72 ca3d f442 1abe
000002a0: b4db 603d ad60 ad3d d40f dabd f8f7 093e
000002b0: d697 083e 57e1 403e 8ad5 bebe 6f4e fa3d
000002c0: 330c ffbe 34c4 26be 350a f73d fe56 113e
000002d0: f3c5 603c 57a6 a13d 834f c23c 0d9a a8be
000002e0: 648b 963d a814 edbe a2d1 cb3d 769d 923d
000002f0: 6f4f d6be 7c20 9dbe 802b f6bc 991f 033e
00000300: 2361 023b 167c 073e c822 873e 9342 cc3e
00000310: 8d26 d8be ce30 0b3e 3ba4 4a3e 2f91 1b3e
00000320: ae44 093e 83f2 a4bd 8b5c a53d 5f1b 593e
00000330: e4ed adbe c57b bd3c 5453 5d3e 1d95 15be
00000340: dbae 45bd 9e6f b0bd 9344 0dbe 99d0 033e
00000350: 4a53 87be 59b7 8e3e 6ee1 8f3d 065d 233e
00000360: 6183 e6bd a6f4 efbd f437 e5be 639c e3be
00000370: 16b8 dbbe ead4 cebe 32b3 a43d 5212 793d
00000380: 6b2a eb3e 007f 293e 989c 4bbe 75a2 933d
00000390: caca 553e 3dbb 3abd 375e 3dbe 8c77 2c3e
000003a0: fe63 973e 03f4 44be 988d 9dbc 7d70 3abd
000003b0: 2ae2 7a3e d438 11bf 355a d6bd 8998 c7be
000003c0: 2b48 873e 14de c9bd 8854 fe3d acf7 bdbb
000003d0: e664 7b3d b704 813e e679 02bd 9a11 083e
000003e0: 394c b93d 39e1 aabb 64ec 4e3c 1862 e73d
000003f0: 95a7 743d d9b7 d4bd 37d9 643b d090 9c3e

mlp_encoder.lins.2.bias f4 [128]
-0.094350904 0.51286745 0.26321477 -0.14361459 0.3614511 0.43105024 0.6676994 -0.035495475
0.45503807 0.17306164 0.38384357 0.20229976 0.3907299 -0.03811593 0.56312144 0.30072334
-0.12850274 0.3279718 0.11110276 -0.115689315 -0.19002073 -0.008389932 0.4845101 0.32930022
0.48338357 -0.17573015 -0.22333239 0.34158683 -0.2118403 -0.012874701 0.22031839 0.54657537
-0.17731142 0.14175749 -0.21605289 0.085332826 0.040723126 0.27286443 -0.034689877 -0.18802153
0.25019446 -0.39152914 -0.21670988 0.18751958 -0.24389163 -0.10656929 -0.4125529 0.68568593
0.696351 0.1978672 0.40548837 0.055748325 -0.5265155 0.15645568 0.2903529 0.25392002
-0.4563208 -0.3343061 0.31664488 0.43151212 -0.05467644 0.0020725753 0.46514973 -0.12592448
-0.052527044 0.52535486 -0.05395692 -0.18842037 0.034530815 -0.15436794 -0.022993058 0.3172943
0.3170988 -0.13236003 -0.46911064 -0.24039206 -0.088401504 0.18579334 0.18532287 0.58942986
-0.5719523 0.28503686 -0.05481492 0.17140026 -0.11506518 -0.23650429 0.15939274 -0.42567676
0.11258978 0.297812 1.0190353 -0.08500251 0.44185713 0.55264366 -0.1730169 -0.3066756
0.4662869 -0.02027584 0.20498627 -0.05143198 -0.09874133 0.096959725 0.85664284 0.04582127
-0.4624294 0.018408353 -0.027071372 0.29546186 0.053037766 -0.3013477 -0.17595102 -0.009939579
0.15110368 0.31644773 0.41150326 0.30464187 -0.39396006 0.13889991 0.7345343 -0.07701123
-0.12463897 0.41933548 0.3249285 0.022837926 0.2671192 0.048259348 0.2867923 0.1420257
00000000: 0c3b c1bd 484b 033f 16c4 863e b40f 13be
00000010: 1e10 b93e 9eb2 dc3e 59ee 2a3f b463 11bd
00000020: c0fa e83e 1237 313e 2587 c43e ab27 4f3e
00000030: c00d c83e 731f 1cbd ba28 103f 69f8 993e
00000040: 3996 03be ebeb a73e d889 e33d 85ee ecbd
00000050: cb94 42be ed75 09bc b511 f83e 0a9a a83e
00000060: 0d7e f73e 9bf2 33be 3fb1 64be 78e4 ae3e
00000070: aaec 58be 69f0 52bc 259b 613e 5dec 0b3f
00000080: 2091 35be e028 113e f83c 5dbe fac2 ae3d
00000090: 4bcd 263d e3b4 8b3e f916 0ebd b788 40be
000000a0: 7d19 803e 8276 c8be 32e9 5dbe 2205 403e
000000b0: babe 79be 0041 dabd 223a d3be 1d89 2f3f
000000c0: 0f44 323f b39d 4a3e 2c9c cf3e 5b58 643d
000000d0: b8c9 06bf eb35 203e 23a9 943e ce01 823e
000000e0: e1a2 e9be 2b2a abbe 471f a23e 28ef dc3e
000000f0: 67f4 5fbd 0bd4 073b 1b28 ee3e 59f2 00be
00000100: 9926 57bd a87d 063f ee01 5dbd 45f1 40be
00000110: 2f70 0d3d a112 1ebe f05b bcbc 6674 a23e
00000120: c65a a23e 6389 07be 452f f0be 5629 76be
00000130: d90b b5bd 9c40 3e3e 47c5 3d3e e0e4 163f
00000140: 776b 12bf 5af0 913e 9c85 60bd 8d83 2f3e
00000150: 4ba7 ebbd 2e2e 72be da37 233e 4ef2 d9be
00000160: 7895 e63d d17a 983e c06f 823f cc15 aebd
00000170: 193b e23e 0e7a 0d3f 582b 31be 9604 9dbe
00000180: 28bd ee3e 8519 a6bc ece7 513e 57aa 52bd
00000190: e538 cabd d292 c63d f24c 5b3f 16af 3b3d
000001a0: 8cc3 ecbe 1dcd 963c c8c4 ddbc c746 973e
000001b0: 213e 593d 3f4a 9abe 812c 34be 9ed9 22bc
000001c0: ecba 1a3e 7005 a23e 8eb0 d23e 05fa 9b3e
000001d0: 22b5 c9be c73b 0e3e 710a 3c3f 10b8 9dbd
000001e0: b742 ffbd 24b3 d63e 075d a63e 9a16 bb3c
000001f0: d9c3 883e 98ab 453d 71d6 923e 2f6f 113e

mlp_encoder.lins.3.weight f4 [96, 128]
0.0022750278 -0.047607664 -0.22779703 0.4599644 -0.1104839 -0.8523779 0.056601185 -0.11288559
-0.1329683 0.6145313 0.047215782 -0.031263933 -1.4044639 0.14499326 0.22390583 0.060975716
-0.08397574 -0.10150036 -0.12915194 0.23073338 0.019260345 -0.19621263 0.044341654 0.2152738
-0.4832858 0.06515057 -0.20840865 -0.32571432 -1.4420985 0.012966864 -0.03636405 0.0107884295
0.33628508 0.049868837 -0.022339793 -0.0132995285 0.029297045 0.013413791 0.16787401 0.035564773
-0.31756437 2.008024 -1.0113082 -0.07980637 -0.47476366 0.10806774 -0.007665262 0.015838936
0.17155287 0.2174512 -0.11006177 -0.69498444 -0.22670414 -0.044216726 0.27555296 -0.0070335986
-0.15557574 -0.06756839 -1.8832864 -0.15305127 -0.6507596 0.1747958 -0.08303114 -0.117242545
-0.016368434 0.19010665 -0.13275442 -0.3719287 -0.2572452 0.10368234 0.05345585 -0.06479158
0.15642002 0.031223891 0.16394502 0.3080902 -0.5026433 0.047952462 0.17414516 1.3314279
-0.11752296 -0.14493506 0.94570726 -0.28843307 -0.031920053 -0.83051825 0.1468258 0.20545995
0.13736065 -0.37504047 0.116651684 -1.1179705 -0.55339164 0.11893574 -0.0017775472 -0.62848634
1.0597701 0.003925675 0.06932926 -0.6507984 -0.38261938 0.00069300254 -0.11023807 0.0022916233
0.09034156 0.23546812 0.5210148 -0.20505486 0.3784162 -0.19146356 -0.066626206 0.45521098
-0.44487026 -0.36566994 0.1194945 0.121024996 -0.05762265 -0.060722798 -0.090613306 0.13895422
-0.1778488 -0.072966084 -0.115947 -0.08196267 -0.053383708 0.5743173 0.09621508 -0.09150341
0.08620929 -0.040423956 -0.2228332 0.53023 -0.10051049 -0.3464827 0.7821415 -0.36697817
-0.050058804 -0.0031733478 -0.03196787 -0.028821805 -0.58823246 0.14629094 0.124803014 0.0759133
0.11590564 -0.08458896 -0.12171279 0.06785008 0.045142114 -0.0041031865 -0.020695841 0.08201034
-0.10302074 0.0376795 -0.0012243874 0.37591895 -0.1936199 0.29689562 0.024883945 0.02633608
0.15817198 0.035294265 0.04476379 -0.116202265 -0.030949607 0.04253904 0.2687956 0.08420492
-0.11768187 0.6385189 -0.27083805 0.020495456 -0.09063435 -0.12974258 0.043895394 0.0011699821
0.19033836 -0.08410401 -0.1538896 0.22813924 -0.22088836 0.0006090577 0.15873523 -0.0638701
-0.14697255 0.070067465 -0.81690735 -0.066456854 -0.70269185 -0.1074311 0.07044285 -0.041608006
-0.38786858 0.10725301 0.04284909 -0.1053103 -0.29440194 0.07661082 0.09778894 -0.014171998
0.07545662 -0.06230107 -0.055312023 -0.013354323 -0.2471432 -0.03461297 0.04227568 -0.18767884
-0.0004850865 0.06157261 0.42830086 0.036668565 -0.03595925 -0.3549122 0.05181001 0.048247073
-0.02149707 -0.114367 -0.0899412 -0.26908347 -0.20151134 0.10090212 -0.05146285 -0.5238174
-0.5015785 0.040307816 -0.01605521 -0.5252912 -0.014391544 0.028408825 0.10593834 -0.09615014
0.03247107 -0.18891414 0.37007302 -0.20269041 0.4526359 -0.17176582 -0.0768654 -0.009929248
-0.5828207 -0.16095828 -0.03177611 0.051162064 0.16141403 -0.023811767 -0.16539337 0.07395704
0.21724783 -0.072719395 -0.05768753 -0.068558775 0.027329221 0.46468246 -0.0027682919 -0.12283722
00000000: a218 153b 4100 43bd a043 69be 7480 eb3e
00000010: 6245 e2bd 7035 5abf a5d6 673d 8f30 e7bd
00000020: d828 08be ec51 1d3f 5665 413d 9c0e 00bd
00000030: 79c5 b3bf 1d79 143e 9247 653e acc1 793d
00000040: 79fb abbd 6cdf cfbd 6840 04be 5f45 6c3e
00000050: dfc7 9d3c f7eb 48be 989f 353d bc70 5c3e
00000060: 3d71 f7be a96d 853d 1469 55be 07c4 a6be
00000070: af96 b8bf f872 543c 78f2 14bd f4c1 303c
00000080: 8f2d ac3e 4443 4c3d f101 b7bc 44e6 59bc
00000090: 5b00 f03c 84c5 5b3c 2ae7 2b3e 5eac 113d
000000a0: cc97 a2be 7783 0040 8c72 81bf 8671 a3bd
000000b0: 3914 f3be 9f52 dd3d e12c fbbb a8c0 813c
000000c0: 8eab 2f3e 87ab 5e3e 1168 e1bd 80ea 31bf
000000d0: 2125 68be 991c 35bd 4715 8d3e 1a7a e6bb
000000e0: 3f4f 1fbe 4c61 8abd 870f f1bf 79b9 1cbe
000000f0: 2e98 26bf acfd 323e 3b0c aabd dc1c f0bd
00000100: 1817 86bc 51ab 423e c6f0 07be 706d bebe
00000110: a5b5 83be 6857 d43d 85f4 5a3d 73b1 84bd
00000120: 922c 203e 3fc9 ff3c 34e1 273e 00be 9d3e
00000130: 3bad 00bf cd69 443d 1c53 323e 3b6c aa3f
00000140: e1af f0bd db69 14be df19 723f 80ad 93be
00000150: 9abe 02bd d89c 54bf 8159 163e 1864 523e
00000160: 45a8 0c3e 4e05 c0be 14e7 ee3d a819 8fbf
00000170: 13ab 0dbf 9594 f33d 96fc e8ba 7be4 20bf
00000180: 8ca6 873f f3a2 803b 80fc 8d3d b99a 26bf
00000190: b0e6 c3be 9daa 353a 7fc4 e1bd 0f2f 163b
000001a0: ff04 b93d 8e1e 713e 3a61 053f e7f9 51be
000001b0: c5bf c13e 060f 44be 5273 88bd 6a11 e93e
000001c0: 09c6 e3be 1739 bbbe 88b9 f43d f4db f73d
000001d0: ba05 6cbd 78b8 78bd 7893 b9bd 044a 0e3e
000001e0: ff1d 36be 3e6f 95bd 9f75 edbd 0bdc a7bd
000001f0: e0a8 5abd 7506 133f 690c c53d 2466 bbbd
00000200: 7f8e b03d 9793 25bd 632e 64be 27bd 073f
00000210: 72d8 cdbd 2e66 b1be 6d3a 483f 90e4 bbbe
00000220: 760a 4dbd f1f7 4fbb bef0 02bd b51b ecbc
00000230: 6796 16bf 4bcd 153e b998 ff3d 6f78 9b3d
00000240: f05f ed3d fa3c adbd 8e44 f9bd fcf4 8a3d
00000250: f0e6 383d 0674 86bb 538a a9bc 0af5 a73d
00000260: 8afc d2bd d255 1a3d a07b a0ba 7378 c03e
00000270: 4c44 46be b402 983e 6ad9 cb3c c3be d73c
00000280: d6f7 213e b890 103d 3c5a 373d 74fb edbd
00000290: 088a fdbc 6b3d 2e3d 949f 893e a173 ac3d
000002a0: 3103 f1bd fa75 233f 49ab 8abe 16e6 a73c
000002b0: 819e b9bd 3ddb 04be a8cb 333d 165a 993a
000002c0: 0fe8 423e b93e acbd 3c95 1dbe 559d 693e
000002d0: 8f30 62be 2ca9 1f3a 7d8b 223e 54ce 82bd
000002e0: f97f 16be 887f 8f3d d720 51bf 881a 88bd
000002f0: 9de3 33bf d604 dcbd 5744 903d 286d 2abd
00000300: b696 c6be 77a7 db3d 8782 2f3d edac d7bd
00000310: dabb 96be 22e6 9c3d 9145 c83d ab31 68bc
00000320: 0089 9a3d 682f 7fbd dc8e 62bd 17cc 5abc
00000330: 1b13 7dbe 54c6 0dbd 4329 2d3d e22e 40be
00000340: 3553 feb9 9033 7c3d 404a db3e c731 163d
00000350: 024a 13bd 0db7 b5be bc36 543d b99e 453d
00000360: a01a b0bc 3f39 eabd 1833 b8bd 4fc5 89be
00000370: fd58 4ebe c5a5 ce3d b6ca 52bd e618 06bf
00000380: 7367 00bf cf19 253d 3786 83bc 7c79 06bf
00000390: 83ca 6bbc a0b9 e83c 33f6 d83d 5dea c4bd
000003a0: 6200 053d b572 41be 367a bd3e 138e 4fbe
000003b0: e5bf e73e 61e3 2fbe 9b6b 9dbd 49ae 22bc
000003c0: bd33 15bf 3fd2 24be ab27 02bd 508f 513d
000003d0: b849 253e e510 c3bc e15c 29be ca76 973d
000003e0: 3776 5e3e e8ed 94bd c249 6cbd 8b68 8cbd
000003f0: 88e1 df3c dcea ed3e 3b6c 35bb 1592 fbbd

mlp_encoder.lins.3.bias f4 [96]
-1.1836499 -0.8660937 1.113214 -1.1373473 -0.8096395 0.6106212 -0.99664587 -0.7407884
-0.8657118 1.6715133 -0.8186044 -0.6786243 -1.0165832 -0.5667986 -0.9932554 -0.69261736
0.105061464 -0.5718646 -0.9277269 -0.19933929 -0.52010036 -0.6670068 -1.2174953 -0.20609635
-0.8308921 -1.0128263 -0.92466784 0.741383 0.17578778 -2.0007486 -0.37523514 -0.18248816
-0.51024646 -0.5000729 -1.153227 -0.8044436 -0.7069431 -1.1937159 -0.97452617 -0.007497762
-0.90031135 -0.96744215 -1.3030233 -0.8117979 -0.36976394 0.4884894 2.4553976 -0.502442
0.91189015 -0.65937716 -0.65071595 -1.1851704 0.9427769 -1.3664999 -0.4464494 -0.6851958
1.1524012 0.61951536 0.7287682 0.8129719 0.8741305 -0.59906286 0.5537694 -0.05494246
-0.68048704 1.1677353 -0.2951462 1.3466367 -0.6716358 -0.6909168 -1.6503121 0.76463026
-0.5738667 0.8577753 -0.6459105 -1.1881713 0.62498546 0.82416296 0.66901964 1.1152629
-0.49223718 0.96877414 -0.6034343 0.1783895 0.9663562 -0.55886775 -0.5164016 0.4978015
-0.74081534 0.6219407 -0.16933179 -0.2978792 1.2525954 -0.5966261 0.50199085 0.6379587
00000000: d781 97bf 51b8 5dbf cc7d 8e3f 9994 91bf
00000010: 8944 4fbf ac51 1c3f 2f24 7fbf 4fa4 3dbf
00000020: 4a9f 5dbf 26f4 d53f 0f90 51bf 52ba 2dbf
00000030: 661f 82bf b719 11bf fc45 7ebf 5f4f 31bf
00000040: 772a d73d b865 12bf 837f 6dbf 991f 4cbe
00000050: 4c25 05bf f5c0 2abf e3d6 9bbf ec0a 53be
00000060: 58b5 54bf 4ba4 81bf 08b7 6cbf 47cb 3d3f
00000070: b601 343e 440c 00c0 d21e c0be 2dde 3abe
00000080: 839f 02bf c704 00bf f19c 93bf 04f0 4dbf
00000090: 39fa 34bf afcb 98bf 8c7a 79bf c9af f5bb
000000a0: ce7a 66bf 4aaa 77bf 78c9 a6bf fdd1 4fbf
000000b0: b351 bdbe 481b fa3e 3c25 1d40 0aa0 00bf
000000c0: a271 693f f1cc 28bf 5295 26bf aab3 97bf
000000d0: d459 713f 78e9 aebf 0495 e4be fe68 2fbf
000000e0: e281 933f 8f98 1e3f 8e90 3a3f ed1e 503f
000000f0: 04c7 5f3f 2f5c 19bf d5c3 0d3f 580b 61bd
00000100: 6634 2ebf 5a78 953f 671d 97be 975e ac3f
00000110: 53f0 2bbf ecdf 30bf 6d3d d3bf cfbe 433f
00000120: eee8 12bf 2997 5b3f 645a 25bf ff15 98bf
00000130: 0cff 1f3f 58fc 523f df44 2b3f efc0 8e3f
00000140: 8306 fcbe 9501 783f ac7a 1abf bdab 363e
00000150: 1f63 773f f511 0fbf e532 04bf d7df fe3e
00000160: 13a6 3dbf 8137 1f3f 5065 2dbe 9f83 98be
00000170: 0c55 a03f 7dbc 18bf 7982 003f 4351 233f

mlp_encoder.norms.0.module.weight f4 [128]
0.97626424 1.3222953 1.1893201 0.7425392 0.91778 0.95587295 1.1669031 1.0060728
1.2005466 1.0449547 1.0655807 0.9820429 1.1238403 0.7655299 0.80253124 1.1068993
0.96305114 1.1847805 0.9817755 0.9200562 0.7423089 0.91789 0.6786497 0.8377193
1.104744 0.84482485 0.8755486 1.0012326 1.0775733 1.0786655 1.2166241 1.083734
0.94106627 0.9905149 0.8967418 0.9894901 0.8888137 0.94786364 0.9964252 1.1881418
0.9759063 1.1396954 1.1196085 0.9217075 1.0479904 1.0041401 1.0788277 0.8779886
0.894937 1.0048537 0.96909475 0.7266905 1.0428189 0.9785093 1.0717204 0.75236875
1.0848379 1.1328316 1.1222191 0.9419777 0.87535244 0.8673532 0.96461934 0.7886504
1.1185023 1.0561682 0.86363363 0.86199087 1.0602176 0.89543545 1.5159853 0.9403371
0.8915281 0.98550993 1.184957 0.8295563 1.0865985 1.1347275 1.0101506 1.042765
1.0337982 0.8228539 1.0214467 1.0045185 0.81304026 0.9538308 0.930414 1.018947
0.9043636 0.9108544 1.0959705 0.7992107 0.90014493 0.85955554 0.9613659 0.94486874
0.973725 0.7597946 1.0077633 0.9285373 0.83942115 0.7843652 1.0023369 0.9682455
0.94948715 0.97508043 1.1573386 0.6749068 0.92108995 1.0113369 1.0503821 0.9543856
0.8324463 0.8450485 0.91672087 0.9755812 0.8532218 0.8051165 0.99554205 0.82542545
1.0714667 1.0891912 0.8625119 0.79839104 0.93574727 1.0494946 1.0795196 1.0122092
00000000: 74ec 793f f940 a93f a43b 983f 0d17 3e3f
00000010: a1f3 6a3f 17b4 743f 155d 953f fec6 803f
00000020: 83ab 993f 13c1 853f f364 883f 2a67 7b3f
00000030: 00da 8f3f c4f9 433f b072 4d3f e0ae 8d3f
00000040: 858a 763f e3a6 973f a455 7b3f ce88 6b3f
00000050: f507 3e3f d7fa 6a3f fdbb 2d3f c674 563f
00000060: 4068 8d3f 7146 583f f423 603f 6428 803f
00000070: eced 893f b611 8a3f 57ba 9b3f ccb7 8a3f
00000080: b8e9 703f 6292 7d3f df90 653f 394f 7d3f
00000090: 4b89 633f 31a7 723f b915 7f3f 0815 983f
000000a0: ffd4 793f 8ae1 913f 554f 8f3f 06f5 6b3f
000000b0: 8d24 863f aa87 803f 0717 8a3f dcc3 603f
000000c0: 971a 653f 0c9f 803f 9816 783f 6308 3a3f
000000d0: 177b 853f 967f 7a3f 222e 893f 3d9b 403f
000000e0: f8db 8a3f a000 913f e0a4 8f3f 7325 713f
000000f0: 1917 603f dc0a 5e3f 4bf1 763f fee4 493f
00000100: 152b 8f3f 8530 873f 1817 5d3f 6fab 5c3f
00000110: 36b5 873f 423b 653f ce0b c23f efb9 703f
00000120: 303b 643f 614a 7c3f acac 973f cd5d 543f
00000130: a915 8b3f c03e 913f 9d4c 813f 5379 853f
00000140: 8053 843f 8ea6 523f c4be 823f 1094 803f
00000150: 6823 503f 412e 743f 9d2f 6e3f db6c 823f
00000160: 5f84 673f c12d 693f c348 8c3f 1399 4c3f
00000170: e66f 663f d50b 5c3f 131c 763f ebe2 713f
00000180: 0b46 793f e681 423f 63fe 803f 9fb4 6d3f
00000190: 4ee4 563f 28cc 483f 934c 803f f0de 773f
000001a0: 9711 733f df9e 793f ac23 943f b1c6 2c3f
000001b0: 8dcc 6b3f 7d73 813f ec72 863f 9d52 743f
000001c0: 331b 553f 1955 583f 38ae 6a3f b1bf 793f
000001d0: be6c 5a3f 1d1c 4e3f d8db 7e3f 154f 533f
000001e0: d225 893f 9e6a 8b3f 94cd 5c3f 5b63 4c3f
000001f0: 228d 6f3f d755 863f b32d 8a3f 1290 813f

mlp_encoder.norms.0.module.bias f4 [128]
-0.34926882 -0.44391134 -0.37331724 -0.0008350564 -0.54726005 -0.62104815 -0.15083183 -0.123311214
-0.80308723 -0.060071822 -0.49684766 -0.12746282 -0.5306916 -0.33034855 -0.6051254 -0.62372464
-0.49357322 -0.05994956 -0.75775623 -0.4349223 -0.42601946 -0.5217643 -0.21794811 -0.53530455
-0.50497836 -0.3332177 -0.69381857 0.18209234 -0.9645744 -0.27864677 -0.24302095 -0.6833471
-0.39572898 -0.21519288 -0.51691896 -0.9891704 -0.5336802 -0.4612149 -0.873217 -0.47874394
0.1268342 -0.9477376 -0.41397598 -0.31723177 -0.12071008 -0.69353235 0.044498485 -0.11453315
-0.29991892 -0.3293073 -0.035130072 -0.62731445 -0.53967834 -0.50490695 -0.1947418 -0.09769685
-0.4623512 -0.29402685 -0.75500864 -0.31143057 -0.40849695 -0.50769466 -0.8309888 -0.50905365
-0.92290694 -0.102790445 -0.50027704 -0.4408713 -0.66553354 -0.640016 -0.35671693 -0.82035786
-0.029104687 -0.300429 -0.13262044 0.2866513 -0.4017256 -0.23468333 -0.8643857 -0.097475536
-0.23005573 -0.1702652 0.1587424 -0.30376378 -0.3906481 -0.72868735 -0.05045583 -0.7030708
-0.30398268 -0.0322958 -0.65819687 0.21057658 -0.682238 0.24465239 -0.30537075 -0.5940415
0.17706026 -0.43277684 -0.433365 -0.5022206 -0.4159046 -0.66328055 -0.9874933 -0.4010938
-0.5770048 -0.537229 -0.26373142 -0.16166858 -0.9659052 -0.7133213 -0.7455905 -0.14992425
-0.4097991 -0.6656372 -0.6496924 -0.44741574 -0.21010926 -0.48865324 -0.81047934 0.20783538
-0.49776396 -0.72537065 0.1422028 -0.7053794 -0.5331201 -0.9885805 -0.30831394 0.035538424
00000000: 5dd3 b2be 5948 e3be 7023 bfbe b0e7 5aba
00000010: 3c19 0cbf 03fd 1ebf a973 1abe 978a fcbd
00000020: 2097 4dbf df0d 76bd d162 febe 9d85 02be
00000030: 68db 07bf 7223 a9be 80e9 1abf 6bac 1fbf
00000040: a1b5 fcbe ab8d 75bd 50fc 41bf 23ae debe
00000050: 391f dabe 5892 05bf ca2d 5fbe b809 09bf
00000060: 4346 01bf 839b aabe 189e 31bf 6a76 3a3e
00000070: 59ee 76bf caaa 8ebe 7cda 78be d6ef 2ebf
00000080: fd9c cabe 865b 5cbe cd54 04bf 453a 7dbf
00000090: 449f 08bf 5c24 ecbe 268b 5fbf ed1d f5be
000000a0: d3e0 013e ee9e 72bf a9f4 d3be 346c a2be
000000b0: d936 f7bd 568b 31bf 0b44 363d 5b90 eabd
000000c0: f98e 99be f79a a8be 8de4 0fbd ae97 20bf
000000d0: 5c28 0abf 9541 01bf 656a 47be 4915 c8bd
000000e0: 4cb9 ecbe b08a 96be 3f48 41bf d473 9fbe
000000f0: 8326 d1be 47f8 01bf afbb 54bf 5751 02bf
00000100: a143 6cbf cc83 d2bd 2812 00bf e2b9 e1be
00000110: 6860 2abf 17d8 23bf 9aa3 b6be f902 52bf
00000120: f46c eebc d4d1 99be a7cd 07be f6c3 923e
00000130: faae cdbe d450 70be 6248 5dbf 41a1 c7bd
00000140: bb93 6bbe 005a 2ebe 5e8d 223e ed86 9bbe
00000150: 0703 c8be 418b 3abf c6aa 4ebd 73fc 33bf
00000160: 9ea3 9bbe 9a48 04bd 977f 28bf 63a1 573e
00000170: 26a7 2ebf 2886 7a3e 8e59 9cbe 1b13 18bf
00000180: 494f 353e ed94 ddbe 04e2 ddbe 8791 00bf
00000190: 73f1 d4be c1cc 29bf 5ccc 7cbf 2b5c cdbe
000001a0: 96b6 13bf d787 09bf ce07 87be 738c 25be
000001b0: 9045 77bf 3a9c 36bf 05df 3ebf be85 19be
000001c0: 30d1 d1be 3367 2abf 3e52 26bf ad13 e5be
000001d0: e226 57be c230 fabe 937b 4fbf ccd2 543e
000001e0: ebda febe e4b1 39bf 9c9d 113e bf93 34bf
000001f0: 8f7a 08bf 9d13 7dbf 53db 9dbe bd90 113d

mlp_encoder.norms.0.module.running_mean f4 [128]
-0.91501844 -0.25473407 0.02712978 -0.26968175 0.9199001 1.1314561 -0.44362605 -0.6851284
-0.7874376 -0.5899274 -0.41587 0.20664375 0.661694 0.44275245 0.37971812 -0.46266443
1.5576212 0.17481853 -0.14916934 -0.9557514 -0.1915168 0.0012801737 0.20453711 -0.56617475
-0.5331234 -0.01376234 1.0213106 -0.08852486 0.27748466 -0.96805054 -1.1193262 -1.4514952
-0.16847268 0.138303 1.24698 0.98888403 0.5779013 0.13098781 0.55268955 0.03998824
-0.16545682 0.76340747 -0.38926142 0.74691087 -0.2935227 -1.1165276 -0.24185242 0.706575
0.33903086 -0.42794153 -0.41251108 -0.8733535 0.5454801 0.25240058 0.40048313 -0.690001
0.19814846 -0.112150356 -0.15340593 -0.59287536 0.6960836 -0.542021 0.046349786 -0.39070767
-0.4406259 0.08333984 0.21512309 0.5933716 -0.05147419 0.9551214 -0.3594659 0.22142501
-0.98308676 0.327901 0.3220781 -0.18759397 1.1771108 0.34242922 0.99248093 -1.010976
-0.10352828 -0.6185247 -0.9406858 1.246246 0.06663191 1.0084877 -0.8775951 -0.02534145
0.13173807 -0.088016875 0.62678236 0.3093239 -0.39002523 -0.23449743 -0.071006164 0.6731976
0.012953309 -0.3743885 -0.45593113 0.3177085 0.8307241 -0.49301064 0.37995344 -1.1078557
0.4195271 0.6138109 -0.8408577 -0.8120527 0.32348606 0.6123465 0.8486501 0.08468147
0.9012638 -0.026520377 0.5541948 0.3762044 0.36903766 0.782619 0.20423876 -0.5508066
0.52914363 0.56527716 -0.5558949 -0.19071354 0.3897374 0.30911413 -0.8369675 -0.47836882
00000000: a63e 6abf 816c 82be 463f de3c ba13 8abe
00000010: 937e 6b3f 8ed3 903f f422 e3be 9364 2fbf
00000020: 8395 49bf 7b05 17bf eaec d4be 6b9a 533e
00000030: c764 293f 73b0 e23e 6a6a c23e 5ae2 ecbe
00000040: 2260 c73f a103 333e d9bf 18be 20ac 74bf
00000050: fb1c 44be 80cb a73a 2d72 513e d4f0 10bf
00000060: c67a 08bf 707b 61bc 4eba 823f 864c b5bd
00000070: 7812 8e3e 29d2 77bf 1546 8fbf 98ca b9bf
00000080: 1a84 2cbe 4d9f 0d3e 0a9d 9f3f 8127 7d3f
00000090: 57f1 133f ab21 063e 107d 0d3f b5ca 233d
000000a0: 836d 29be ac6e 433f 464d c7be 8d35 3f3f
000000b0: 9b48 96be 60ea 8ebf 29a8 77be 19e2 343f
000000c0: 7495 ad3e 271b dbbe a734 d3be 1894 5fbf
000000d0: 95a4 0b3f a63a 813e 200c cd3e e8a3 30bf
000000e0: 6ee7 4a3e 16af e5bd 7216 1dbe aec6 17bf
000000f0: 8932 323f e3c1 0abf 46d9 3d3d d60a c8be
00000100: b899 e1be 14ae aa3d 3a49 5c3e 34e7 173f
00000110: 9ad6 52bd d682 743f ea0b b8be 3dbd 623e
00000120: 93ab 7bbf a4e2 a73e 6ce7 a43e a218 40be
00000130: 91ab 963f e252 af3e 3b13 7e3f a967 81bf
00000140: a306 d4bd a257 1ebf c9d0 70bf fd84 9f3f
00000150: 5076 883d 2016 813f 13aa 60bf df98 cfbc
00000160: 58e6 063e 3142 b4bd cf74 203f b45f 9e3e
00000170: 63b1 c7be 1820 70be ae6b 91bd ae56 2c3f
00000180: 1e3a 543c d9af bfbe ce6f e9be b0aa a23e
00000190: 56aa 543f e46b fcbe 4289 c23e 37ce 8dbf
000001a0: 42cc d63e b622 1d3f 7342 57bf b0e2 4fbf
000001b0: f79f a53e bdc2 1c3f 2241 593f 7b6d ad3d
000001c0: 39b9 663f 4341 d9bc b6df 0d3f dd9d c03e
000001d0: 81f2 bc3e b859 483f f723 513e a901 0dbf
000001e0: f575 073f 01b6 103f 214f 0ebf 694a 43be
000001f0: a98b c73e 3544 9e3e 8143 56bf c2ec f4be

mlp_encoder.norms.0.module.running_var f4 [128]
0.12811904 0.13714637 0.077843465 0.13787474 0.1022576 0.124934375 0.09096 0.11442777
0.160518 0.100990124 0.13870782 0.09468384 0.17438975 0.065192364 0.06827402 0.11200511
0.10275707 0.06967662 0.14798321 0.12340717 0.11082784 0.10297909 0.06901004 0.14493723
0.13525416 0.1028713 0.12188986 0.0740391 0.07556166 0.14498284 0.11276846 0.12481674
0.051652744 0.08077836 0.06370821 0.15573311 0.076432034 0.07058751 0.14134966 0.10073287
0.06868633 0.15776095 0.11172373 0.14918776 0.08518893 0.12747511 0.07356543 0.07063948
0.0868953 0.12400201 0.11470677 0.100183636 0.15997694 0.092150114 0.076926745 0.10083578
0.17389692 0.115842454 0.12887134 0.09515599 0.13279352 0.1194186 0.17112297 0.09257808
0.20596737 0.088738106 0.06135025 0.10228579 0.12193824 0.10474718 0.108579315 0.09876732
0.12583072 0.15100692 0.065467514 0.054059934 0.13258484 0.07697615 0.14451948 0.09376843
0.07498894 0.11124637 0.10807513 0.09097733 0.114324324 0.10754526 0.09420486 0.15378569
0.082398646 0.07710984 0.08237684 0.08283447 0.113306664 0.113613434 0.09724816 0.15462261
0.06757271 0.09229531 0.1476781 0.08202862 0.084331706 0.1156287 0.10690102 0.12719238
0.08687781 0.089761905 0.091367915 0.121971674 0.13165408 0.09641381 0.06337533 0.058477663
0.12371434 0.121850334 0.09303509 0.1580123 0.080800176 0.0834282 0.12541755 0.11332442
0.09733325 0.11638335 0.11962267 0.15396835 0.0921989 0.15449668 0.08517206 0.084817596
00000000: a331 033e 1970 0c3e 656c 9f3d 092f 0d3e
00000010: 6f6c d13d 98dd ff3d 3d49 ba3d 1b59 ea3d
00000020: d55e 243e e9d3 ce3d 6c09 0e3e 9ae9 c13d
00000030: 3a93 323e 9383 853d 40d3 8b3d ef62 e53d
00000040: 4c72 d23d 9eb2 8e3d e988 173e e6bc fc3d
00000050: b5f9 e23d b3e6 d23d 2355 8d3d 6d6a 143e
00000060: 1180 0a3e 30ae d23d 64a1 f93d d0a1 973d
00000070: 12c0 9a3d 6276 143e 26f3 e63d eb9f ff3d
00000080: d491 533d 206f a53d 7379 823d 8078 1f3e
00000090: 6688 9c3d 2f90 903d f7bd 103e 094d ce3d
000000a0: 6bab 8c3d 168c 213e 69cf e43d adc4 183e
000000b0: 8977 ae3d d688 023e 79a9 963d 6fab 903d
000000c0: 2af6 b13d c4f4 fd3d 62eb ea3d 142d cd3d
000000d0: ffd0 233e 33b9 bc3d c58b 9d3d fd82 ce3d
000000e0: 0912 323e cf3e ed3d d9f6 033e 25e1 c23d
000000f0: 06fb 073e bd91 f43d dc3a 2f3e 9499 bd3d
00000100: 1ce9 523e 53bc b53d 664a 7b3d 367b d13d
00000110: c2ba f93d b185 d63d d55e de3d 8546 ca3d
00000120: c5d9 003e 8fa1 1a3e d513 863d f36d 5d3d
00000130: 52c4 073e aca5 9d3d eafc 133e aa09 c03d
00000140: cd93 993d 23d5 e33d 7e56 dd3d 5352 ba3d
00000150: df22 ea3d b040 dc3d 7aee c03d ff79 1d3e
00000160: 9fc0 a83d c4eb 9d3d 30b5 a83d 1ea5 a93d
00000170: 530d e83d 29ae e83d 0b2a c73d 6455 1e3e
00000180: 9063 8a3d 5305 bd3d ee38 173e 9ffe a73d
00000190: 1ab6 ac3d bdce ec3d ecee da3d b83e 023e
000001a0: feec b13d 17d5 b73d 1a1f bb3d 49cc f93d
000001b0: 54d0 063e 9b74 c53d edca 813d 4686 6f3d
000001c0: f25d fd3d ab8c f93d 2e89 be3d facd 213e
000001d0: 907a a53d 67dc aa3d 756d 003e a216 e83d
000001e0: a856 c73d 655a ee3d bbfc f43d e1a9 1d3e
000001f0: c7d2 bc3d 6134 1e3e b06e ae3d d9b4 ad3d
