runs/StudentModel_Distill_01122148/student_best_mae.pth (torch, 361028 bytes, 47 tensors)

discrete_embedding.embedding_layers.0.weight f4 [7, 6]
000000 da cd 4e 3e 92 6e e9 3e 48 2e 8b be a0 20 19 bf
       0.20195714 0.4559217 -0.27183747 -0.59815407
000010 e4 52 10 3e f0 38 53 3d 21 ee 6a be 8d c7 e8 bb
       0.1409412 0.05156797 -0.22942401 -0.0071038664
000020 36 85 2a 3e f7 1c 7d be 03 80 73 3f 2a 2b ae 3e
       0.16652378 -0.2471808 0.95117205 0.34017307
000030 3e 71 00 3e 26 ab ac 3e 60 5a 3a 3e 6b 79 c5 bd
       0.12543198 0.33724326 0.18198538 -0.09642299
000040 80 c5 33 be 05 de 50 3d 80 1b c9 3d 3c 13 ee be
       -0.17555809 0.050992984 0.09819698 -0.4649905
000050 c7 c3 99 3e 8c 1c 85 be e1 ce db 3e 75 7b aa 3e
       0.3003218 -0.25998342 0.42931274 0.33297315
000060 f8 ce 8b 3e dc 7d b8 bd 4c 65 dc be bb 4d ba 3d
       0.27306342 -0.09008381 -0.43046033 0.09096857
000070 12 f6 6f 3e b7 6b c5 3e 23 29 1d be 42 cb 7d be
       0.23433712 0.38558742 -0.15347724 -0.24784568
000080 26 b0 99 bd fc ee 86 be 98 34 a0 3d 5a 48 17 3f
       -0.07504301 -0.26354206 0.078225315 0.59094775
000090 d5 41 2f be 8d cd 62 be 30 46 aa be 82 23 d4 ba
       -0.17114957 -0.22148724 -0.33256674 -0.0016184899
0000a0 a9 ed 23 3e ef c0 fe 3d
       0.16008629 0.12439143

discrete_embedding.embedding_layers.1.weight f4 [2, 1]
000000 fa 90 f8 be 1a c0 d4 bd
       -0.48548108 -0.10388203

discrete_embedding.embedding_layers.2.weight f4 [2, 1]
000000 ca 58 87 3e 32 86 76 be
       0.26434928 -0.24074629

discrete_embedding.embedding_layers.3.weight f4 [3, 2]
000000 d3 95 c8 be d8 6a 42 be 5f d8 42 3c 1d a1 46 3e
       -0.39176807 -0.1898607 0.011892407 0.19397397
000010 4a 30 8c 3e 4f 6a 4e be
       0.27380592 -0.20157741

mlp_encoder.lins.0.weight f4 [128, 14]
000000 5c a8 72 bd c8 91 10 3f e0 5f 9a 3d c9 6c 2a bf
       -0.05924259 0.56472445 0.07537818 -0.6657224
000010 64 90 a8 3e 3a b4 dc 3d 2d 6d 94 3d 79 ce c4 bd
       0.3292266 0.10776563 0.07247386 -0.09609694
000020 a9 6f c1 3d 63 3a 4e be b9 e4 06 3f db 21 98 3e
       0.094451256 -0.2013946 0.52692753 0.2971333
000030 8a 23 2b 3f bf 25 82 3e 1e 51 e9 be 27 02 e7 3e
       0.66851103 0.25419423 -0.455697 0.4511883
000040 e7 c7 8c bf 7f d4 8c be 24 e0 4a bd ab d8 28 3e
       -1.0998505 -0.27505872 -0.049530163 0.16488902
000050 69 82 88 3e db a8 48 3e da b6 06 3e 47 b4 d7 3e
       0.26661995 0.19595663 0.1315569 0.42129728
000060 4a 99 44 bc 41 65 2f 3c 2b 89 aa bb f4 53 5d bc
       -0.011999438 0.010705293 -0.00520434 -0.0135087855
000070 c3 25 13 bf 50 38 29 3f a2 73 f0 3e 13 09 f3 3d
       -0.57479495 0.6610155 0.4696322 0.11866965
000080 35 fe 15 3d c5 21 93 3e 76 8f 95 3c aa 20 9a be
       0.036619384 0.28736702 0.018256884 -0.30103046
000090 78 43 fa bd e5 e4 d4 bd b4 d0 ca bc 97 99 4e bc
       -0.122199 -0.10395221 -0.02475772 -0.012609861
0000a0 59 71 98 bc 03 1d a8 3c b5 80 17 bf ba ba 35 3e
       -0.018608736 0.020521646 -0.59180766 0.17747012
0000b0 a8 91 0b bf 80 ad e4 bd 93 99 6d be c7 77 a1 be
       -0.5451913 -0.11165905 -0.23203115 -0.31536695
0000c0 cb c4 76 3e 09 00 26 3e 58 22 dc 3e dd 77 9d 3d
       0.24098508 0.16210951 0.42994952 0.07688878
0000d0 76 c6 2b 3f 5a da ed 3e 60 17 09 3e 18 86 38 3e
       0.670997 0.46455652 0.13387823 0.18019903
0000e0 8e 2c 78 3f 7c b3 83 be a2 d1 ef 3d d0 dc 50 3e
       0.96942985 -0.25722873 0.11709906 0.20396733
0000f0 9a b4 83 be af b6 e6 3d 0c e7 9d be f3 1a ae be
       -0.25723726 0.11265313 -0.30840337 -0.34004936
000100 fa 67 8b be b8 19 ee 3b cb 12 07 3f aa ed b7 3d
       -0.27227765 0.0072662495 0.5276305 0.08980878
000110 90 67 34 3e 48 24 11 3f 8f e2 95 3f b5 62 da bd
       0.17617631 0.56695986 1.1709765 -0.10663358
000120 93 fc 43 3c 0c 91 25 3f e3 85 45 3d 27 c8 eb bc
       0.011962074 0.6467445 0.048223387 -0.028781964
000130 da 7b d3 be 7c 42 02 bd 3c 7c 84 3d 20 f2 b5 3e
       -0.4130543 -0.031801686 0.06469008 0.3553629
000140 24 1b 32 be 40 c2 de bd b0 07 7c 3e 68 82 82 be
       -0.17393166 -0.10876894 0.24612308 -0.25490117
000150 cf 91 56 be 45 34 14 3f 14 ee 02 be b8 d6 59 bf
       -0.20954059 0.57892257 -0.12786132 -0.8509326
000160 29 b4 3a bd 93 e2 13 bd 19 31 f5 bd 58 9d 22 be
       -0.04558197 -0.03610475 -0.11972255 -0.15880334
000170 18 a2 91 bc 61 18 b2 bd 60 14 bd 3d ff 85 02 be
       -0.017777488 -0.08696056 0.09232402 -0.12746428
000180 9a 12 89 3e ab 08 25 3e a6 6a e1 be 4b 9e 5f 3d
       0.26772004 0.16116588 -0.4402668 0.05459432
000190 0a 10 28 3f 2c 11 34 be 9e 9f df 3e a5 b6 f9 3e
       0.65649474 -0.17584676 0.43676466 0.4877216
0001a0 02 59 88 bd 53 dd 3b 3e 9e 7c 2e be a2 6f 74 be
       -0.06657602 0.18346147 -0.17039725 -0.2387071
0001b0 7b d0 93 3d f2 16 87 3d a5 de 31 3e f7 14 4b bd
       0.07217499 0.06596173 0.17370088 -0.04958054
0001c0 6b ca 53 bd 3a 5e d0 3c 04 46 bc 3b 35 c0 a5 bf
       -0.051706713 0.025435556 0.005745651 -1.2949282
0001d0 33 ef 5d be 33 0b 25 3e 7f 12 35 be 41 e2 44 be
       -0.21673279 0.16117553 -0.17682837 -0.19226934
0001e0 2c 6c 42 3e 99 dc 48 bd 1e 3a 63 3d 25 82 4e 3d
       0.18986577 -0.049038503 0.055475347 0.050417084
0001f0 0f 99 11 bd e5 5c 86 bd 9d 2d 23 bf a0 16 28 3e
       -0.03554636 -0.06560687 -0.63741475 0.16414881
000200 23 e4 27 3f 87 d2 42 3e 5b e4 0e 3e a7 f6 c2 3e
       0.65582484 0.19025622 0.13954298 0.38078806
000210 23 bb 89 be 9e 74 d1 bd 24 cd 01 be 01 a6 f7 bd
       -0.26900586 -0.10227321 -0.12675911 -0.120922096
000220 5a cc 05 3d d7 9e 9b bd 09 86 a5 bd ed 30 a3 be
       0.032665588 -0.07598656 -0.08082206 -0.31873265
000230 2d a7 cc be 11 b0 7a 3d c0 35 86 3f e0 c9 4f 3d
       -0.39971295 0.061203066 1.0485153 0.050729632
000240 e6 68 b6 be 49 ab ad 3e d3 04 ba be 26 6c a6 be
       -0.35626906 0.33919743 -0.36331806 -0.32504386
000250 e2 b0 81 be a8 2a f4 3d 8e da f1 3c aa 6d 25 bb
       -0.25330263 0.119221985 0.02952316 -0.0025242367
000260 56 0e 55 3d d0 3b 58 bc c9 22 0a bf b7 cf 06 3f
       0.052015625 -0.013197854 -0.5395933 0.526607
000270 c6 14 fc 3e 55 be 97 3d c0 a7 22 3e f5 b5 57 3e
       0.492346 0.0740935 0.15884304 0.21065505
000280 0a ea 02 bf 9a ab 9f be 5b bd 00 3e 74 73 79 3e
       -0.51138365 -0.3118561 0.12572233 0.24360448
000290 09 bd ec be 36 95 37 3e 38 54 9d 3e ea 97 be 3e
       -0.46237972 0.17928013 0.30728316 0.37225276
0002a0 eb 04 a5 3f 40 cf 89 be b6 d6 24 3f 41 e6 1c be
       1.2892126 -0.26915932 0.6439012 -0.1532221
0002b0 82 db 2a be 69 11 19 bf 26 51 a8 be da 67 77 ba
       -0.16685298 -0.5979219 -0.3287441 -0.00094377773
0002c0 f4 61 ef 3d 82 93 6e 3e 72 3c ce bc 3b f8 62 bc
       0.11688605 0.23298457 -0.025175307 -0.013853128
0002d0 2d c4 83 3c 18 61 cb bb e0 ca ed 3e a5 f9 18 bf
       0.016084755 -0.006206643 0.46443844 -0.5975593
0002e0 32 15 e5 3c ae 9c 8a 3e c0 f1 9a 3c 16 be b0 bb
       0.027964208 0.27072662 0.018914104 -0.0053937538
0002f0 6c af fa 3d 67 ff ca 3d 0f 4c 7b bd 4a 6f 06 3d
       0.1224049 0.099119954 -0.061351832 0.032820977
000300 bb d7 d5 3e 70 94 7a bc 66 f2 f0 3e 4a 9f 9d 3e
       0.41766152 -0.015294179 0.47059935 0.3078559
000310 65 61 07 3f 3b 5f 0d bf 53 67 4c 3e 8d 55 f3 3c
       0.5288299 -0.55223435 0.1996129 0.02970388
000320 c4 07 9c bc 6b 3d 9d bd 98 fe ae be 2e 42 72 3c
       -0.019046672 -0.0767773 -0.34178615 0.014786286
000330 62 e4 0a be c3 d1 1d bd e4 5f ff be 84 3d fd 3d
       -0.13563684 -0.038530122 -0.49877846 0.12365249
000340 17 69 2e be 18 3c 47 3f 5e 4a a8 be 7a f2 9b be
       -0.17032276 0.7782607 -0.32869238 -0.30458432
000350 28 81 0f 3e bd 88 32 bf aa d3 b8 3e 84 4b a7 3d
       0.14014113 -0.69739896 0.36098987 0.081687
000360 66 7d bc be e0 ec bd 3c a5 fe ba 3e ea f5 d3 3e
       -0.3681442 0.02318424 0.36522403 0.41398555
000370 ed 21 23 3f 7a 2c 1e bf 1c 2b 9f bd 9f b6 a4 3d
       0.6372364 -0.61786616 -0.07771894 0.08042645
000380 81 c2 5a be b7 c9 8e 3d 49 7a 8f be 08 f0 3f 3f
       -0.2136326 0.06972068 -0.28022984 0.74975634
000390 cd ce c0 3d db 38 9e 3e 2f 36 5c 3d 13 27 02 3f
       0.09414444 0.30902752 0.05376261 0.5084087
0003a0 90 89 08 3d 96 b9 7e be 79 90 cf be 97 40 9a 3c
       0.033334315 -0.24875483 -0.4053991 0.018829627
0003b0 f4 1e ba 3e 87 e1 0d 3f b7 66 43 be 38 42 14 3f
       0.3635174 0.5542225 -0.19082151 0.5791354
0003c0 c3 ee 02 bf cf 2d 91 be bc 91 37 be 54 26 d2 bd
       -0.5114557 -0.28355262 -0.17926687 -0.10261217
0003d0 76 5e 18 3e f4 e6 50 3d ae 88 8a 3e ed 89 77 3e
       0.14879784 0.051001504 0.27057403 0.24173708
0003e0 87 0c bb 3d 87 b3 16 ba 3a a7 d4 bd b0 19 91 3c
       0.09133249 -0.00057487976 -0.103834584 0.017712444
0003f0 aa 0f bc be 69 99 8f bf c2 d5 01 3f 96 6e a0 3e
       -0.367307 -1.1218692 0.50716794 0.3133437

mlp_encoder.lins.0.bias f4 [128]
000000 66 12 09 bf 55 2d b7 bd 45 b9 91 3e c6 7a 12 3e
       -0.535437 -0.08944193 0.28461662 0.14304647
000010 a3 c8 76 3e c2 7d 17 be 1a 23 61 bd 16 9c e3 bd
       0.24099974 -0.14794067 -0.054965116 -0.111137554
000020 09 ce 9f be 63 8d 2c be a5 19 55 be da 26 df 3d
       -0.3121188 -0.1685081 -0.20810564 0.10896082
000030 d1 f4 1e be 8d d1 90 3e 2a f4 09 3e 1f 18 81 3e
       -0.15523078 0.28284875 0.13472047 0.25213715
000040 3d c4 ac 3f cf 5d 15 3e 2a f6 ab 3e f8 e1 8b be
       1.3497387 0.14586566 0.33586246 -0.27320838
000050 dd 65 97 3e 8f c6 cc bd b1 50 9f be 83 6c 98 3d
       0.29569903 -0.099988095 -0.3111625 0.07442572
000060 32 3d a5 3e ac 52 00 bf 1c 6d 0e 3f 34 ba 0c 3e
       0.3227325 -0.5012615 0.5563524 0.13742906
000070 bb 10 0a 3f 6e 31 68 bf ff 3b 2a bd f6 0f 4f bf
       0.5393178 -0.90700424 -0.041561123 -0.8088373
000080 8f 00 b6 3e dd c4 36 3d c3 3f 19 3f 99 f2 23 3f
       0.355473 0.044621337 0.5986292 0.6404205
000090 92 69 8e be dc ce cf 3e 3e b1 85 be 06 be 82 3e
       -0.2781492 0.4058751 -0.26111788 0.255356
0000a0 5c 5a ab 3e 2e da 26 3f 31 c3 a4 be 3e 7a 9e 3e
       0.33467376 0.65176666 -0.3218017 0.30952638
0000b0 9f 6d 5f 3e 40 60 cb be 41 00 b0 3b 3e 1d 18 bd
       0.21819161 -0.3972187 0.005371124 -0.037137263
0000c0 ce 45 b7 3c 10 24 81 be a2 a9 40 3e 64 c3 37 bf
       0.022372153 -0.25222826 0.1881471 -0.7178252
0000d0 f9 4f 5d 3e 5c 8f 2a 3f 9b 9d 07 3f 80 ae d8 bd
       0.21612538 0.66625 0.5297486 -0.10580158
0000e0 7b c2 b1 3e 7a 92 c5 3e 34 9b 85 be bd 64 2f bf
       0.3471869 0.38588315 -0.26094973 -0.6851309
0000f0 5b b5 f9 3e fc ad 01 3e a4 e2 9c be a3 3f 15 bf
       0.48771176 0.12664026 -0.30641663 -0.58300227
000100 1b b1 95 3d a8 52 90 3e 89 d4 9d 3e b9 c6 d3 3b
       0.07309171 0.28188062 0.30826214 0.0064628986
000110 01 3c 73 3e 43 d2 2a 3e d2 07 75 3e a4 c7 8c 3e
       0.23753358 0.16681771 0.23928764 0.27496064
000120 94 74 5d bf 6a a4 55 3e 69 6f dc 3e 4f a2 81 3e
       -0.8650601 0.208635 0.4305375 0.25319144
000130 7d b3 54 3f c2 18 b9 3e 69 40 12 3e 0a fa ff be
       0.8308638 0.361517 0.14282383 -0.49995452
000140 81 ed ba be 6a ec 1b bf bf a6 ac be eb d2 2e 3f
       -0.36509326 -0.60907614 -0.33720967 0.68290585
000150 7d 74 ec 3e fb e1 4d 3f ff 88 bf 3d 06 b7 dc be
       0.46182624 0.80422944 0.09352302 -0.43108386
000160 86 26 2f bd 69 12 11 bd e7 3e da bd 41 5e 90 3e
       -0.04276135 -0.035417948 -0.10656529 0.2819691
000170 7d 85 d4 be 69 80 92 be f1 fd 4c be 33 34 e4 be
       -0.41508093 -0.28613594 -0.20018746 -0.44571075
000180 bb 73 b0 3e f9 ac 50 3e aa ba 0b bf 18 1c d6 be
       0.34463295 0.20378484 -0.545817 -0.4181831
000190 b9 c6 1e 3f 31 c1 17 bf 87 05 8c 3e 47 93 9c bc
       0.62021977 -0.5927916 0.27347967 -0.019113196
0001a0 f5 ab 4d be 74 c0 19 be 00 4c 20 bf a9 65 29 bf
       -0.20085128 -0.15014821 -0.62615967 -0.66170746
0001b0 45 5e 3c 3e cb 95 f3 3e 99 ee 1e 3f 8e 62 bc 3e
       0.18395336 0.4757522 0.6208282 0.3679394
0001c0 13 9e c9 3e 48 b9 18 bf 30 37 94 be 67 b6 dc bd
       0.39378414 -0.59657717 -0.28948355 -0.10776978
0001d0 90 de a9 3e e2 2b 98 3e 0c b2 97 be 67 67 a7 3e
       0.33177614 0.2972098 -0.29628026 0.32696077
0001e0 12 d9 67 3e 68 c1 70 3e 91 bb 26 3c 58 86 ab 3e
       0.226414 0.23511279 0.010176555 0.33500934
0001f0 d6 72 99 3e 44 c4 f2 be 07 2c 63 be 7f c3 e5 3d
       0.29970425 -0.47415364 -0.22184764 0.112189285

mlp_encoder.lins.1.weight f4 [128, 128]
000000 ed 88 72 be 59 75 20 be 16 bb 9c be 34 75 a9 bd
       -0.23685046 -0.15669765 -0.30611485 -0.08274308
000010 09 3b d7 3d 7a 15 13 3d 65 d7 e5 bd f4 87 c2 bd
       0.10509307 0.035909154 -0.11222724 -0.09498587
000020 a1 81 97 bf 8d 42 5b be 2c 34 62 be f2 eb a5 3d
       -1.1836435 -0.21412106 -0.22090214 0.081016436
000030 e3 ab 40 3e 26 37 84 3e 3b ec 78 3e f1 c1 2a be
       0.1881557 0.25823325 0.24308865 -0.16675545
000040 33 16 98 bd 4a 1e 93 be 9f 5b ff 3d 6c 0e 41 3d
       -0.07426109 -0.28734046 0.12468647 0.047132894
000050 bf 4a 0f 3e 94 2c 82 3d ec c0 ae 3d 82 2d b2 be
       0.13993357 0.06356159 0.08532891 -0.34800345
000060 21 b9 c8 be 1e a9 38 3e 45 a7 3a 3d f2 9c b8 bd
       -0.39203742 0.18033263 0.045569677 -0.0901431
000070 ea 7d eb 3c d1 97 11 3e 5e 4c a4 bd 8e 35 ae be
       0.028746564 0.1421807 -0.080223784 -0.34025234
000080 dc f9 65 3e 51 55 1c be 09 18 a6 3d a6 54 51 3e
       0.22458595 -0.1526692 0.08110053 0.20442447
000090 ce 3a f0 bd 5c bf 89 3e 9e f5 86 3e d8 cf e8 be
       -0.11729966 0.26903808 0.26359266 -0.45471072
0000a0 54 d0 f9 3d 4c 51 85 be b5 6e d0 be 49 ec 25 be
       0.121979386 -0.26038587 -0.40709463 -0.16203417
0000b0 6d 8f ae bc fe e5 42 be b0 d2 f3 bd 09 06 f3 bd
       -0.021308625 -0.19033048 -0.1190542 -0.118663855
0000c0 52 28 81 bd ee 0e cd 3c 56 18 18 bd 7b a5 80 3d
       -0.063065186 0.025031533 -0.037132584 0.06281563
0000d0 0d e1 3d be bb 46 92 bd 10 a5 91 be 61 76 b4 bd
       -0.18542881 -0.07142397 -0.28446245 -0.088116415
0000e0 aa b9 08 3e b5 c9 24 be 90 19 4a 3c 2a 10 db 3d
       0.13352075 -0.1609257 0.012335196 0.106964424
0000f0 9d 5f 63 3e 58 f0 8a be f9 42 83 3e a2 de b6 3d
       0.22204442 -0.27136493 0.25637034 0.089291826
000100 96 d2 a3 be fa f3 93 be bf 0c f3 3d 32 d3 91 3d
       -0.31996602 -0.28897077 0.118676655 0.071203604
000110 34 1b b1 3d b8 15 f7 3d e2 b9 e7 be cd 6f 3c 3e
       0.08647767 0.120646894 -0.45259005 0.18402024
000120 07 19 f9 3c 0a f0 6c be 1e 07 71 3c 24 59 cf be
       0.030407442 -0.23138443 0.0147111695 -0.40497696
000130 70 63 a6 be 43 8c 28 bd 70 86 97 3d e7 ff aa be
       -0.3249774 -0.04114939 0.07398689 -0.33398363
000140 7f 30 8d be c8 01 aa bc 11 7a 17 be 65 2a 1f be
       -0.27576062 -0.020752802 -0.14792658 -0.15543516
000150 bc 69 14 3d f5 46 41 3e 8c 7a 24 bd 15 4b 04 3c
       0.03623365 0.18874724 -0.040155932 0.008074542
000160 b1 cb 55 3d 24 b0 93 3d 4c 9e cc bd 8d bb a1 be
       0.05219621 0.072113305 -0.0999113 -0.31588402
000170 87 34 0a 3e 64 1b f7 bb 27 65 7c 3e 91 45 72 bd
       0.134966 -0.007541107 0.24647962 -0.059148375
000180 cd d9 1c bd bc af 53 be b9 57 b0 bd b2 07 7b bc
       -0.03829365 -0.20672506 -0.08610482 -0.015321659
000190 cb b3 ea 3d 6e 19 e3 3d 3c d3 be 3d 01 9d a1 bc
       0.11460074 0.11088835 0.093176335 -0.019728186
0001a0 dd 68 03 bd 32 89 db 3d 4e f7 cc be a1 83 fb 3d
       -0.032082427 0.10719527 -0.40032429 0.122809656
0001b0 c8 81 ad 3d 72 63 d2 3c 09 66 56 be 0f 3e 9a bd
       0.084720194 0.025682185 -0.20937361 -0.07531368
0001c0 82 de 60 3d a3 64 bf 3d 92 6e 62 bc 7d 82 f3 3d
       0.0548997 0.09345367 -0.013820307 0.11890123
0001d0 8f f9 5a 3e f5 81 88 3d 3f f3 04 3e f2 94 78 be
       0.21384262 0.06665412 0.12983416 -0.24275568
0001e0 b1 01 30 be 0c ef 1f bd 38 ba 5a bd 7d 58 87 3d
       -0.17188145 -0.039046332 -0.05340025 0.06608675
0001f0 72 7b c8 3e e0 9d 1a bd e6 7d 35 bf f8 6e 31 bd
       0.3915668 -0.037748218 -0.7089523 -0.04331872
000200 df 57 07 bf 3b 33 ac bd 4e 8f 6b 3e 09 05 f9 3c
       -0.52868456 -0.08408209 0.23003885 0.030397909
000210 eb d0 23 bf e3 27 17 bf c8 42 82 3c f2 19 7b be
       -0.6399066 -0.5904524 0.015900984 -0.24521616
000220 2b 52 be be 53 91 30 3f 4d 56 a9 3e ec 25 26 3d
       -0.37172064 0.6897175 0.33073655 0.04056351
000230 b5 bc 88 3d d1 a0 93 3d 07 02 91 be 79 38 0d 3c
       0.06676618 0.07208408 -0.2832186 0.008619421
000240 e2 85 ee be 29 95 43 3e ef 02 da 3c 28 70 28 3e
       -0.4658652 0.19099869 0.026612727 0.16449034
000250 d5 fa 55 3e 74 52 ce be eb 20 4d bd 2d 50 44 be
       0.20896466 -0.40297282 -0.05008022 -0.1917121
000260 c2 a8 97 3e 6c ee f5 be 63 30 7b be 19 bf 53 be
       0.2962094 -0.48033464 -0.24530177 -0.20678367
000270 3c c3 59 bd 19 77 f8 bd 7c 83 bb 3d 32 a3 50 bd
       -0.053164706 -0.12132091 0.09155938 -0.050936885
000280 2f 53 9a 3e 66 e4 ef bd 4b cf 5a 3b 5f 04 bc be
       0.3014159 -0.117134854 0.0033387716 -0.36722085
000290 1b fa 02 be 7a e1 82 be bb 35 14 bf fc 22 09 bd
       -0.1279072 -0.2556265 -0.57894486 -0.03348063
0002a0 77 c6 a4 bc 54 69 cf 3e 5b bd 43 bf a3 25 b0 3d
       -0.020114167 0.40510046 -0.7646081 0.08600929
0002b0 73 1b ce 3d 1d 3d af bd 61 65 0a 3e 7c 63 7b 3d
       0.10063829 -0.08556578 0.13515235 0.061374173
0002c0 24 38 99 bd 24 32 34 bd f1 41 40 bb be 35 d7 bc
       -0.07481411 -0.04399313 -0.002933618 -0.026270743
0002d0 bc 86 db bd dc cf 24 bd dc cb 20 be f7 3f 1d bf
       -0.10719058 -0.040237293 -0.15702766 -0.6142573
0002e0 26 81 aa be 5b 85 56 bd 22 3b ca bb 98 b5 9a be
       -0.33301657 -0.05237327 -0.0061716 -0.3021667
0002f0 6d 7a a6 be 8b 7d a0 3d 34 ca c0 bf 1e 04 18 bd
       -0.32515278 0.078364454 -1.5061707 -0.0371133
000300 87 24 25 be 95 7f a1 be 40 49 25 bc 95 03 c5 be
       -0.16127215 -0.3154265 -0.010088265 -0.38479295
000310 eb b3 98 3d c3 0c 2a 39 44 74 ea bd bf d5 1c bf
       0.07456192 0.00016217217 -0.11447957 -0.6126365
000320 e6 0c 7b be 46 88 3e 3e 17 75 7a 3e 27 2c cd 3d
       -0.24516639 0.18606672 0.24458729 0.10018187
000330 9e 19 55 bd 53 cb 5e 3e b6 3f c8 bc 85 ee 77 3e
       -0.052026384 0.2175725 -0.024444442 0.24212082
000340 f9 45 e1 3e 68 eb 2e 3f 3c 43 30 3e 50 30 28 3d
       0.43998697 0.6832795 0.17213148 0.0410617
000350 63 57 03 3e f6 ce 44 be 88 49 f5 bc 3f ea a8 3e
       0.12826304 -0.19219574 -0.029942289 0.32991216
000360 a6 5e 5d 3e ca f1 21 3d 7d f6 83 3e 47 c7 5f be
       0.21618137 0.03953723 0.25773993 -0.21853362
000370 71 e7 10 be 38 02 db bd 09 ea 85 3d 6e 76 3b bf
       -0.14150788 -0.106937826 0.06538779 -0.73227584
000380 f1 ff b0 3c 1b c8 84 be 0f 91 3c 3e 38 86 0d be
       0.021606417 -0.25933918 0.1841471 -0.13820732
000390 90 cb 16 bf 83 78 c2 bd b2 7d bc be 2e c0 e3 3e
       -0.5890436 -0.09495642 -0.36814648 0.4448256
0003a0 28 ec 15 3e 10 ac 0e 3e 90 6a fb bc ba 3a b2 3e
       0.14640868 0.13932824 -0.030690461 0.3481043
0003b0 3c 45 c9 3e 16 48 8e be 53 2f 50 bf 7a ef a4 be
       0.39310634 -0.27789372 -0.8132221 -0.32213956
0003c0 2f 52 0c bf cd f5 c4 3d a7 86 1f bf fb c7 0c bf
       -0.548129 0.09617195 -0.6231484 -0.54992646
0003d0 a8 cb c5 be 54 d4 5e 3e de de cc 3c 39 2c b2 bd
       -0.3863194 0.21760684 0.025008615 -0.08699841
0003e0 b8 bd 84 be a2 ad bd 3c 4b 8b da 39 b2 35 93 3d
       -0.25925994 0.023154084 0.00041683982 0.07187976
0003f0 71 6c 2d be 83 0a 22 3e a5 a2 98 3c 6c 50 e9 be
       -0.16935898 0.15824322 0.018632242 -0.4556917

mlp_encoder.lins.1.bias f4 [128]
000000 5d 54 8f 3e 8e 3e 93 3a 0e 54 b7 be 3a 86 3e 3f
       0.27994052 0.0011233853 -0.35806316 0.74423563
000010 d3 70 bc be 57 b5 d4 bc af ae 04 bf b7 54 0b 3e
       -0.36804828 -0.025965376 -0.51829046 0.13606535
000020 f1 76 86 3d 8d b5 0f bf 80 87 07 bf 7b 3d 7c be
       0.06565655 -0.561364 -0.5294113 -0.24632828
000030 7b 47 20 3e db e9 e5 bd fe e7 1d 3e 05 fd 25 3e
       0.15652268 -0.11226245 0.15420529 0.162098
000040 31 8e ef 3e 53 cc a1 3e 97 00 dd bd 5e 3d 37 be
       0.4678817 0.316012 -0.10791128 -0.17894503
000050 7e 3a 97 3c 06 c7 23 3e f6 54 aa bf fc 38 43 3d
       0.018460508 0.1599389 -1.3307178 0.047661766
000060 0a 80 34 be 74 6c c2 be da 08 06 bb 48 32 a5 3d
       -0.17626968 -0.37973368 -0.0020452053 0.08066231
000070 91 fe 21 3e 38 55 fd be 01 de 42 3e c0 dd 07 3e
       0.15819766 -0.4947908 0.1903 0.13268185
000080 fd 73 8d 3e ee 07 1a bf 73 f2 09 be 0b eb 95 be
       0.27627555 -0.6016835 -0.13471393 -0.29280886
000090 82 e0 a4 be 1b 0c dc be 7a af d4 3e 2f 2a 24 3e
       -0.32202536 -0.42977986 0.41540128 0.16031717
0000a0 10 26 26 3e 94 d5 85 3c a5 0c d6 be c3 9a cc 3e
       0.16225457 0.016337194 -0.41806522 0.39961824
0000b0 81 04 5d 3b e2 d3 12 3e 47 84 02 3e 9c 2d de 3b
       0.0033724608 0.1433864 0.12745772 0.0067803394
0000c0 2d a4 5d be 36 2e 68 3e 88 5f 4c 3f df 60 38 be
       -0.2164466 0.22673878 0.7983327 -0.18005703
0000d0 c6 3f bf 3c 6b 6a 9c 3d 5f b6 09 bf f0 58 0a be
       0.02334584 0.07637485 -0.537939 -0.1351049
0000e0 3f 4f 04 bf af 2f 03 3f 83 12 2b 3e e5 ed 56 3e
       -0.5168342 0.51244634 0.1670628 0.20989187
0000f0 95 ad 79 bd 33 d9 41 3e 6e aa 83 3d 8f 07 b6 bd
       -0.060956556 0.18930511 0.06428991 -0.088881604
000100 b5 e6 7a be a0 b3 28 bc 05 4a da be 8e 32 35 3e
       -0.2450207 -0.010296732 -0.42634597 0.17695066
000110 6b 88 0c 3f 6b 24 fa 3e ac 38 8d bf 2c 57 7b 3e
       0.5489566 0.4885591 -1.103292 0.24544972
000120 9c 0c 97 3e 43 82 7f 3c 77 98 10 bd 5a 14 45 3f
       0.29501808 0.015595022 -0.03530165 0.7698418
000130 38 33 fb bd 76 b2 63 3f 25 a9 17 3f 90 b9 1f 3f
       -0.122656286 0.88944185 0.5924247 0.6239252
000140 72 47 ec be f1 29 f4 bd 26 2f f6 be 15 61 ba be
       -0.46148258 -0.11922062 -0.48082846 -0.36402193
000150 40 db 97 be ca 9e bb 3e da 48 a7 be 8d 8c e0 3d
       -0.29659462 0.36644584 -0.3267277 0.10964308
000160 b4 15 07 3e e8 b3 0e 3e a5 9b 82 be 49 b7 1d bf
       0.13191873 0.13935816 -0.25509372 -0.61607796
000170 c8 06 a9 3e 09 04 da 3e e0 e8 56 be 23 bd 81 bc
       0.33012986 0.42581204 -0.20987272 -0.015837258
000180 63 5c 77 be 77 35 92 3d 59 69 92 3e 8d f1 97 3e
       -0.24156336 0.07139104 0.28596 0.29676476
000190 aa 68 8a bd 04 4f 2e bf 8b f1 8d be bb db b1 3e
       -0.06758244 -0.6808932 -0.27723345 0.34737954
0001a0 2c e7 1e 3f 22 20 46 bd 5d d0 77 3d 8a 56 46 3e
       0.6207149 -0.048370488 0.060501445 0.1936895
0001b0 25 48 f5 3e 1b 42 ed be e8 37 85 bd c4 79 1a bf
       0.47906604 -0.46339497 -0.06504804 -0.6034205
0001c0 14 c3 80 be 50 3d 86 bc 95 9e 16 bf a4 15 88 bd
       -0.25148833 -0.016386658 -0.58835727 -0.066447526
0001d0 14 30 1e 3f dd 2b 9c be 00 aa 52 be 55 63 14 be
       0.6179211 -0.30502215 -0.20572662 -0.14491017
0001e0 45 70 a7 3e 00 7d eb 3e 4e e9 1c bf 00 6a 98 3e
       0.32702842 0.45993805 -0.61293495 0.29768372
0001f0 3f 36 8b 3e 16 da 29 be 85 06 45 3e 3c f0 81 3d
       0.27189824 -0.165871 0.19240768 0.06344649

mlp_encoder.lins.2.weight f4 [128, 128]
000000 ab 15 d9 bd b1 79 c8 be 18 9f f0 bd eb cc 8d bd
       -0.10599836 -0.39155343 -0.11749095 -0.069238506
000010 fb 68 d9 3d 43 a7 1e 3d f4 dd 75 3e 9d f0 2f bf
       0.106157266 0.038733732 0.2401045 -0.6872652
000020 5c f7 a2 3d 81 36 34 be 84 60 19 3e 5b e3 b6 bd
       0.07957336 -0.17598917 0.14978224 -0.08930083
000030 1d dc ee bd 22 4f bd 3e c7 89 83 be 90 bf 72 3d
       -0.11663077 0.36974436 -0.25691053 0.05926472
000040 21 9f bb be 0f 70 94 bc 7a b3 be 3c 95 2a df be
       -0.36644843 -0.01811984 0.02327894 -0.43587175
000050 4d 62 6c 3e 82 ff ae 3e bb 9a 1e bd f2 c2 f8 3d
       0.23084374 0.34179312 -0.03872178 0.12146558
000060 f4 cf d6 3e 70 8a 19 3e 2a 4d 17 3c 52 a5 85 bb
       0.4195553 0.14994216 0.009234706 -0.0040785456
000070 e2 aa 1b be 1d a5 0e be a3 eb 04 3e d2 5a 72 be
       -0.15201905 -0.13930173 0.12980513 -0.23667458
000080 80 55 a7 3e d9 bb ce bd cc 5a 92 bd ab 43 1b be
       0.3268242 -0.10094423 -0.071462244 -0.15162532
000090 d9 30 24 be 9b 82 9a be af 76 1a bd b5 f0 88 3d
       -0.16034259 -0.3017777 -0.03771084 0.06686536
0000a0 49 39 f6 bc d8 f4 2b be f9 2b 7a 3d 88 86 cc bd
       -0.030056613 -0.16792619 0.06107709 -0.09986597
0000b0 f1 0a 3a 3f 6b db 27 3c 6d 7e 77 bd 38 9a 39 be
       0.72672945 0.010245184 -0.060423303 -0.18125236
0000c0 49 34 ba be 8d aa 8f bd 3b 3b 98 be de 86 9e 3b
       -0.36368015 -0.07014952 -0.2973269 0.0048378548
0000d0 de 13 cf bb 33 bf d1 bc 49 46 29 3d 88 fd 22 bf
       -0.006319507 -0.025603866 0.041326795 -0.6366811
0000e0 97 13 15 bc 2b 2d cd 3c fe 27 77 3f 7a 54 c7 bd
       -0.009098909 0.025045952 0.965454 -0.097329095
0000f0 66 73 ff bd 56 a2 14 be 3c 1c 93 3d 27 88 8c 3e
       -0.124731824 -0.14515051 0.0718312 0.27447626
000100 da 75 74 3d b5 94 0a be 3c 8a 54 be ca 94 21 3e
       0.059682705 -0.1353329 -0.20755857 0.15779415
000110 89 a7 94 be 08 fb cc bd 3b b3 90 3b 2d b9 a8 3e
       -0.2903407 -0.10008818 0.004415897 0.32953778
000120 a3 f8 56 be 46 d4 a5 3e 32 bf 08 3e 81 2d 77 be
       -0.20993285 0.32388514 0.13354185 -0.24138452
000130 ac e5 ef be b2 2f 6a 3f aa 6b 17 bd df 4c 9c be
       -0.46854913 0.9147903 -0.03696791 -0.30527398
000140 4d 80 91 bd 1c 73 45 bd ca 65 eb 3e f4 76 57 3e
       -0.071045496 -0.04820548 0.45976096 0.21041471
000150 66 b8 ae 3d d1 e6 25 3f 76 62 2d 3f 48 cb a4 be
       0.08531265 0.6480532 0.67728364 -0.3218634
000160 5a 7b ef 3d a8 97 fc be 30 60 c4 be 8e 6e 80 be
       0.11693449 -0.49334455 -0.38354635 -0.25084347
000170 35 46 f5 bd 08 b9 99 be c4 3e 12 3f ba 06 15 3f
       -0.119762816 -0.3002398 0.5712702 0.5821339
000180 75 3c dd b9 0b 20 f4 3e 7c 33 64 3d cc 01 ef b9
       -0.0004219745 0.47680697 0.05571316 -0.0004558697
000190 94 c5 c0 3c 4c b1 c4 3d 58 97 66 be 75 92 31 3e
       0.023531713 0.09604129 -0.2251867 0.17341025
0001a0 dc da bc 3d 0a 98 0b be 9c dd de be f3 4a b1 3e
       0.092214316 -0.13632217 -0.4352845 0.34627494
0001b0 cb e2 29 3f 74 fe 0c bf 5f 93 74 be 2a 5d 25 bf
       0.66361684 -0.55075765 -0.23884343 -0.6459528
0001c0 57 cd 47 3e e5 fd 48 3e 58 4b c6 bd a8 c1 93 3e
       0.19511925 0.19628103 -0.096823394 0.28858685
0001d0 33 d9 e7 3e ae 1a 23 3f e0 bc 21 3c cd 30 de be
       0.45282897 0.63712585 0.009871691 -0.43396607
0001e0 a0 09 d0 3d a1 4f de 3e ad d4 d6 bd dc b8 ce 3c
       0.10158086 0.43420127 -0.104897834 0.025234632
0001f0 55 e7 04 bf 42 f2 47 3e eb 8b 35 3e f7 66 42 bd
       -0.51915485 0.19526008 0.17729156 -0.047461476
000200 55 21 60 3c fd 2e c1 3b c6 55 a6 3d 45 5f db bd
       0.013679822 0.005895494 0.08121829 -0.107115306
000210 d2 df 04 be 1f 3f 62 be 93 dd 61 3e ea 35 a7 bc
       -0.12976006 -0.22094391 0.2205718 -0.02041145
000220 18 9a ef bd 81 0b b3 3e 2a 9b 06 bf d2 1b ad bd
       -0.11699313 0.34969714 -0.5258051 -0.08452572
000230 5e 37 b2 3d ee 6b a0 3e d8 9c a1 3e bf 0e 8c be
       0.08701967 0.31332344 0.31564975 -0.27355
000240 00 d8 3e 3d ac 0c 4a bd 6c f8 80 3c a3 30 70 3e
       0.046592712 -0.04932849 0.015743457 0.23456053
000250 92 b5 00 3b bf 67 82 3c 73 8c d2 3d f7 2b 0e 3e
       0.0019639474 0.01591861 0.10280695 0.13883959
000260 bc 0a 05 3e aa 53 24 be d2 5f 11 bd be 47 97 3d
       0.12992376 -0.1604754 -0.035491772 0.073867306
000270 70 85 ae 3d 3b 70 d0 3d 2f 25 ad 3e bb cf ae 3e
       0.08521545 0.10177656 0.3381743 0.3414286
000280 3f 88 bf 3d f6 3f 6c 3e 42 2a f5 3e 8e 7b 53 be
       0.09352159 0.23071274 0.47883803 -0.20652601
000290 3a 05 75 be 99 dd 9d bd 5d 91 d9 3d 0f 30 2b be
       -0.23927775 -0.07708282 0.10623429 -0.16717552
0002a0 e9 f7 89 3d 9d bb 6e 3d a5 f5 c8 bd 44 6a 20 3e
       0.06736738 0.05828439 -0.09812478 0.15665537
0002b0 1b 48 0d 3e 35 6e 24 3e 4e d3 bc be 28 d8 1f 3e
       0.13797037 0.16057666 -0.36879963 0.15609801
0002c0 78 d9 fd be f3 5d 0d be 92 05 33 3e 8a 72 21 3e
       -0.49579978 -0.1380537 0.17482594 0.1576635
0002d0 94 f5 45 3d ce 3a b5 3d 83 5f 38 3d ee ea a9 be
       0.048329905 0.08849107 0.045012962 -0.3318705
0002e0 fe 0c 99 3d fc 27 ff be d9 80 ff 3d 88 a0 8f 3d
       0.07473181 -0.49835193 0.124757476 0.07013041
0002f0 aa 76 da be 23 cc 93 be ce 54 e3 bc 1f 33 0b 3e
       -0.42668658 -0.2886668 -0.027750399 0.1359372
000300 a6 bd 88 bb 72 24 13 3e 16 12 8c 3e f8 d7 d9 3e
       -0.0041729985 0.14369372 0.27357548 0.42547584
000310 dd f2 e0 be 4f 32 10 3e 85 87 58 3e 3f 38 02 3e
       -0.4393529 0.14081691 0.21145447 0.12716769
000320 9b a5 f6 3d db ef b0 bd 3f 5d b7 3d 10 97 6d 3e
       0.120433055 -0.08639499 0.08953332 0.23202157
000330 43 70 b1 be 73 b1 a2 3b 01 dc 68 3e 20 65 11 be
       -0.3465596 0.0049650013 0.22740175 -0.14198732
000340 e4 5f 85 bd 06 ca af bd 73 e8 09 be 0e 7a 04 3e
       -0.0651243 -0.08583455 -0.13467579 0.12937185
000350 ae 94 87 be 7c 52 a2 3e 02 7e 4b 3d 7e 89 1b 3e
       -0.2648062 0.31703556 0.049680717 0.15189168
000360 60 5a a9 bd e3 1e ad bd 57 94 d8 be 69 14 e4 be
       -0.08269191 -0.08453157 -0.42300674 -0.44546822
000370 69 8b ea be 2a 01 c2 be 78 8c 97 3d ad 8d 0d 3d
       -0.45809487 -0.37891513 0.07399839 0.03455894
000380 6e 8d f2 3e 4a 13 2a 3e 63 89 5f be 98 f4 9a 3d
       0.47373527 0.1660892 -0.21829753 0.07566184
000390 2d 6b 3f 3e e1 32 98 bd c6 0f 57 be 8f 80 23 3e
       0.18693228 -0.074315794 -0.21002111 0.1596701
0003a0 ce 22 9d 3e b3 03 27 be d3 23 28 bb ff 4f 70 bd
       0.30690616 -0.16310005 -0.0025656119 -0.05867004
0003b0 7a b3 73 3e e1 38 14 bf d9 96 03 be 4a 9e cc be
       0.23798934 -0.5789929 -0.12850513 -0.39964515
0003c0 e3 ae 8d 3e 30 0e d4 bd 1f b0 06 3e 90 90 5e bc
       0.2767249 -0.103542686 0.13153122 -0.013584271
0003d0 89 82 78 3d 1e fb 87 3e 21 f6 45 bd b8 c6 fd 3d
       0.060671363 0.26558775 -0.04833043 0.12391418
0003e0 f6 af 8c 3d 87 a7 eb bb e0 4a a7 bc 89 42 cf 3d
       0.068694994 -0.0071916017 -0.020421445 0.101201124
0003f0 2b 08 57 3d 56 a3 e1 bd 22 b0 0d 3d 3e 48 99 3e
       0.052498024 -0.11017482 0.0345918 0.2993793

mlp_encoder.lins.2.bias f4 [128]
000000 b5 60 e8 bd d2 ba 10 3f 43 ce 53 3e 23 7c f6 bc
       -0.113465704 0.56535065 0.20684151 -0.03008849
000010 f9 46 b8 3e fd c2 e2 3e 13 50 2f 3f 28 fc aa bd
       0.35991648 0.4428939 0.6848156 -0.08348876
000020 a1 88 cc 3e 1a c8 4b 3e ff 1f 08 3f 8e 1c 8c 3d
       0.3994799 0.19900551 0.5317382 0.06841384
000030 0f 6d c3 3e 79 99 0f 3d 5d bf 22 3f 17 b5 cf 3e
       0.38169143 0.035058472 0.6357325 0.40567848
000040 48 57 0b be 0f fa 8b 3e 9f 86 0c 3e 6c 57 4c bb
       -0.13607514 0.27339217 0.13723229 -0.0031180037
000050 c0 fb 33 be c4 7f 0b bd 89 a7 05 3f 7b 9e b9 3e
       -0.17576504 -0.034057394 0.52208763 0.36253724
000060 2a e5 e5 3e 1c ec d9 bd ec d0 2d be ba 85 c2 3e
       0.449014 -0.106407374 -0.16974229 0.3799265
000070 14 37 bb be 7e e9 12 3e e1 0b 8e 3e 4b 7c 18 3f
       -0.3656546 0.14346883 0.27743438 0.59564656
000080 8d a5 07 be 53 a3 14 3e 18 b8 81 be b8 c9 71 3d
       -0.13246746 0.14515428 -0.25335765 0.059030265
000090 b3 58 db 3d 8a 01 b7 3e e4 80 a0 3d 14 31 28 be
       0.107102774 0.35743362 0.07837084 -0.16424972
0000a0 12 df 90 3e 42 cb c1 be 88 f5 3f be 95 44 4a 3e
       0.2829519 -0.37850386 -0.18746006 0.19752724
0000b0 7a 2e a4 be 0b 97 e5 bc f4 27 b1 be 48 83 46 3f
       -0.3206671 -0.028026124 -0.34600794 0.7754407
0000c0 9a aa 50 3f 2e 65 82 3e ac 1a df 3e 60 82 53 3d
       0.8151032 0.2546782 0.43575037 0.051638007
0000d0 0b d9 02 bf a5 b7 90 3e 69 d1 5e 3e ca db 9a 3e
       -0.5111243 0.2826511 0.21759571 0.3024581
0000e0 84 94 02 bf 29 dd b2 be 6e 41 5b 3e 45 49 07 3f
       -0.51007867 -0.34934357 0.21411678 0.52846175
0000f0 cc 45 b3 bd 2d 9c 79 bd 22 3d 0e 3f 7b df 09 be
       -0.08753547 -0.060939956 0.5556203 -0.13464157
000100 c4 e9 bd bd 73 4f e8 3e 5f da ce bd 16 b3 1a be
       -0.09273103 0.45373115 -0.10100245 -0.15107378
000110 7b f5 ee 3d b0 67 fb bd 4d 18 05 3e 0c d1 ad 3e
       0.116679154 -0.12275636 0.12997551 0.33948553
000120 d1 ab 83 3e 72 56 88 be 16 be 01 bf e5 29 c6 bd
       0.25717023 -0.26628453 -0.50680673 -0.096759595
000130 68 39 bc 3c c7 85 72 3e d1 bc 0e 3e e1 fb 29 3f
       0.022976592 0.23683845 0.13939215 0.6639996
000140 d6 11 09 bf cc fa a0 3e c1 ec f3 bd 6b 73 79 3e
       -0.5354284 0.31441343 -0.119103916 0.24360435
000150 04 51 4f bd 3b 46 46 be 2f 42 17 3e 19 b3 d0 be
       -0.050614372 -0.19362728 0.14771341 -0.4076164
000160 19 51 5e 3e 76 3f c4 3e 9e 9f 89 3f a4 98 c9 bc
       0.21710624 0.38329667 1.0751836 -0.024608918
000170 0a 93 00 3f 76 cd 03 3f 39 c5 c9 bd 7b ab 94 be
       0.50224364 0.51485384 -0.0985207 -0.2903708
000180 76 5b 09 3f 24 7b b5 bd 73 ed c7 3e fa fb c5 bc
       0.53655183 -0.08861378 0.39048347 -0.024168003
000190 e7 c2 3d be 31 d6 98 3d 82 df 54 3f 8a ed 33 bc
       -0.1853138 0.07462729 0.83153546 -0.010981927
0001a0 00 9b d7 be 47 ff af bc f4 35 85 bc ac c2 b4 3e
       -0.42110443 -0.02148403 -0.016261078 0.35304773
0001b0 b7 f0 5f 3c 85 7d f3 be 8d 25 34 be 07 15 93 bd
       0.013668231 -0.475567 -0.1759245 -0.07181745
0001c0 99 3a ee 3d 5d f5 7b 3e e8 9c f5 3e 8c 8e 9b 3e
       0.1163227 0.24605317 0.47971272 0.30382192
0001d0 0c de d5 be 67 01 28 3e d0 61 4e 3f 8c 61 a4 bc
       -0.4177097 0.16406785 0.80618 -0.020066045
0001e0 0c 60 5c be 95 c1 cb 3e 67 8e 89 3e 30 5f cd 3d
       -0.21521014 0.3979613 0.26866457 0.10027921
0001f0 82 ae db 3e ee 9d 08 3d 89 08 9d 3e 02 0a 19 3e
       0.42906576 0.03335374 0.30670574 0.14945224

mlp_encoder.lins.3.weight f4 [96, 128]
000000 e7 4b ba 3c ad 5c c6 bd ef 9d 86 be 1a 40 db 3e
       0.022741271 -0.09685645 -0.2629237 0.42822343
000010 97 6a c4 bd ab 63 61 bf 71 ef 7f 3d d4 e8 da bd
       -0.09590643 -0.88042706 0.06248421 -0.1068894
000020 29 25 1a be 3e e4 09 3f 35 9e a7 3d a3 a1 94 bc
       -0.15053238 0.53863895 0.081844725 -0.01814348
000030 bd ae b8 bf c3 99 f3 3d 25 5c 49 3e d8 1e 64 3d
       -1.4428326 0.11894562 0.19664057 0.055693477
000040 70 c4 95 bd 4b 93 c5 bd 23 8a f1 bd 13 b0 61 3e
       -0.07312858 -0.096472345 -0.117939256 0.22039823
000050 7a e6 c3 3c 59 ac 23 be 06 50 46 3d c2 4a 6a 3e
       0.02391361 -0.15983714 0.04841616 0.2288008
000060 5f 1b 03 bf ff 86 5e 3d bb f0 61 be bc 12 92 be
       -0.5121364 0.05432796 -0.22064488 -0.28529918
000070 04 0e b5 bf 84 6d 87 bc 1b 46 27 bd 38 c9 31 3c
       -1.4144902 -0.016531713 -0.040838342 0.010851197
000080 6e 2a 93 3e 41 c6 44 3c 93 20 c4 bc 74 6e 92 bc
       0.2874331 0.012010158 -0.023941314 -0.017874934
000090 27 95 f4 3c 4d 06 8f 3c bc d3 4b 3e 15 b5 3a 3d
       0.029856278 0.01745906 0.19904989 0.04558285
0000a0 bf 15 a1 be ea 9a 00 40 0c c5 7b bf 02 1f b4 bd
       -0.31461903 2.0094552 -0.98347545 -0.08794977
0000b0 2a ff da be e2 f6 ea 3d e6 9a b0 b9 86 ee 11 3c
       -0.427728 0.114728704 -0.00033684744 0.008906966
0000c0 46 89 1a 3e 56 74 43 3e 62 72 a9 bd 59 c4 28 bf
       0.15091428 0.19087347 -0.0827377 -0.659246
0000d0 dc bc 4e be a8 c7 88 bd 2f cc 83 3e 57 04 88 bc
       -0.20189232 -0.066787064 0.25741717 -0.016603632
0000e0 9c 72 dc bd 12 47 8c bd 8b 55 f3 bf 9f df 13 be
       -0.107640475 -0.06849493 -1.9010481 -0.14440773
0000f0 33 09 24 bf 5f c5 10 3e 10 05 d7 bd 4c fd cb bd
       -0.64076537 0.14137791 -0.104990125 -0.09960422
000100 1a 86 54 ba c7 b0 2d 3e 0e a4 95 bd cc 18 a3 be
       -0.0008107141 0.16961966 -0.073066816 -0.31854856
000110 6d 58 8c be 99 a9 bc 3d 2b 1e 6d 3d b3 1c 51 bd
       -0.27411214 0.09212036 0.0578901 -0.05105276
000120 5e 1c 0b 3e 10 71 03 bc 3d 2c 26 3e 9b 1c 9b 3e
       0.1358504 -0.008022562 0.16227813 0.30295262
000130 59 b7 fe be f1 54 58 3d 5b 57 13 3e 3e ab b5 3f
       -0.49749258 0.05281538 0.14388792 1.4192884
000140 3c 55 de bd d9 e3 fd bd d3 3e 61 3f 2e 7e 8c be
       -0.10856101 -0.12396974 0.8798649 -0.27440017
000150 30 cb be bc 02 4a 4f bf dd 01 f8 3d 78 d0 70 3e
       -0.023290247 -0.809723 0.121097304 0.23517025
000160 0b 36 0b 3e bb 0b b3 be 01 c9 de 3d d2 ee 92 bf
       0.13594835 -0.34969887 0.10878182 -1.1479132
000170 3f 08 09 bf 9b a7 cf 3d d0 fe 4c bc cc 89 15 bf
       -0.5352821 0.1013939 -0.012511924 -0.58413386
000180 15 5a 89 3f 0a 52 18 bc 23 b5 7d 3d 30 1c 2a bf
       1.0730616 -0.009296903 0.061940324 -0.6644926
000190 6d 85 c2 be f0 01 55 3c fd c8 dc bd ce d9 b4 bb
       -0.3799242 0.01300095 -0.10780523 -0.0055191284
0001a0 92 76 b8 3d 2a e2 55 3e de 9e f7 3e 8c 53 8c be
       0.090069905 0.20887056 0.48363394 -0.2740749
0001b0 06 b9 c2 3e be 2f 31 be b4 bb 72 bd b2 47 d3 3e
       0.38031787 -0.17303368 -0.05926104 0.41265637
0001c0 88 1e d9 be 74 60 c9 be c4 53 d6 3d 39 52 f2 3d
       -0.42406106 -0.393314 0.10465196 0.11832089
0001d0 66 7c ad bd aa 86 5c bd be c4 41 bd cd af 6c 3e
       -0.08470993 -0.053839363 -0.04730677 0.23113938
0001e0 5d 1f 26 be 1c 74 7d bd 02 98 e8 bd d7 6d c9 bd
       -0.16222902 -0.06187831 -0.11357118 -0.098354034
0001f0 a8 c0 95 bd b6 5b 15 3f 45 6e d6 3d 8d 31 b1 bd
       -0.07312137 0.58343065 0.10470251 -0.08652029
000200 26 73 bb 3d 30 b3 80 bd b5 6f 5f be 90 d3 04 3f
       0.09152822 -0.06284177 -0.21819957 0.5188532
000210 37 9d 9e bd 02 83 b6 be 6d ed 3f 3f c5 19 a7 be
       -0.0774483 -0.35646826 0.7497166 -0.32636848
000220 3a 1f 71 bd 8b 0c 64 bd 02 aa 22 bd d6 1f 27 bd
       -0.05886767 -0.055676024 -0.039712913 -0.040801845
000230 3e 6e 1b bf 86 8c 2d 3e 10 c0 07 3e 7a 90 b1 3d
       -0.6071509 0.16948137 0.1325686 0.08670135
000240 67 04 d0 3d 56 47 a2 bd 56 44 ca bd 85 41 9a 3d
       0.1015709 -0.079237625 -0.09876315 0.07532028
000250 a1 4b 3a 3d 24 3a 3b 3c 62 89 ba 3b 9c 82 3a 3d
       0.04548228 0.011427436 0.005692647 0.045534715
000260 6d aa c4 bd 36 44 05 3d 58 fe 7b bc 9d 0a bb 3e
       -0.09602819 0.032535754 -0.0153804645 0.36531535
000270 f6 64 0b be d4 ec 8e 3e 12 9c 4b 3d 11 bc 13 3d
       -0.13612732 0.2791506 0.049709387 0.036068026
000280 68 28 1e 3e 0c 5f 1a 3d ff 46 4f 3d 57 f4 e3 bd
       0.15445101 0.0376883 0.050604817 -0.111305885
000290 9f da c6 3a a3 39 d3 3c 8b 83 8a 3e 8e f8 84 3d
       0.0015171355 0.02578432 0.27053484 0.064927205
0002a0 36 57 e5 bd 8b 5e 1f 3f 5f 3f 92 be 4f 7d 9c 3c
       -0.11198275 0.62253636 -0.28563973 0.01910272
0002b0 b6 bd b5 bd eb ae 01 be 5a b5 64 3d da b2 c8 bb
       -0.08874075 -0.12664382 0.055837013 -0.0061248364
0002c0 e5 dc 41 3e 87 de a4 bd 4e aa 13 be 0e 0e 2c 3e
       0.18931921 -0.08050256 -0.14420435 0.16802236
0002d0 b2 bc 77 be a3 e6 86 bc 37 e7 22 3e f8 c2 8b bd
       -0.24193075 -0.016467398 0.15908514 -0.06824297
0002e0 9a 7a 30 be 3d 9a 83 3d 0a 99 54 bf 24 b6 61 bd
       -0.17234269 0.06425903 -0.8304602 -0.055105343
0002f0 e8 ad 38 bf 13 f1 0b be bc 0a 57 3d f4 58 0c bd
       -0.7214036 -0.13666181 0.05250047 -0.03426452
000300 d5 cc d3 be 25 94 d5 3d fe 72 6b 3d a1 45 03 be
       -0.41367212 0.10428647 0.057482712 -0.1281953
000310 e0 e6 92 be 72 b9 65 3d e0 15 bd 3d f4 19 2c bb
       -0.2869177 0.056085058 0.09232688 -0.0026260586
000320 63 8b 5a 3d ed 39 b3 bd 45 47 03 bd d0 70 be bb
       0.053355586 -0.08751283 -0.03205039 -0.005811788
000330 1c cd 6d be 8b 5c 53 bc 0e 7b 1a 3d 6a 9c 30 be
       -0.23222774 -0.012900482 0.03771501 -0.17247167
000340 11 25 e3 bb 22 44 62 3d b1 34 c3 3e 06 48 3e 3d
       -0.006931909 0.055240758 0.38126138 0.046455406
000350 9d 11 ad bc 3f 58 98 be c6 e9 60 3d c2 b4 22 3d
       -0.021126563 -0.29754826 0.054910444 0.039723165
000360 cb 6c c6 bc 48 66 bc bd 8e 69 c2 bd a2 5e 7f be
       -0.024221798 -0.09199196 -0.09492789 -0.24938443
000370 72 e0 87 be 66 43 c1 3d ce cd 58 bd 3a 96 01 bf
       -0.26538426 0.09436683 -0.052930646 -0.5061985
000380 a0 d7 f5 be 2a 2e c9 3c 01 aa 33 bb 70 54 0c bf
       -0.4801607 0.024558146 -0.0027414563 -0.5481634
000390 8f 89 c8 bc ab 2a 01 3d b0 ac fc 3d 48 91 d6 bd
       -0.024479656 0.031534832 0.12337625 -0.10476929
0003a0 71 9e 22 3d b1 b0 3c be bb 90 c4 3e 5c 45 53 be
       0.039701883 -0.18426777 0.3839167 -0.20631927
0003b0 e7 37 fd 3e 08 41 26 be c9 e7 92 bd ef c2 8f bc
       0.49456713 -0.16235745 -0.07173116 -0.017549006
0003c0 eb 2e 12 bf c0 6f 3d be 8b 02 f6 bc a4 b9 36 3d
       -0.5710284 -0.1849966 -0.03003051 0.044610634
0003d0 b7 cf 1d 3e 41 c7 c5 bb 6b f3 13 be 47 60 de 3d
       0.15411268 -0.006035716 -0.14448325 0.10858207
0003e0 1d 6c 7c 3e f7 67 a6 bd da 4d 57 bd d1 0a 82 bd
       0.24650617 -0.081252985 -0.05256448 -0.06349719
0003f0 b4 c1 2c 3d 6c a0 02 3f fe 2d 06 3c 5c ee 02 be
       0.042176917 0.51026034 0.008189676 -0.1278624

mlp_encoder.lins.3.bias f4 [96]
000000 f9 72 9d bf 2a 6a 6b bf 92 77 8b 3f 3b 36 9d bf
       -1.2300712 -0.9195887 1.0895865 -1.2282175
000010 62 36 59 bf 4b 6e 1e 3f 0b 64 7b bf cd 30 4a bf
       -0.84848607 0.61887044 -0.9819953 -0.78980714
000020 6e 59 6a bf 75 00 cd 3f e0 d2 5d bf b7 de 39 bf
       -0.9154271 1.6015764 -0.86649895 -0.7260546
000030 74 18 8b bf dc 15 1f bf 27 ae 87 bf d7 31 3b bf
       -1.0866838 -0.6214273 -1.0600022 -0.73122925
000040 77 01 e7 3d 3e c4 18 bf 36 19 78 bf da 10 82 be
       0.11279576 -0.5967444 -0.9691347 -0.25403482
000050 20 e8 10 bf c0 a3 2a bf 24 7f a3 bf 30 9c 39 be
       -0.56604195 -0.6665611 -1.2773175 -0.18125987
000060 1a 8b 5e bf 9c 0a 89 bf 4a 2f 83 bf 4b 09 5e 3f
       -0.86931 -1.0706363 -1.0248806 0.8673293
000070 17 67 27 3e 66 b6 00 c0 e9 ad c2 be 64 3d 81 be
       0.1634792 -2.0111327 -0.38023308 -0.2524215
000080 65 1d 0d bf 99 99 06 bf 9b 59 9c bf 46 a8 5a bf
       -0.5512298 -0.5257812 -1.2214845 -0.85413015
000090 2d 32 40 bf 12 33 a1 bf 67 2b 88 bf 7f e4 a0 bc
       -0.7507656 -1.259371 -1.0638245 -0.019640205
0000a0 29 b7 74 bf a8 5a 82 bf b8 b2 b0 bf f3 dc 60 bf
       -0.9559198 -1.0183916 -1.3804541 -0.8783714
0000b0 38 53 d2 be b5 f2 fe 3e 38 48 17 40 fc 09 02 bf
       -0.41079116 0.49794546 2.363783 -0.50796485
0000c0 71 bd 75 3f 16 27 30 bf 48 c2 2f bf e3 c5 9f bf
       0.9599219 -0.6880964 -0.68655825 -1.2482265
0000d0 09 e1 7c 3f 2e 55 b7 bf c4 62 ec be 94 85 38 bf
       0.98780876 -1.432287 -0.46169102 -0.72078824
0000e0 b4 fa 9b 3f 71 25 21 3f fc 81 49 3f 6d b8 59 3f
       1.2185884 0.62947756 0.78713965 0.85047036
0000f0 a8 b9 62 3f 34 05 21 bf a8 55 16 3f 22 17 3b bd
       0.8856454 -0.62898564 0.5872445 -0.045676358
000100 8f aa 36 bf 5c f0 9d 3f 7a 32 9e be e9 48 b8 3f
       -0.71354 1.2338977 -0.30897886 1.439725
000110 64 80 34 bf 26 f4 3c bf b1 cc db bf 93 c7 50 3f
       -0.7050841 -0.7381004 -1.7171842 0.81554526
000120 39 ed 19 bf 24 9f 69 3f 29 02 2e bf 56 19 a2 bf
       -0.601276 0.91258454 -0.67972046 -1.2663982
000130 c3 07 2b 3f 39 30 60 3f 01 0d 36 3f ad fc 97 3f
       0.6680872 0.8757358 0.7111359 1.1873986
000140 85 50 06 bf 81 3a 83 3f c4 11 23 bf 34 4b 4b 3e
       -0.52466613 1.0252229 -0.63698983 0.19852906
000150 78 82 83 3f 1e 72 0f bf 81 46 0a bf c0 c6 01 3f
       1.0274191 -0.56033504 -0.5401383 0.50693893
000160 74 57 46 bf e8 11 28 3f 56 a7 39 be 8f 0d a0 be
       -0.7747719 0.6565232 -0.1813024 -0.31260344
000170 74 02 a7 3f 7d 01 21 bf c2 35 09 3f 52 26 2d 3f
       1.3047624 -0.62892896 0.5359765 0.676366

mlp_encoder.norms.0.module.weight f4 [128]
000000 af 55 7f 3f 39 1e a7 3f d6 9e 98 3f a5 fa 31 3f
       0.9974012 1.3056098 1.1923473 0.6952308
000010 78 81 67 3f ee d9 73 3f 35 24 95 3f 04 93 7e 3f
       0.9043193 0.9525441 1.1651675 0.9944308
000020 02 6f 98 3f 0e ba 83 3f 30 c3 88 3f 22 42 78 3f
       1.1908877 1.0291154 1.0684566 0.9697591
000030 b9 ab 8f 3f d7 a0 45 3f e9 13 4f 3f d6 05 89 3f
       1.122428 0.7719855 0.80889755 1.0704906
000040 48 98 7d 3f f8 b8 94 3f a9 49 7f 3f f6 59 6b 3f
       0.9906049 1.1618948 0.9972177 0.91934144
000050 3e 21 3f 3f 78 13 66 3f e1 11 25 3f bf 4c 5b 3f
       0.746601 0.89873457 0.64480406 0.8566398
000060 b8 c8 8c 3f 25 b1 54 3f bd ca 61 3f 78 93 7c 3f
       1.0998755 0.830828 0.8819998 0.9866252
000070 dd 82 8a 3f d0 b4 89 3f ea 2f 99 3f 26 72 8a 3f
       1.0821186 1.0758305 1.1967747 1.0816085
000080 c0 73 72 3f 34 7e 7e 3f 5f 64 66 3f 26 2f 79 3f
       0.9470787 0.9941132 0.89996904 0.9733757
000090 40 74 63 3f 18 bf 6f 3f 32 b0 80 3f 80 9f 98 3f
       0.8884926 0.9365096 1.005377 1.1923676
0000a0 22 8a 76 3f 47 b6 93 3f 76 db 91 3f 6f 85 6e 3f
       0.96304524 1.1540002 1.1395099 0.93172354
0000b0 03 96 82 3f 50 f7 7f 3f 6d 8d 8c 3f 18 25 60 3f
       1.020203 0.99986744 1.098066 0.875566
0000c0 1f 4d 65 3f c0 c8 7a 3f 9d e0 74 3f ea 6f 3d 3f
       0.895708 0.9796257 0.9565523 0.7399889
0000d0 05 38 86 3f 81 5e 77 3f bb 53 89 3f 5a c4 40 3f
       1.0485846 0.96628577 1.0728678 0.7529961
0000e0 d5 cb 8b 3f 64 8c 90 3f 41 29 90 3f fa 30 6d 3f
       1.092158 1.1292844 1.126259 0.9265286
0000f0 ff 1e 5f 3f 87 de 64 3f e7 16 75 3f a4 e8 4d 3f
       0.8715667 0.8940205 0.9573807 0.80433106
000100 91 bd 8e 3f 7c 02 86 3f 7c 95 5c 3f 5e 4d 5b 3f
       1.1151601 1.0469508 0.86165595 0.8566493
000110 d9 19 87 3f be 06 65 3f ae 3d c2 3f 94 2c 6f 3f
       1.0554763 0.8946341 1.5175073 0.93427396
000120 4a 09 62 3f 01 6d 7a 3f c4 b6 98 3f ba 21 57 3f
       0.88295424 0.97822577 1.1930776 0.8403584
000130 87 b2 8a 3f e8 28 8d 3f d1 17 80 3f e8 1e 86 3f
       1.0835732 1.1028109 1.0007268 1.0478182
000140 9f 32 84 3f 2f fe 52 3f ba 08 83 3f 47 cc 79 3f
       1.0327948 0.82419103 1.0237038 0.9757733
000150 03 fd 52 3f bd bf 77 3f c5 c3 71 3f 68 ee 80 3f
       0.82417315 0.96776944 0.94439346 1.0072756
000160 42 ac 65 3f ab 46 67 3f 55 14 88 3f da 7f 4d 3f
       0.8971597 0.90342206 1.0631205 0.8027321
000170 74 f9 6c 3f a7 cb 58 3f c2 dd 6b 3f 0f 1f 6f 3f
       0.92568135 0.8468575 0.9213525 0.93406767
000180 5d de 79 3f 53 b3 48 3f 9c 4f 81 3f 1e 30 6c 3f
       0.97604924 0.7839863 1.010242 0.9226092
000190 c4 16 53 3f 9c ad 48 3f 59 7c 7f 3f 49 f2 77 3f
       0.8245661 0.78389907 0.99799114 0.9685407
0001a0 36 d5 72 3f b1 05 77 3f 93 45 93 3f 67 87 33 3f
       0.94856584 0.9649306 1.1505607 0.7012848
0001b0 41 14 6a 3f 37 2a 83 3f 0c cc 88 3f 85 52 6e 3f
       0.91437155 1.0247258 1.068727 0.93094665
0001c0 64 4d 4f 3f 79 86 60 3f 43 9c 6c 3f 77 8f 73 3f
       0.80977464 0.8770519 0.92425936 0.95140785
0001d0 b9 44 55 3f cc d0 4c 3f ef c9 7c 3f de f9 54 3f
       0.8330799 0.800061 0.98745626 0.8319377
0001e0 42 d1 89 3f 9c 5c 8a 3f 38 2a 5d 3f e3 9e 52 3f
       1.0766985 1.0809512 0.86392546 0.8227369
0001f0 1c 04 6f 3f 5f f3 83 3f a3 7c 8b 3f 8b fd 82 3f
       0.93365645 1.0308646 1.0897411 1.0233625

mlp_encoder.norms.0.module.bias f4 [128]
000000 09 3d b7 be d1 a5 eb be d3 b5 ba be 28 95 15 3c
       -0.35788754 -0.46024945 -0.36466846 0.0091298
000010 71 d9 0d bf 8b d2 20 bf 0e 7b 1b be 4d 12 06 be
       -0.55409914 -0.62821263 -0.1518366 -0.13092919
000020 04 77 51 bf 13 e5 82 bd 82 ea 02 bf 00 11 fe bd
       -0.8182223 -0.06391349 -0.5113908 -0.12405586
000030 8f 60 08 bf 21 33 9d be da 19 23 bf 70 83 1f bf
       -0.53272337 -0.3070307 -0.6371132 -0.6230993
000040 e7 ab 02 bf c8 33 67 bd e9 f8 44 bf 70 53 db be
       -0.5104355 -0.056445867 -0.76942307 -0.42837095
000050 f0 9b e1 be 19 ce 07 bf ac bc 52 be 5d 8a 0e bf
       -0.44064283 -0.53048855 -0.20579785 -0.55679876
000060 9f e3 ff be ff c4 a2 be e3 c9 3a bf 33 4c 2d 3e
       -0.4997835 -0.3179092 -0.72964305 0.16923599
000070 b4 a9 7a bf 0c 75 98 be 9b b6 77 be f6 c7 30 bf
       -0.97915196 -0.297768 -0.24190752 -0.69055116
000080 ec a7 cd be a8 4b 67 be 31 7e 06 bf c5 b8 82 bf
       -0.40167177 -0.22587454 -0.525363 -1.0212637
000090 23 db 08 bf b4 6c f1 be 5b 72 62 bf d1 0e 07 bf
       -0.53459376 -0.47153246 -0.8845574 -0.52756983
0000a0 73 ca 09 3e fc 03 74 bf 42 e3 d4 be 43 4b a7 be
       0.13456134 -0.9531858 -0.41579634 -0.32674608
0000b0 09 e3 02 be 3c ab 35 bf 46 1e 38 3d e0 3e c8 bd
       -0.1278192 -0.7096441 0.044950746 -0.097776175
0000c0 aa e8 99 be 45 58 a6 be 0d 05 52 bd a4 67 1e bf
       -0.3006032 -0.3248922 -0.051274348 -0.61876893
0000d0 61 e6 0e bf 34 cc 04 bf 69 c5 51 be 3d 30 0a be
       -0.5582028 -0.5187409 -0.20485462 -0.13494964
0000e0 49 32 f3 be a3 d3 99 be 0f b6 43 bf 00 3c a2 be
       -0.47499302 -0.30044279 -0.76449674 -0.316864
0000f0 46 ee d6 be c6 92 08 bf a9 59 5d bf 19 24 04 bf
       -0.41978663 -0.5334896 -0.86464936 -0.5161758
000100 2b 8b 72 bf 44 3a ed bd cd 4e 01 bf 82 ce de be
       -0.94743603 -0.11583379 -0.50510865 -0.43516928
000110 12 03 2d bf 80 21 29 bf 07 20 c0 be 6d 3c 5d bf
       -0.6758281 -0.6606674 -0.37524435 -0.8642033
000120 97 c0 05 bd de 4f 91 be 1f d7 01 be f4 39 96 3e
       -0.03265437 -0.28381246 -0.12679718 0.2934109
000130 f9 18 d4 be 21 2c 78 be a5 70 62 bf b2 19 da bd
       -0.41425303 -0.24235584 -0.8845313 -0.10649432
000140 c3 76 71 be 82 8d 3f be 87 89 25 3e 9e be a2 be
       -0.2358046 -0.18706325 0.16165744 -0.31786054
000150 55 e0 cc be 02 67 3e bf c6 c6 e6 bc 5b 37 38 bf
       -0.40014902 -0.7437593 -0.028170954 -0.71959466
000160 2f aa a9 be b2 70 22 bd 18 f0 29 bf d5 26 55 3e
       -0.33137652 -0.039658256 -0.6638198 0.20815594
000170 c4 91 2d bf 5a 4e 7a 3e 90 f8 9a be 45 85 1d bf
       -0.67800546 0.24443951 -0.30267763 -0.6153148
000180 13 6e 2b 3e cc 5e dc be ba 96 dc be 81 e8 02 bf
       0.16741209 -0.43041074 -0.43083745 -0.5113602
000190 cc ca d4 be 16 3b 29 bf d3 49 82 bf d7 0c d1 be
       -0.41560972 -0.66105783 -1.0178779 -0.4083011
0001a0 a4 d1 15 bf 4e ba 0b bf 42 84 8c be 6f 06 10 be
       -0.5852301 -0.54581153 -0.27444655 -0.14064954
0001b0 f8 47 7d bf d0 24 35 bf 09 78 4a bf 3b 9c 10 be
       -0.9893794 -0.70759296 -0.7908941 -0.14122097
0001c0 e4 00 dd be f1 7a 2e bf e5 60 27 bf 21 75 e6 be
       -0.43164742 -0.68156344 -0.65382224 -0.45011237
0001d0 c9 8c 56 be 43 4b fb be a7 48 51 bf 81 87 39 3e
       -0.20952143 -0.49080858 -0.81751484 0.18118097
0001e0 5e d9 ef be e0 94 40 bf ae 4e 11 3e c6 ef 36 bf
       -0.46845526 -0.75227165 0.1419017 -0.71459615
0001f0 8b 5f 08 bf 92 41 81 bf bd ed a1 be 9e 5b 28 3d
       -0.53270787 -1.0098135 -0.31626692 0.041102998
