runs/StudentModel_Baseline_01122201/student_best_rmse.pth (torch, 361087 bytes, 47 tensors)

discrete_embedding.embedding_layers.0.weight f4 [7, 6]
0	0x3ea4d85f	0.32196328
1	0x3f0ce8de	0.5504283
2	0xbd9d0bc7	-0.07668262
3	0xbec524ca	-0.3850463
4	0x3e2106d6	0.15725264
5	0xbd93ae1c	-0.07210943
6	0xbeebcf90	-0.46056795
7	0x3c2cb8f5	0.010542144
8	0x3ed78891	0.4209638
9	0xbe05fdc3	-0.13085084
10	0x3f46c9fb	0.7765195
11	0x3eb5582e	0.35418838
12	0x3df81655	0.121136345
13	0x3da6359f	0.08115696
14	0x3d4868cd	0.04892807
15	0xbd2c6fdb	-0.04209886
16	0xbe8e03b0	-0.27737188
17	0x3dd23fb7	0.10266059
18	0x3d82ad68	0.06380731
19	0xbeb0cf69	-0.3453324
20	0x3e68dab6	0.22739682
21	0xbebb07bb	-0.36529335
22	0x3eeb06b3	0.4590355
23	0x3e7f3b7a	0.24925032
24	0x3e64987f	0.22323798
25	0x3bfddc11	0.007747181
26	0xbec17b29	-0.37789276
27	0x3d57707b	0.052597504
28	0x3e58c52f	0.2116897
29	0x3ee3a597	0.44462273
30	0xbe0329cc	-0.12808913
31	0xbe26d61b	-0.16292612
32	0xbd8538e9	-0.065049954
33	0xbed6f52e	-0.41983932
34	0x3e2d7513	0.16939192
35	0x3f0e1f34	0.5551636
36	0xbe18dd28	-0.14928114
37	0xbe6cd479	-0.23127927
38	0xbec41f8b	-0.38305315
39	0xbe3c14a9	-0.18367256
40	0x3e6ef14b	0.23334233
41	0x3e15d759	0.1463293

discrete_embedding.embedding_layers.1.weight f4 [2, 1]
0	0xbf14d437	-0.58136314
1	0xbc0daeba	-0.008647615

discrete_embedding.embedding_layers.2.weight f4 [2, 1]
0	0x3ea67f2e	0.32518905
1	0xbe9a660b	-0.30155978

discrete_embedding.embedding_layers.3.weight f4 [3, 2]
0	0xbf1128ed	-0.5670307
1	0xbeaf3d24	-0.34226334
2	0xbc40ea81	-0.01177466
3	0x3ecff7bc	0.40618694
4	0x3efc2a8d	0.49251214
5	0xbea20406	-0.31643695

mlp_encoder.lins.0.weight f4 [128, 14]
0	0xbf026aeb	-0.50944394
1	0x3cf48d2f	0.029852478
2	0x3da24345	0.07922987
3	0xbfbd33dd	-1.4781452
4	0xbe24ae11	-0.16082026
5	0x3e8a17ff	0.26971433
6	0x3d8aea0f	0.067829244
7	0x3ee5ef58	0.44909167
8	0x3e6740fd	0.22583385
9	0x3dc65c17	0.096855335
10	0x3e655c7a	0.22398558
11	0x3debcc41	0.11513568
12	0x3e817238	0.25282454
13	0x3e8170a2	0.25281245
14	0x3ee8d37c	0.4547385
15	0x3d1a804c	0.03772001
16	0xbf8b8b17	-1.0901822
17	0xbe05a360	-0.13050604
18	0xbeb7f26d	-0.35927144
19	0x3dba9e03	0.091121696
20	0x3e32ff00	0.17480087
21	0xbe523cea	-0.2053105
22	0x3e8dc0b5	0.27686086
23	0x3f09ad30	0.5377989
24	0xbf042706	-0.51622045
25	0xbe5029d0	-0.2032845
26	0xbc3f3e89	-0.011672624
27	0xbdc15b93	-0.094412945
28	0xbf63b45a	-0.8894707
29	0x3f5f5a39	0.87247044
30	0x3f2f8382	0.6856004
31	0xbbd23940	-0.006415516
32	0x3e3c09f4	0.18363172
33	0x3efb470d	0.49077645
34	0xbda93eee	-0.08263956
35	0xbe3996e9	-0.18123974
36	0xbe58f0a4	-0.21185547
37	0xbd88bfde	-0.06677221
38	0xbe81c7e6	-0.25347823
39	0xbd61d11a	-0.055131055
40	0xbd53dee3	-0.051726233
41	0xbed29781	-0.41131213
42	0xbe8043a4	-0.25051606
43	0xbb24f7bf	-0.0025172082
44	0xbf483419	-0.78204495
45	0x3ea8f125	0.3299648
46	0xbe4aa675	-0.19790061
47	0x3dcbcbaf	0.09950959
48	0x3ed98ed1	0.42491773
49	0xbca6ed5d	-0.020376856
50	0x3f096a40	0.5367775
51	0x3f010dd9	0.50411755
52	0x3f1d4ba5	0.6144355
53	0x3ef1b823	0.47210798
54	0x3eb0631b	0.3445061
55	0x3ea7c473	0.32767066
56	0x3f42fa52	0.7616321
57	0xbf880798	-1.0627317
58	0xbd19ca76	-0.037546597
59	0x3db3fee4	0.08788851
60	0x3e740a2e	0.23832008
61	0x3e17906c	0.14801186
62	0xbee22555	-0.44169107
63	0xbeebfa08	-0.46089196
64	0xbe05d8e3	-0.13071017
65	0x3e625fc0	0.22106838
66	0x3c94650c	0.01811459
67	0x3e5cde9a	0.21569291
68	0xbe4db0f8	-0.2008704
69	0x3dbe1413	0.092811726
70	0xbeac23ff	-0.33621213
71	0xbda499fa	-0.08037181
72	0x3e0b9bb0	0.13633609
73	0x3f503d67	0.8134369
74	0xbef9ca5a	-0.48787194
75	0x3e8c41cb	0.27393946
76	0x3e820b78	0.25399375
77	0xbd378a5e	-0.04480969
78	0x3d179a03	0.03701211
79	0x3eaab720	0.33342838
80	0xbe76195e	-0.24033114
81	0xbf3e540a	-0.74346983
82	0xbe2a0592	-0.16603687
83	0x3e1d14f0	0.15340018
84	0xbe8ba2e4	-0.27272713
85	0x3e78a775	0.2428263
86	0xbdecf1b8	-0.11569542
87	0xbfca439a	-1.580188
88	0x3df45eae	0.11932121
89	0xbd97d09f	-0.07412838
90	0xbe8cacad	-0.2747549
91	0x3d7a30c2	0.061081655
92	0x3d5d41f2	0.05401797
93	0xbe15a151	-0.14612319
94	0x3d3df1de	0.04637324
95	0xbcaa38ac	-0.020778976
96	0x3e8429d9	0.25813177
97	0x3e61e6fa	0.22060767
98	0xbf61f41a	-0.88263094
99	0xbd517411	-0.05113608
100	0x3f64fb07	0.8944554
101	0x3d76a96e	0.060220174
102	0x3e0419a3	0.12900405
103	0x3ea59659	0.3234127
104	0xbea8f59c	-0.32999885
105	0x3e2cb7c7	0.1686698
106	0xbe0f9693	-0.14022283
107	0xbca6b37c	-0.020349257
108	0x3edc14d4	0.4298464
109	0xbe3a85d5	-0.18215115
110	0x3ef17693	0.47160777
111	0x3ec5ee42	0.3865834
112	0xbfa2e9f9	-1.2727653
113	0x3f114315	0.56742984
114	0x3ebfb60c	0.37443578
115	0x3cc628f4	0.02418945
116	0xbf055929	-0.5208917
117	0xbe17c0b8	-0.1481961
118	0xbf27bc34	-0.6552155
119	0x3e43ee1b	0.19133799
120	0xbe87ee0e	-0.2654881
121	0xbdcb0e72	-0.099148646
122	0x3c95fe04	0.0183096
123	0x3df46c2f	0.11934697
124	0xbd2acf82	-0.0417018
125	0x3e0baf67	0.1364113
126	0xbf8fe5e6	-1.1242034
127	0x3f2dc104	0.67872643
128	0x3eb5637c	0.35427463
129	0xbe195f0f	-0.14977668
130	0xbe9e21bc	-0.30885112
131	0x3ed0115a	0.40638238
132	0xbd6a7cf6	-0.05724808
133	0xbd7371b1	-0.059434596
134	0xbeb42eb8	-0.35191894
135	0x3e035887	0.12826739
136	0xbf2abf13	-0.66697806
137	0xbe5cfe9e	-0.21581504
138	0xbe6e056c	-0.23244256
139	0xbec02b09	-0.37532833
140	0xbdfc9c12	-0.123344555
141	0x3e121fc2	0.14269927
142	0x3efe5452	0.49673706
143	0x3e4b2d4c	0.19841498
144	0xbdd232df	-0.10263609
145	0x3e12c48a	0.14332786
146	0x3ecd53bb	0.40102944
147	0x3de4b6b2	0.11167659
148	0xbec43f88	-0.3832972
149	0x3e537552	0.20650223
150	0x3ee6f56e	0.45109123
151	0x3f33c735	0.7022584
152	0x3eb9aea8	0.36266065
153	0xbf0606d2	-0.52354157
154	0x3ea1500b	0.3150638
155	0x3f739cee	0.9516133
156	0xbf3f6be0	-0.7477398
157	0xbed5b57b	-0.4174002
158	0x3e34c7c3	0.17654328
159	0xbd50d4e7	-0.05098429
160	0x3e3f6fa1	0.18694927
161	0xbf3f5cd3	-0.74751014
162	0x3ebe112c	0.37122476
163	0xbd509c9e	-0.05093061
164	0xbdadaaf9	-0.08479876
165	0xbd981303	-0.07425501
166	0x3ec34017	0.38134834
167	0x3e6deb5a	0.23234311
168	0xbf253dbf	-0.6454734
169	0x3f1ebe2b	0.62008923
170	0x3e663aad	0.2248332
171	0xbf892166	-1.0713317
172	0x3e6a00eb	0.22851913
173	0xbedf8494	-0.43655837
174	0x3c69f397	0.014279268
175	0xbede08a1	-0.43365958
176	0xbdea563d	-0.1144223
177	0x3e8ca3b5	0.2746865
178	0x3ec1f37d	0.3788108
179	0x3e10d34a	0.141431
180	0x3e8750f7	0.2642896
181	0xbe739f10	-0.23791146
182	0x3e3bd602	0.18343356
183	0xbefc7668	-0.49309087
184	0x3e73138c	0.23737925
185	0x3cd55ccb	0.026045224
186	0x3e22639b	0.15858309
187	0xbc606ec4	-0.013698284
188	0xbcb40fe0	-0.021980226
189	0xbca47a88	-0.020077959
190	0xbe9cd732	-0.3063293
191	0xbe4c031c	-0.19923061
192	0x3f5735ae	0.84066284
193	0x3f50ef6c	0.8161533
194	0x3d0532fb	0.032519322
195	0x3e231d7e	0.15929219
196	0xbc04c5cc	-0.008103799
197	0x3e65b05a	0.22430554
198	0xbf2c2ca9	-0.67255646
199	0x3f0b621d	0.54446584
200	0x3daf40c1	0.08557273
201	0x3cf78acb	0.030217549
202	0x3f003b0c	0.500901
203	0xbe8d801e	-0.27636808
204	0x3f187974	0.5956032
205	0xbeac19a5	-0.33613315
206	0xbe8dc831	-0.27691796
207	0xbecd6920	-0.40119267
208	0xbebdf686	-0.37102145
209	0x3ea2ff95	0.3183562
210	0xbf007091	-0.5017176
211	0xbe3d0269	-0.1845795
212	0x3eef0dec	0.4669031
213	0xbf261f42	-0.64891446
214	0x3ee3126c	0.44349992
215	0xbd1a5ea3	-0.03768791
216	0xbe8d6f65	-0.2762405
217	0x3d5d265a	0.053991653
218	0xbb0b7a40	-0.0021282583
219	0x3f447497	0.767404
220	0x3eeaf6e9	0.45891502
221	0xbee667ef	-0.4500117
222	0x3e1aa099	0.15100326
223	0x3e4af1d3	0.19818811
224	0xbf08f6ae	-0.53501403
225	0x3e983051	0.29724362
226	0xbf723335	-0.94609386
227	0x3d9c128d	0.07620726
228	0x3f192d31	0.5983458
229	0xbf456588	-0.7710805
230	0x3d62af54	0.055342987
231	0xbead6e2d	-0.3387312
232	0x3f0154da	0.505201
233	0x3eb2bf54	0.34911597
234	0xbf1b62e1	-0.6069775
235	0xbe282c90	-0.16423249
236	0x3ee8abfc	0.45443714
237	0xbe040cd6	-0.12895522
238	0xbf07d399	-0.5305725
239	0x3f00908e	0.5022057
240	0xbf33f7fc	-0.7030027
241	0xbf161c24	-0.5863669
242	0x3bbd57cd	0.005778289
243	0xbd14a2b8	-0.036287993
244	0x3f012d8b	0.5046012
245	0xbe1179d4	-0.1420663
246	0x3ea678b8	0.32513976
247	0x3e0d91b5	0.13825114
248	0x3e3c8a29	0.18412079
249	0xbceb7c9b	-0.02874594
250	0x3e96759b	0.293866
251	0x3e7a4e30	0.24443889
252	0xbf04c13e	-0.51857364
253	0xbf79ce25	-0.97580177
254	0x3f4127e8	0.7545152
255	0x3e2cb39d	0.16865392

mlp_encoder.lins.0.bias f4 [128]
0	0x3ca51b42	0.0201546
1	0xbf1e1715	-0.6175397
2	0xbe484fcd	-0.19561692
3	0x3dedaf46	0.116056964
4	0x3e080136	0.13281712
5	0x3cab09d9	0.02087872
6	0x3f28a648	0.65878725
7	0x3e2ba0c0	0.1676054
8	0xbeb396ad	-0.35075894
9	0x3ec15442	0.37759596
10	0xbe9101d0	-0.28321695
11	0xbe0a4133	-0.13501434
12	0x3ec004c9	0.3750365
13	0x3f3dd6c3	0.74155825
14	0x3e971b35	0.29512945
15	0x3e4373ec	0.1908719
16	0x3e71c290	0.23609376
17	0xbe8de6d1	-0.2771516
18	0xbd6d4efb	-0.05793665
19	0xbf47ab5a	-0.77995837
20	0xbc27690b	-0.010217915
21	0xbe03483b	-0.12820522
22	0xbf373ae1	-0.7157422
23	0xbf00177b	-0.5003583
24	0x3e8842de	0.26613516
25	0xbe061c7f	-0.13096808
26	0xbe01e06a	-0.12683263
27	0xbeb05ecc	-0.34447324
28	0xbe26c0f7	-0.16284548
29	0x3eba868e	0.36430782
30	0x3dfa8f76	0.12234394
31	0xbf0ddda0	-0.554163
32	0x3f02c3d7	0.5108008
33	0x3eb10174	0.3457142
34	0x3e6732db	0.22577994
35	0xbf058c5a	-0.52167284
36	0xbf8e0bd8	-1.1097364
37	0x3fa6b2c0	1.30233
38	0x3edb0b74	0.42782176
39	0x3f89afd2	1.0756781
40	0x3eadc6f7	0.3394086
41	0x3e380575	0.17970832
42	0xbd99b561	-0.075052984
43	0x3f17beba	0.592754
44	0x3efb9cf6	0.4914319
45	0x3e769bb7	0.24082838
46	0xbf4a5b72	-0.79045784
47	0x3e95233f	0.29128453
48	0xbf3c306c	-0.73511386
49	0x3e0860c5	0.13318165
50	0x3f0bc94d	0.54604036
51	0x3eca4af1	0.395103
52	0x3e7b923e	0.24567506
53	0x3e317ef9	0.17333592
54	0x3ee5b8da	0.44867593
55	0x3f13ecb4	0.57783055
56	0x3f1720ae	0.5903424
57	0x3e90e68a	0.28300887
58	0xbe235c50	-0.15953183
59	0xbef392bd	-0.4757289
60	0x3e6ae629	0.22939362
61	0xbf0d68cb	-0.55238026
62	0xbf02a8bc	-0.5103872
63	0xbf01e33f	-0.50737375
64	0xbed08068	-0.40722966
65	0x3d40156e	0.046895437
66	0x3d4640a7	0.0484015
67	0xbf2392c4	-0.6389582
68	0xbe912934	-0.28351748
69	0x3dfa5856	0.1222388
70	0x3e9a595e	0.30146307
71	0x3e55d9d7	0.2088388
72	0x3e4eb75c	0.20187134
73	0xbeef7234	-0.46766818
74	0x3ecb503b	0.39709648
75	0x3f49ee3f	0.7887916
76	0x3e7c9cf2	0.24669245
77	0xbf17ab94	-0.5924618
78	0x3e54cc9e	0.2078118
79	0xbef5ff54	-0.48046362
80	0xbf4a21d3	-0.7895786
81	0xbe572f0f	-0.21014045
82	0xbf43ab2a	-0.7643305
83	0xbeae82c3	-0.34084138
84	0x3e00d31f	0.12580536
85	0xbd8d4f5a	-0.06899901
86	0x3e934009	0.28759792
87	0x3db81669	0.089886494
88	0x3eacc1c6	0.33741587
89	0x3f1ee6d2	0.62070954
90	0x3dc5bb5c	0.096548766
91	0x3dbec35e	0.09314607
92	0xbecc682b	-0.39923224
93	0xbe892123	-0.26783094
94	0x3f1ba175	0.6079324
95	0x3e855133	0.26038513
96	0x3f3b7963	0.73232096
97	0x3ddad6db	0.10685512
98	0x3f6d44c3	0.9268305
99	0x3f0ccd82	0.5500108
100	0x3ee83c12	0.4535833
101	0xbe29e76c	-0.16592187
102	0x3e7bd827	0.24594174
103	0xbecbf258	-0.3983333
104	0xbdc86888	-0.09785563
105	0xbd7d3de6	-0.06182661
106	0xbe5982da	-0.21241322
107	0x3ebba3ee	0.36648506
108	0x3f01ac19	0.50653225
109	0xbed1878f	-0.40923735
110	0x3e07b0d8	0.13251054
111	0xbef69c90	-0.48166323
112	0x3f05cf13	0.52269095
113	0x3fbd22b6	1.4776218
114	0xbe3c2595	-0.18373711
115	0xbe1739d8	-0.1476816
116	0xbf079721	-0.5296498
117	0x3df20270	0.11816871
118	0xbe303f58	-0.17211664
119	0xbe8d1fc9	-0.27563313
120	0x3e859086	0.26086825
121	0x3f5cfabe	0.863201
122	0xbf2c1abe	-0.67228305
123	0x3e994433	0.29934844
124	0xbefa7a71	-0.4892154
125	0x3f05dd8b	0.5229117
126	0xbf56d0db	-0.8391244
127	0xbe557900	-0.20846939

mlp_encoder.lins.1.weight f4 [128, 128]
0	0xbf09ffb0	-0.53905773
1	0xbe8fc590	-0.28080416
2	0xbef80611	-0.48442128
3	0x3e20e2cd	0.15711518
4	0x3ee4282b	0.44561896
5	0x3c08cead	0.008350057
6	0xbf070c79	-0.52753407
7	0xbe26a116	-0.16272387
8	0xbe92b5b0	-0.28654242
9	0xbeb200cd	-0.34766236
10	0xbe845fd0	-0.2585435
11	0xbf037c17	-0.5136122
12	0xbd6ee999	-0.058328245
13	0x3eab8d27	0.33506128
14	0x3e84a5db	0.25907788
15	0x3c132324	0.008980546
16	0xbe86e880	-0.26349258
17	0xbf0750f1	-0.5285788
18	0x3ebf24e6	0.3733284
19	0x3e54867f	0.20754431
20	0x3e00e62b	0.12587802
21	0x3edd33ff	0.43203732
22	0xbd5677e1	-0.05236042
23	0x3e58caa8	0.21171057
24	0xbefc7abb	-0.49312386
25	0x3d85c914	0.06532493
26	0x3de16537	0.11005633
27	0xbfa82e84	-1.3139195
28	0x3e7066ae	0.23476669
29	0x3d83b866	0.064316556
30	0xbe71f48c	-0.23628443
31	0x3e03d4bc	0.1287412
32	0x3e17a8b7	0.14810453
33	0xbe5dd9e0	-0.21665144
34	0xbc96f2b4	-0.018426277
35	0x3e94aa68	0.2903626
36	0xbb59cad3	-0.0033232465
37	0x3f205347	0.6262707
38	0xbe04da0b	-0.12973802
39	0xbe1fa410	-0.15589929
40	0xbc0d3ae7	-0.00862
41	0x3d0c00af	0.03418034
42	0xbf19dd00	-0.60102844
43	0xbe41f458	-0.18940866
44	0xbe99dd12	-0.30051476
45	0x3e21dbd5	0.15806516
46	0xbeb9c575	-0.3628346
47	0xbe870b13	-0.26375636
48	0x3b5cfdb2	0.003372055
49	0x3e35a9a2	0.17740491
50	0xbebb6fc1	-0.366087
51	0x3d4f51bd	0.05061506
52	0xbdd51430	-0.10404241
53	0xbe4d14ad	-0.20027418
54	0xbf1e7ce9	-0.6190935
55	0x3df421ba	0.11920495
56	0x3e84d6ff	0.2594528
57	0x3df0db31	0.117605574
58	0x3e0309f7	0.1279677
59	0x3dc5a29b	0.09650155
60	0x3ee02f80	0.4378624
61	0xbe7b4558	-0.24538171
62	0x3d9ae4ca	0.07563169
63	0x3ce9c770	0.028537482
64	0xbe649e39	-0.22325982
65	0xbef09228	-0.46986508
66	0x3d8eb47e	0.0696802
67	0x3e707ba8	0.23484671
68	0x3e6925c5	0.22768314
69	0x3d620679	0.055181954
70	0xbef27ea9	-0.4736226
71	0x3ec340f1	0.38135484
72	0x3cdbe66a	0.026843268
73	0xbea9e907	-0.33185598
74	0xbe77a61f	-0.24184464
75	0xbf8ce7b3	-1.1008209
76	0xbea1fcaf	-0.31638095
77	0x3c59e736	0.013299754
78	0xbe461d6e	-0.19347164
79	0xbe2bffeb	-0.16796844
80	0xbe349c7f	-0.17637824
81	0xbccf973b	-0.025340667
82	0x3e3b4e88	0.18291676
83	0xbe17b2a7	-0.14814244
84	0x3f02700f	0.5095224
85	0x3e646e6b	0.22307746
86	0xbe01a030	-0.12658763
87	0x3e018760	0.12649298
88	0xbc27d00c	-0.010242473
89	0x3e0d85d4	0.13820583
90	0xbee0f35a	-0.43935663
91	0xbf874e61	-1.0570794
92	0x3e422954	0.18961078
93	0xbee834a2	-0.45352656
94	0x3df751c5	0.12076143
95	0xbe2a8cff	-0.16655348
96	0xbf0af67b	-0.5428235
97	0x3c9abeab	0.018889746
98	0xbeacadf1	-0.33726457
99	0x3dbec917	0.093156986
100	0x3e395c92	0.18101719
101	0x3eb9f815	0.36322084
102	0x3d29615a	0.041352607
103	0xbdc05fd6	-0.09393279
104	0x3e0c9a0f	0.13730644
105	0xbe19d595	-0.15022881
106	0xbd556105	-0.05209448
107	0xbdae9067	-0.08523636
108	0x3e2dafce	0.16961595
109	0x3e058945	0.13040645
110	0xbe7c544d	-0.24641533
111	0xbc7b329e	-0.015331892
112	0x3d32cfa2	0.043655045
113	0x3eab5379	0.33462122
114	0xbe92061b	-0.28520283
115	0xbe139089	-0.14410605
116	0x3c134c24	0.008990321
117	0x3e03c961	0.12869789
118	0xbe0e4856	-0.13894781
119	0xbe833e61	-0.2563353
120	0xbcc9b0cd	-0.024620438
121	0xbf02aa79	-0.5104137
122	0x3e4a553e	0.1975908
123	0x3df079cb	0.1174198
124	0xbe1f5760	-0.15560675
125	0x3dcb5862	0.09928967
126	0x3eb88b28	0.36043668
127	0xbe850f2a	-0.25988132
128	0xbf1e9322	-0.61943257
129	0xbea30d49	-0.31846073
130	0x3e080b5f	0.13285588
131	0xbe77d242	-0.242013
132	0xbf9b44aa	-1.213033
133	0xbd6601d9	-0.056154106
134	0xbe1da3c8	-0.15394509
135	0xbe776af9	-0.241619
136	0xbcdee57c	-0.027209036
137	0x3eeb763a	0.45988637
138	0xbe847e87	-0.25877783
139	0xbe711046	-0.23541364
140	0x3e7c7a5e	0.24656054
141	0xbf0ff1fd	-0.5622862
142	0x3efc6612	0.49296623
143	0xbdab5934	-0.083666235
144	0xbd857fca	-0.065185145
145	0xbd43034e	-0.047610573
146	0xbe541d1f	-0.20714234
147	0xbeacaff7	-0.33728
148	0xbee68248	-0.45021272
149	0x3f4024fa	0.7505642
150	0xbf31ff26	-0.6952995
151	0xbf07c504	-0.53034997
152	0x3e1148b0	0.14187884
153	0x3e6e0fe8	0.23248255
154	0xbf80d4e4	-1.0064969
155	0x3ed94e2f	0.42442462
156	0x3dcf9ea4	0.1013768
157	0x3e836f6b	0.25670943
158	0xbf1bcd2f	-0.6085996
159	0xbdd9a822	-0.10627772
160	0x3ec234d8	0.37930942
161	0xbd99d97d	-0.07512186
162	0xbf9347d4	-1.1506295
163	0xbcc7ce48	-0.024390355
164	0xbebe5ad3	-0.37178668
165	0x3f05caf1	0.5226279
166	0x3b8da445	0.004322561
167	0x3ebf2ee1	0.37340453
168	0xbe60e4f4	-0.21962339
169	0x3f1a996c	0.60390353
170	0xbe74de60	-0.23912954
171	0x3f0a4286	0.54007757
172	0xbecba11d	-0.39771357
173	0x3e5977e5	0.21237142
174	0xbe91b7a7	-0.28460428
175	0xbdc257c7	-0.094893984
176	0xbd98cd93	-0.07461085
177	0x3f1d6f4f	0.6149797
178	0xbe1b02e8	-0.15137827
179	0x3dba380e	0.09092723
180	0xbf1ae536	-0.60506
181	0xbe5b1bdc	-0.21397346
182	0xbe2d8e7e	-0.16948888
183	0x3c7fe4b4	0.015618492
184	0xbdcce363	-0.10004308
185	0x3e910396	0.28323048
186	0xbe1a0cd9	-0.15043963
187	0xbf45eb64	-0.773123
188	0x3f57ec42	0.84344876
189	0xbee49d4a	-0.44651252
190	0xbe43f68e	-0.19137022
191	0x3dbd3c94	0.0924007
192	0xbf000911	-0.50013834
193	0x3d7ae902	0.06125737
194	0xbe71332a	-0.23554674
195	0xbe32be67	-0.17455445
196	0x3e6ff25a	0.23432294
197	0xbf5cca1b	-0.8624589
198	0x3f144d37	0.5793032
199	0xbf5ebaa5	-0.87003547
200	0x3c53cdbb	0.012927468
201	0xbf0d9454	-0.55304456
202	0xbeeb8efc	-0.46007526
203	0x3e67c8ae	0.22635147
204	0xbecf647e	-0.40506357
205	0x3e80fa1e	0.25190824
206	0xbd8a26d8	-0.0674569
207	0x3e0cfab5	0.13767512
208	0x3e8fc13f	0.28077123
209	0x3ea30292	0.31837898
210	0x3d6b02bc	0.057375655
211	0xbcc3e5e9	-0.02391334
212	0x3dd76220	0.10516763
213	0xbdcb305e	-0.09921335
214	0xbed74c88	-0.42050576
215	0x3e629afd	0.22129436
216	0xbea2f6a1	-0.31828788
217	0x3ec00e02	0.37510687
218	0xbef21d7c	-0.4728812
219	0x3e40a7e7	0.1881405
220	0xbefd2552	-0.49442536
221	0xbea1cd4a	-0.31601936
222	0x3eb8aefb	0.36071
223	0x3d8a3e12	0.0675012
224	0x3f088f2d	0.5334347
225	0xbc7a3c5e	-0.015273182
226	0x39b1ece4	0.00033936568
227	0xbf1feb83	-0.6246874
228	0xbe77bc43	-0.2419291
229	0xbf02e90c	-0.5113685
230	0xbac7b152	-0.0015235341
231	0xbdb23cce	-0.08703004
232	0x3ee50fee	0.44738716
233	0xbd8e5b4e	-0.06951009
234	0x3dbb5f32	0.091490164
235	0xbd981ba7	-0.07427149
236	0xbee97298	-0.4559524
237	0xbe956cd9	-0.29184607
238	0xbd88e675	-0.06684581
239	0x3dd5c410	0.104377866
240	0x3e002dbc	0.12517446
241	0xbeda7fd4	-0.4267565
242	0x3f220fdc	0.6330545
243	0x3e5ee208	0.21765912
244	0x3dbcc057	0.092163734
245	0xbeeb4c38	-0.45956588
246	0x3e307c3d	0.17234893
247	0xbdf72d35	-0.120691694
248	0x3eaa4447	0.33255216
249	0xbe5af6e3	-0.21383242
250	0x3def02db	0.116704665
251	0x3e3ac68b	0.182398
252	0xbd84824f	-0.06470167
253	0x3ef8e4be	0.48612016
254	0xbf2c9e30	-0.67428875
255	0x3daf8d7d	0.085719086

mlp_encoder.lins.1.bias f4 [128]
0	0xbec0319d	-0.37537852
1	0x3f033056	0.5124563
2	0x3d16f008	0.036850005
3	0x3edc97c7	0.43084547
4	0xbe47efa0	-0.19525003
5	0x3dc449a6	0.0958436
6	0x3d3d8661	0.04627073
7	0x3f2f6694	0.68515897
8	0x3d8246e2	0.06361176
9	0xbe66b1a6	-0.22528705
10	0x3d215727	0.039389756
11	0xbe9dc080	-0.30810928
12	0x3e255329	0.16145004
13	0xbe908848	-0.28228974
14	0x3dd5c9a9	0.10438854
15	0x3f013a51	0.5047961
16	0x3efa0f6d	0.48839894
17	0x3e94579a	0.28973085
18	0x3e870a2d	0.2637495
19	0x3d361a1e	0.0444585
20	0x3eb97930	0.3622527
21	0xbd029280	-0.031877995
22	0xbf045755	-0.5169576
23	0xbe89516f	-0.2681994
24	0x3f17c3dd	0.5928324
25	0x3e8562ed	0.26052037
26	0x3d9e9b20	0.077444315
27	0x3ee2225b	0.44166836
28	0x3e5a7fae	0.21337768
29	0x3e082c3f	0.13298129
30	0xbd91cbbb	-0.07118937
31	0x3ed484ce	0.41507572
32	0x3e708b58	0.23490655
33	0x3cbc1fd8	0.022964403
34	0xbdea0422	-0.114265695
35	0x3f1baf61	0.6081448
36	0xbf3a4088	-0.72754717
37	0xbd77ca4a	-0.060495652
38	0x3db5aa55	0.08870379
39	0x3dd5d8dd	0.10441754
40	0x3ee8481b	0.45367512
41	0x3ecc0397	0.3984649
42	0xbf1837cb	-0.59460133
43	0x3d4ae067	0.049530413
44	0x3f34f6f0	0.70689297
45	0x3e3b6186	0.18298921
46	0xbd265df6	-0.040616952
47	0x3c5c45f9	0.013444417
48	0x3e57df04	0.21081167
49	0xbd0bb9ae	-0.034112625
50	0xbe634498	-0.22194135
51	0x3e03454d	0.12819405
52	0xbee3b112	-0.4447103
53	0x3dcf7911	0.101305135
54	0xbe25d74a	-0.16195408
55	0x3e747437	0.23872457
56	0x3d1d3aec	0.03838627
57	0xbebf261e	-0.3733377
58	0x3ea80d6a	0.32822734
59	0xbeaee0fb	-0.3415602
60	0xbe986107	-0.29761526
61	0xbe34fdfa	-0.1767501
62	0xbd2f09fe	-0.04273414
63	0x3df6b3cf	0.120460145
64	0xbd3f442b	-0.04669587
65	0x3f07ae75	0.53000575
66	0x3e2023ce	0.15638658
67	0x3de18236	0.11011164
68	0xbdaed3a9	-0.08536465
69	0x3e8e9b4f	0.27852866
70	0x3e3cc2e0	0.18433714
71	0xbf1166a0	-0.5679722
72	0x3d1bb46f	0.03801387
73	0x3d75f5a7	0.060048725
74	0x3f0fc08c	0.5615318
75	0xbe300036	-0.1718758
76	0xbd37e12d	-0.04489248
77	0x3e4d7ec4	0.20067888
78	0x3ef1e376	0.4724385
79	0xbda0419b	-0.07825013
80	0x3c87748c	0.016535066
81	0xbf04bb05	-0.5184787
82	0x3ee7dfa7	0.4528782
83	0xbe2f3772	-0.17110994
84	0x3ee89eb5	0.45433584
85	0x3e52b504	0.20576864
86	0x3e00f557	0.1259359
87	0x3f2c6e3d	0.6735571
88	0xbe6b6603	-0.22988133
89	0xbe5f68a4	-0.21817261
90	0xbea9846d	-0.33108845
91	0x3edea795	0.4348723
92	0x3eca0975	0.3946034
93	0x3f40baaf	0.75284857
94	0x3e8ef156	0.279185
95	0x3e1d87e7	0.15383874
96	0x3e2465e2	0.1605449
97	0x3ef50068	0.47851872
98	0xbf2b000c	-0.66796947
99	0xbf107cef	-0.56440634
100	0x3c2b2697	0.010446212
101	0x3e1ecff6	0.15509018
102	0xbd7eaaf1	-0.06217474
103	0xbf08a885	-0.5338214
104	0x3e2bcc27	0.16777097
105	0xbea5df9e	-0.3239717
106	0xbe67e554	-0.22646075
107	0xbd9c08bb	-0.07618853
108	0xbf083283	-0.53202075
109	0xbed7d9cc	-0.42158353
110	0xbecb8d01	-0.39756015
111	0x3eea264d	0.45732346
112	0x3e5d035b	0.21583311
113	0x3d7280a2	0.059204705
114	0xbefdb825	-0.49554554
115	0xbe8cbb3e	-0.27486604
116	0xbeca5018	-0.39514232
117	0x3eaf1de8	0.34202504
118	0xbe56e4ac	-0.20985669
119	0x3df83b1b	0.121206485
120	0xbdb80b43	-0.08986523
121	0x3cfa1d62	0.030531589
122	0x3d8cfc30	0.068840384
123	0x3dc25fd5	0.09490935
124	0x3ee6fcff	0.45114896
125	0xbecd62bf	-0.401144
126	0x3e448fce	0.19195482
127	0xbeb0645d	-0.3445157

mlp_encoder.lins.2.weight f4 [128, 128]
0	0x3e6e31be	0.23261163
1	0xbf08e485	-0.53473693
2	0xbf1fe40c	-0.62457347
3	0xbe9a2337	-0.30104992
4	0xbeccc310	-0.3999257
5	0xbf205fcb	-0.6264617
6	0x3e92abcd	0.286467
7	0x3e0de856	0.1385816
8	0x3e750481	0.239275
9	0xbe967dbf	-0.29392812
10	0xbec34933	-0.38141784
11	0x3d966ef6	0.07345383
12	0xbe9c653c	-0.30545986
13	0x3e6cdd52	0.23131302
14	0xbf015035	-0.5051301
15	0xbe6faa35	-0.23404773
16	0xbf1079e1	-0.5643597
17	0x3db2f1b5	0.08737508
18	0xbee791b8	-0.45228362
19	0xbeafd2cd	-0.34340516
20	0xbeb510f4	-0.35364497
21	0xbea0832f	-0.31350085
22	0xbe91055a	-0.28324395
23	0xbde7c72e	-0.113172874
24	0x3da3a767	0.07990914
25	0x3edfdc2c	0.43722665
26	0x3ddb5064	0.10708693
27	0x3e0bce7b	0.13652985
28	0xbec72de0	-0.38902187
29	0xbe86e25f	-0.26344582
30	0x3d8d5e48	0.06902748
31	0xbdeccce7	-0.115625195
32	0x3e3629a9	0.1778933
33	0xbe72a29a	-0.2369484
34	0x3d9ee432	0.077583686
35	0x3eac91aa	0.33704883
36	0xbe4ad7d1	-0.1980889
37	0x3d288171	0.04113907
38	0xbea69cfb	-0.32541642
39	0xbf001e8b	-0.50046605
40	0x3e459a60	0.1929717
41	0xbf131c30	-0.57464886
42	0xbe4294ec	-0.19002122
43	0xbe64624f	-0.22303127
44	0x3dfab161	0.122408636
45	0x3e19e60e	0.15029165
46	0xbea3fd2e	-0.32029098
47	0xbec4b6e2	-0.3842078
48	0xbeb8cf3e	-0.36095613
49	0xbf59dec2	-0.85105526
50	0x3d6e9cf5	0.058255155
51	0xbe2b2955	-0.16714986
52	0xbe129506	-0.1431466
53	0xbe29221b	-0.16516916
54	0xbe104e74	-0.14092427
55	0xbf3cf127	-0.7380547
56	0xbf203854	-0.6258595
57	0xbe75731d	-0.23969693
58	0xbfa78568	-1.3087587
59	0xbe1bb4b5	-0.15205653
60	0xbcfc3707	-0.030787958
61	0xbcb9ec8c	-0.022695802
62	0xbf09ec05	-0.5387576
63	0x3ec4e016	0.38452214
64	0x3e8fa995	0.28059068
65	0x3da630ab	0.081147514
66	0xbe189d9b	-0.14903872
67	0x3d86fb9a	0.06590958
68	0x3dd6bcf0	0.10485256
69	0xbed75132	-0.42054135
70	0x3dec36bb	0.115338765
71	0x3db619d3	0.08891644
72	0x3dac051d	0.08399413
73	0x3ca90d35	0.02063618
74	0xbe68d2ef	-0.22736715
75	0x3ec23c80	0.37936783
76	0xbe986084	-0.29761136
77	0xbea352e7	-0.31899187
78	0x3e5fc7f3	0.21853618
79	0xbe704fde	-0.23467967
80	0xbe0eca83	-0.1394444
81	0xbe563a0d	-0.20920582
82	0xbea3a066	-0.31958312
83	0x3e1bc3d7	0.15211426
84	0xbec6dd83	-0.38840875
85	0xbdba1af2	-0.09087171
86	0xbee4277d	-0.44561377
87	0xbf1767cd	-0.5914276
88	0xbecd7939	-0.40131548
89	0xbe6fd368	-0.23420489
90	0xbe36edb0	-0.17864108
91	0xbee2cb7e	-0.44295877
92	0x3dba4969	0.09096033
93	0xbf023758	-0.508657
94	0x3e29d4f0	0.16585135
95	0xbe5b8087	-0.21435748
96	0xbe3b8eb2	-0.18316153
97	0x3eb0fa3a	0.34565908
98	0xbedb4011	-0.42822316
99	0xbee67874	-0.45013773
100	0xbeb81b52	-0.35958344
101	0xbed1130d	-0.40834847
102	0xbd8840c8	-0.06652981
103	0xbeaebb36	-0.34127206
104	0x3e2131ad	0.15741606
105	0x3db3837f	0.08765315
106	0xbaf1d13d	-0.0018449199
107	0xbe3bd439	-0.18342675
108	0x3e7dd385	0.2478772
109	0x3e24dc1a	0.16099587
110	0xbf054a4d	-0.520665
111	0xbe87d01b	-0.2652596
112	0xbed3565a	-0.4127682
113	0xbe423094	-0.18963844
114	0x3b3479c2	0.0027538394
115	0x3c2475f8	0.010037892
116	0x3d393d83	0.045224678
117	0xbe64f672	-0.22359636
118	0xbe92b030	-0.28650045
119	0x3e8191ca	0.2530654
120	0xbe38fe31	-0.18065716
121	0xbec3f77a	-0.38274747
122	0x3e06b13f	0.13153552
123	0x3dead5bd	0.114665486
124	0x3df9424f	0.121708505
125	0x3e1b61b1	0.15173985
126	0x3e5437de	0.20724437
127	0x3ed5a51f	0.4172754
128	0x3dc20716	0.09474008
129	0xbe3b5f21	-0.18298008
130	0xbef592b2	-0.47963482
131	0xbe2d10b3	-0.16900901
132	0xbf306610	-0.68905735
133	0xbea7ddc5	-0.32786384
134	0x3da96771	0.08271683
135	0x3d9e0e0e	0.077175245
136	0xbd61e2fa	-0.055148102
137	0xbe5dd87b	-0.21664612
138	0xbe0af09a	-0.13568345
139	0xbdba65e1	-0.09101463
140	0xbe766891	-0.24063326
141	0x3e25ae20	0.16179705
142	0xbe9dce5e	-0.30821508
143	0x3dc9607f	0.09832858
144	0xbe601d4d	-0.21886177
145	0xbd531ea1	-0.051542882
146	0xbdcf55fb	-0.10123821
147	0x3df59957	0.11992138
148	0xbe5933b4	-0.2121113
149	0xbe688c10	-0.2270968
150	0xbef39d94	-0.4758116
151	0xbdaf399b	-0.08555909
152	0x3bafb19e	0.00536175
153	0x3e8a5b5a	0.2702282
154	0x3b9c9418	0.0047783963
155	0x3e0c517e	0.13702962
156	0xbf13163a	-0.5745579
157	0xbe17cc75	-0.14824088
158	0x3db0a8e3	0.086259626
159	0x3e8bf427	0.2733471
160	0x3eb53bde	0.35397238
161	0xbe7fac25	-0.24968012
162	0x3e12ab60	0.14323187
163	0x3eba9a4d	0.36445847
164	0xbef8a17c	-0.48560703
165	0x3e0f1778	0.13973796
166	0xbeb6b759	-0.35686758
167	0x3ce476dc	0.027888708
168	0x3e40c4d9	0.18825091
169	0xbbd95ef9	-0.006633636
170	0xbd08685c	-0.03330265
171	0xbc69d59b	-0.014272119
172	0xbd3864b0	-0.045017898
173	0x3e678586	0.22609529
174	0xbf2a15a9	-0.664393
175	0xbeb0c8a8	-0.3452809
176	0xbe02f0d5	-0.12787183
177	0xbf072277	-0.52786964
178	0x3e269a94	0.16269904
179	0x3dd0d767	0.10197335
180	0x3e26876c	0.16262597
181	0x3e62ea91	0.22159792
182	0x3db1a84d	0.08674679
183	0xbeeb9b46	-0.46016902
184	0xbce3c812	-0.027805362
185	0xbc7edfb4	-0.015556265
186	0xbf5fb79f	-0.8738956
187	0xbe77b4cc	-0.24190062
188	0x3e2f3be1	0.17112686
189	0xbee4fdf9	-0.44725016
190	0xbebf373a	-0.37346822
191	0x3e57f492	0.2108939
192	0x3d374e06	0.044752143
193	0x3dd579e1	0.10423637
194	0x3e0e3428	0.13887084
195	0x3e2dd342	0.1697512
196	0x3e0efa29	0.13962616
197	0xbecef0a0	-0.40417957
198	0xbd866a33	-0.06563225
199	0x3e1edcbb	0.1551389
200	0x3e2b74d4	0.16743785
201	0xbd6e7355	-0.058215458
202	0xbf088c91	-0.5333949
203	0x3ed879c3	0.42280397
204	0xbe027210	-0.12738824
205	0xbec4e371	-0.38454774
206	0x3e79fc6b	0.24412696
207	0x3de372f2	0.111059085
208	0x3d854ab6	0.065083906
209	0x3e0cd266	0.13752136
210	0xbe0c6b79	-0.13712873
211	0xbd0da6b1	-0.034582797
212	0xbeb9265c	-0.36162078
213	0xbec0a715	-0.37627473
214	0xbedcf5dd	-0.4315633
215	0xbf175925	-0.591204
216	0xbd7d548b	-0.061848205
217	0x3d525343	0.051348936
218	0xbf08ce33	-0.53439635
219	0xbe65a4c6	-0.22426137
220	0xbf03b9c2	-0.5145532
221	0xbea02a70	-0.31282377
222	0x3e464e24	0.19365746
223	0xbe1dd42e	-0.15412971
224	0x3e4af3fb	0.19819634
225	0x3eaa02eb	0.3320535
226	0xbe8496ec	-0.25896394
227	0xbf0603cb	-0.5234954
228	0x3dac1543	0.08402493
229	0xbf30be08	-0.69039965
230	0xbe349b86	-0.17637452
231	0xbd181e49	-0.037138257
232	0x3dd672fb	0.104711495
233	0x3e43351f	0.19063233
234	0x3e310c65	0.17289884
235	0x3e6d2899	0.23160018
236	0xbdad8dfa	-0.084743455
237	0x3e8794b6	0.26480645
238	0x3b06b806	0.0020556464
239	0x3da63009	0.08114631
240	0xbe3a5ade	-0.18198726
241	0xbdb18744	-0.08668378
242	0x3e83b4ca	0.2572387
243	0xbd5372fc	-0.05162333
244	0x3e13e8ef	0.14444326
245	0x3e2debf9	0.16984548
246	0x3dbc8579	0.092051454
247	0x3d84c18b	0.06482228
248	0xbddad94c	-0.10685977
249	0xbf19e1aa	-0.6010996
250	0x3e4dbae1	0.2009082
251	0x3e7d6181	0.24744226
252	0x3e683878	0.22677791
253	0xbdc5de8b	-0.09661587
254	0x3d721e0d	0.05911069
255	0x3ea00a56	0.31257886

mlp_encoder.lins.2.bias f4 [128]
0	0xbe7d5806	-0.2474061
1	0xbd22e04b	-0.039764684
2	0x3d0ce6e3	0.03439988
3	0x3e54def1	0.2078817
4	0xbd626ac2	-0.055277593
5	0xbc72f143	-0.014828029
6	0xbea060a8	-0.31323743
7	0xbec97e64	-0.3935424
8	0xbf8494f5	-1.0357958
9	0x3ee9593a	0.45575887
10	0xbf16d84a	-0.5892378
11	0xbe548c3b	-0.20756619
12	0xbe07743c	-0.13227934
13	0xbe16a0d4	-0.14709789
14	0x3c3b900c	0.011447918
15	0xbe9cfd0e	-0.30661815
16	0xbd908cb7	-0.07058089
17	0xbe30d576	-0.17268929
18	0x3ea00e69	0.31260994
19	0x3ed6b546	0.41935176
20	0xbebd3565	-0.369548
21	0x3e908ac7	0.2823088
22	0xbddb66b9	-0.10712952
23	0x3d210530	0.039311588
24	0x3e2982b5	0.16553767
25	0x3eaf4105	0.34229293
26	0x3e57844e	0.21046564
27	0xbe0602d1	-0.13087012
28	0xbecde995	-0.4021727
29	0xbecd7a98	-0.40132594
30	0xbe8a7dd7	-0.27049133
31	0x3f36db55	0.71428424
32	0xbddb035e	-0.106940016
33	0xbd6a5da8	-0.057218224
34	0xbe0b4848	-0.13601792
35	0xbe668589	-0.22511877
36	0xbe559e1b	-0.20861094
37	0x3e369b33	0.17832641
38	0x3c2a07b7	0.010377816
39	0x3e4b0435	0.19825824
40	0x3d1aae82	0.03776408
41	0x3f3be777	0.7340006
42	0x3eb429b5	0.3518807
43	0xbeccf07b	-0.40027222
44	0x3e6b85ba	0.23000231
45	0xbe5831bc	-0.21112722
46	0x3d15ea70	0.03660053
47	0xbc184847	-0.009294576
48	0xbe1e3a5b	-0.15451948
49	0xbe991456	-0.29898328
50	0x3ef8ffaf	0.4863257
51	0x3ea982b7	0.3310754
52	0xbe8dc436	-0.2768876
53	0x3db74037	0.08947795
54	0x3e047d61	0.12938453
55	0x3e9826d4	0.29717124
56	0xbebe9810	-0.3722539
57	0x3dd922ea	0.106023625
58	0xbe4ee96f	-0.20206235
59	0x3ddb90f4	0.10721007
60	0xbd936aa9	-0.07198078
61	0xbe4a7b9d	-0.19773717
62	0xbe8dc8b4	-0.27692187
63	0xbe158d27	-0.14604627
64	0x3e98b866	0.29828185
65	0x3de2ab5b	0.1106784
66	0x3ea73053	0.32654056
67	0xbec714dd	-0.38883105
68	0x3e1eaeda	0.15496388
69	0xbdfc8a79	-0.12331099
70	0x3d3dcb64	0.046336547
71	0xbe8bbc78	-0.27292228
72	0x3e8b91d2	0.2725969
73	0x3dcc8d01	0.09987832
74	0xbe2554b6	-0.16145596
75	0xbea1ee79	-0.31627253
76	0x3e09126f	0.13385938
77	0xbdf441c1	-0.11926604
78	0x3d9b97bd	0.07597301
79	0x3ed7f730	0.42180777
80	0xbe9b358e	-0.30314296
81	0xbe50ba00	-0.20383453
82	0x3e2efe84	0.17089278
83	0xbd4aa3e9	-0.049472723
84	0xbe353b2f	-0.17698358
85	0xbebcfa90	-0.36909914
86	0x3ed4ab6d	0.41537037
87	0x3ed987b8	0.42486358
88	0xbe1aae1b	-0.15105478
89	0x3f35f0ad	0.7107037
90	0xbe332ba1	-0.17497112
91	0x3eb6ec1d	0.35727015
92	0xbe341212	-0.17585018
93	0xbebfeb08	-0.37484002
94	0xbf1a7414	-0.6033337
95	0xbecc784d	-0.39935532
96	0x3e19c026	0.15014705
97	0xbe826c13	-0.2547308
98	0x3b2b6d0f	0.0026157533
99	0x3df68666	0.12037353
100	0x3e9b214c	0.3029884
101	0x3dd7fb03	0.105459236
102	0x3e856bca	0.260588
103	0x3f49012c	0.78517413
104	0x3e80949c	0.2511338
105	0xbe6bfbad	-0.23045225
106	0xbce52fe6	-0.027976941
107	0x3cd68bc3	0.02618969
108	0x3cb6344e	0.022241738
109	0x3ef0c0b4	0.4702202
110	0xbe7910f9	-0.24322881
111	0x3e893045	0.2679464
112	0x3f16226a	0.5864626
113	0xbe225db8	-0.15856063
114	0xbe2589a1	-0.16165783
115	0xbe7300ea	-0.23730817
116	0x3e77e998	0.24210203
117	0xbd640cdc	-0.055676326
118	0xbee47e67	-0.44627687
119	0xbea011ff	-0.3126373
120	0x3e2fb7a6	0.171599
121	0xbee784bf	-0.45218465
122	0xbf474774	-0.77843404
123	0x3dfd5b7f	0.12370967
124	0xbf0ed9f1	-0.558013
125	0xbe44c554	-0.192159
126	0xbe975f4f	-0.29564902
127	0xbe0266e1	-0.12734558

mlp_encoder.lins.3.weight f4 [96, 128]
0	0x3d1337f7	0.035942044
1	0x3e53fc8c	0.20701808
2	0x3d917dd9	0.07104082
3	0xbe298f5d	-0.16558595
4	0x3e4c4efd	0.19952007
5	0xbd8616c0	-0.06547308
6	0xbdbeb19d	-0.09311221
7	0x3bebe0a4	0.00719841
8	0x3baa7143	0.00520149
9	0x3d041beb	0.032253187
10	0xbe5bd41c	-0.21467632
11	0x3e3f5d9d	0.18688054
12	0x3ebd0bd0	0.36923075
13	0x3e45492f	0.19266199
14	0xbe43b822	-0.1911321
15	0x3dcf1518	0.10111445
16	0xbe52d58a	-0.20589271
17	0xba8515ec	-0.0010153628
18	0x3dee57cf	0.11637842
19	0xbef389fb	-0.47566208
20	0xbdd2d167	-0.102938466
21	0xbe8d2120	-0.27564335
22	0x3cec3c95	0.028837482
23	0x3e849f83	0.25902948
24	0x3e56e304	0.20985037
25	0xbdc19eb2	-0.09454097
26	0xbded073d	-0.11573646
27	0x3e325615	0.1741565
28	0xbe8e9afc	-0.2785262
29	0xbef86905	-0.48517624
30	0xbf59c73b	-0.85069627
31	0x3c517998	0.012785338
32	0x3e5184fb	0.20460884
33	0x3cba869a	0.022769261
34	0xbe50f53e	-0.20406052
35	0x3d822977	0.06355565
36	0x3c7df59e	0.015500454
37	0x3d035866	0.032066725
38	0x3c514a41	0.012774051
39	0x3cdc3293	0.026879584
40	0xbd9c1f2e	-0.076231346
41	0x3ea73912	0.3266073
42	0x3d65626f	0.056002077
43	0x3e459928	0.19296706
44	0x3cfd7df8	0.030943856
45	0xbeba95e1	-0.36442474
46	0xbe84f083	-0.25964746
47	0xbdfc7d84	-0.12328628
48	0x3bb52f73	0.005529338
49	0x3de9e7bc	0.11421153
50	0xbeae7454	-0.34073126
51	0x3dbbb11d	0.09164641
52	0xbe9df11e	-0.3084802
53	0x3d6517a9	0.055930767
54	0xbece4372	-0.40285832
55	0x3d8f8914	0.070085675
56	0xbe2b63bc	-0.16737264
57	0x3e098b38	0.13432014
58	0xbd4451b2	-0.047929473
59	0xbd35d8d8	-0.04439625
60	0xbd892c62	-0.066979185
61	0x3e8041d5	0.25050226
62	0xbe0e4a80	-0.13895607
63	0xbe2bc5bb	-0.16774647
64	0xbe086e6c	-0.13323373
65	0xbe791be3	-0.24327044
66	0x3e8209d6	0.2539813
67	0x3cdd1639	0.026988136
68	0x3e2f9e5b	0.17150252
69	0x3e078bcb	0.1323692
70	0x3e3bd0a7	0.18341313
71	0xbb8f40f7	-0.004371758
72	0xbdbb177d	-0.091353394
73	0xbe51fd09	-0.20506682
74	0xbeb98e88	-0.36241555
75	0x3da08894	0.0783855
76	0xbf0bb568	-0.5457368
77	0x3cbfa00b	0.023391744
78	0x3e1793c9	0.1480247
79	0xbce9d60b	-0.028544446
80	0xbe1bf612	-0.15230587
81	0x3da379b2	0.07982196
82	0xbe7ba1fd	-0.24573512
83	0x3daaed8b	0.08346089
84	0xbf1730a1	-0.59058577
85	0x3dd72d2f	0.10506665
86	0x3c067b66	0.008208131
87	0x3e0fa56b	0.14027946
88	0xbe8e7d82	-0.2783013
89	0xbd0e101c	-0.03468333
90	0xbe309978	-0.17246044
91	0xbe1080a9	-0.1411158
92	0x3e98bf02	0.29833227
93	0xbebe47bb	-0.371641
94	0xbeff7a43	-0.49897966
95	0xbe3a13ea	-0.18171659
96	0x3df02788	0.1172629
97	0xbda21ed1	-0.07916034
98	0xbbc54239	-0.0060198572
99	0xbcab29a5	-0.020893881
100	0xbdd22808	-0.102615416
101	0xbddeb7c3	-0.108748935
102	0x3d4b23ee	0.049594812
103	0xbecbc823	-0.3980113
104	0xbd3c082e	-0.04590624
105	0x3e1bc94a	0.15213504
106	0x3e0cd309	0.13752379
107	0xbd85974d	-0.06522999
108	0x3e9650ac	0.29358423
109	0x3ef32dd9	0.47495916
110	0x3ee22471	0.44168428
111	0x3ced323e	0.028954621
112	0xbee854bc	-0.45377147
113	0xbdddfec1	-0.10839606
114	0xbc9cfb6f	-0.019162862
115	0xbea0f90d	-0.3144001
116	0xbc8d0a39	-0.017216789
117	0x3d0a04b3	0.033695888
118	0xbd5b4f2e	-0.05354231
119	0x3dd89a2b	0.1057628
120	0x3e38c81d	0.18045087
121	0xbe0c3ecf	-0.13695835
122	0x3e2d3d08	0.16917813
123	0xbedf97b6	-0.43670434
124	0xbe768176	-0.24072823
125	0xbe0dc562	-0.13844827
126	0xbe0cc6a1	-0.13747646
127	0xbead9037	-0.3389909
128	0x3e83483d	0.2564105
129	0x3e78cd7a	0.24297133
130	0x3e1cca59	0.15311565
131	0x3e4a6e4a	0.19768634
132	0x3e04c029	0.12963928
133	0xbf5799e6	-0.84219205
134	0x3ec96831	0.39337304
135	0xbeed6b67	-0.46371004
136	0xbdcd163c	-0.100140065
137	0x3ed628a2	0.41827875
138	0xbd804f40	-0.06265116
139	0x3dd21867	0.10258561
140	0xbf2bad45	-0.67061263
141	0x3ed5c6d4	0.41753256
142	0xbe37d058	-0.1795057
143	0xbece18de	-0.40253347
144	0xbe29dbfc	-0.16587824
145	0xbe11808d	-0.14209194
146	0x3e01aa1d	0.1266255
147	0xbecc08a2	-0.39850336
148	0x3e0fff44	0.1406222
149	0xbea3e1ec	-0.32008302
150	0xbeeb80e0	-0.4599676
151	0x3e5499f3	0.20761852
152	0x3e0c0bcb	0.13676374
153	0x3dcdea68	0.10054475
154	0x3ecd11df	0.40052697
155	0x3e7342c8	0.23755944
156	0xbe83b7f4	-0.25726283
157	0xbf5c81a7	-0.86135334
158	0xbf1f7624	-0.62289643
159	0xbdde1e59	-0.10845632
160	0x3ea3a40a	0.3196109
161	0x3efcf8dc	0.49408615
162	0xbef6398c	-0.4809078
163	0x3e956097	0.29175255
164	0xbd98fe72	-0.074704066
165	0x3e9c2180	0.30494308
166	0x3d978ad1	0.07399524
167	0x3e5cf9f7	0.21579729
168	0xbe4f6fbd	-0.20257469
169	0x3e6c61dc	0.23084205
170	0x3ec78e4e	0.38975757
171	0x3e0e7fe2	0.13915971
172	0x3edd735b	0.43252072
173	0xbe35fc4f	-0.1777203
174	0x3eb756cb	0.35808405
175	0xbe3e6150	-0.1859181
176	0x3eb5001f	0.35351655
177	0x3d9e89e0	0.07741141
178	0xbe202867	-0.15640412
179	0x3d2379ae	0.039910965
180	0x3f083b37	0.53215355
181	0x3ed1c2a1	0.40968803
182	0xbed217ad	-0.41033688
183	0x3e53806d	0.2065446
184	0x3f290fee	0.6603993
185	0x3dca9f51	0.098936684
186	0x3e901924	0.2814418
187	0x3e27808a	0.16357628
188	0x3effdd43	0.49973497
189	0x3edaad91	0.42710546
190	0x3ee11ba6	0.43966407
191	0x3f233faf	0.6376905
192	0x3e661ba5	0.22471483
193	0xbdcd7694	-0.100323826
194	0x3d7b55e6	0.061361216
195	0x3e5ad131	0.21368863
196	0x3eccfc36	0.40036172
197	0xbe74a57b	-0.23891251
198	0x3e31f189	0.17377295
199	0xbf68a612	-0.90878403
200	0x387f57cc	6.0878505e-05
201	0xbe359158	-0.17731225
202	0xbeec297d	-0.46125403
203	0x3e39ec3b	0.18156521
204	0x3bbf32f6	0.0058349324
205	0xbb9e6d91	-0.0048348387
206	0x3e69bda1	0.22826244
207	0x3e6d876c	0.2319619
208	0xbcc4c950	-0.024021775
209	0x3e5e5a84	0.21714216
210	0xbd96f02c	-0.07370028
211	0x3e022246	0.12708387
212	0xbe953fbf	-0.29150197
213	0x3dfcf13f	0.123507015
214	0x3ed942b9	0.42433718
215	0x3ef698b6	0.48163384
216	0xbe053037	-0.13006674
217	0x3d7d09cc	0.06177692
218	0xbe0cdbc8	-0.13755715
219	0xbf628a36	-0.88492143
220	0xbd8041fc	-0.062625855
221	0xbf18f019	-0.5974136
222	0xbecaf911	-0.39643148
223	0x3e26d45b	0.16291945
224	0xbf5a387a	-0.85242426
225	0xbdeaba06	-0.114612624
226	0x3dace896	0.084428
227	0xbefc3f05	-0.4926683
228	0xbe594190	-0.21216416
229	0x3f167761	0.5877591
230	0xbf034714	-0.5128033
231	0xbf0bb61f	-0.5457477
232	0xbf242898	-0.6412444
233	0x3e860810	0.26178026
234	0x3e84f0e1	0.25965026
235	0xbd8df5cf	-0.0693165
236	0x3ee69282	0.45033652
237	0x3ef4ebb8	0.4783609
238	0xbd8ffca7	-0.070306115
239	0x3ecf0418	0.4043281
240	0xbea6715d	-0.32508364
241	0xbf33b797	-0.7020201
242	0x3e6124c2	0.21986678
243	0xbf593552	-0.84846985
244	0x3f00beb3	0.50290984
245	0x3ef985b4	0.4873482
246	0x3e78056b	0.24220817
247	0x3ea911b8	0.3302133
248	0x3edd61ce	0.43238682
249	0x3e399d84	0.18126494
250	0xbe4fccff	-0.20293044
251	0xbedaf8fa	-0.4276808
252	0x3eadc3f5	0.33938566
253	0xbdd08b59	-0.101828285
254	0xbf3b76c4	-0.73228097
255	0xbb852200	-0.004062891

mlp_encoder.lins.3.bias f4 [96]
0	0x3e64fb73	0.22361545
1	0x3f97b4b1	1.1852018
2	0xbdc227b8	-0.09480232
3	0x3e2d26a9	0.16909279
4	0x3d51c652	0.051214524
5	0x3e7133ef	0.23554967
6	0x3e881ab0	0.2658286
7	0x3efe1273	0.4962345
8	0x3eee38ce	0.46527714
9	0xbd36429b	-0.044497114
10	0xbd57951f	-0.052632447
11	0xbec11862	-0.37713915
12	0x3a9b5506	0.00118509
13	0xbe7c5dbf	-0.24645136
14	0xbf91ceda	-1.1391251
15	0x3d802ddf	0.06258749
16	0x3e4c572a	0.19955125
17	0x3e93478b	0.2876552
18	0xbdaefeed	-0.08544717
19	0x3e1e8c8c	0.15483302
20	0xbd24de46	-0.04025104
21	0xbe840b4c	-0.2578987
22	0x3de5c7ac	0.11219725
23	0xbe5013c3	-0.20320038
24	0xbbc4eaca	-0.0060094343
25	0xbbeefc0b	-0.0072932295
26	0x3e048ac3	0.12943558
27	0x3d58c725	0.052924294
28	0x3ed92171	0.42408326
29	0xbdaa64eb	-0.0832003
30	0xbd47aa5a	-0.048746444
31	0x3cfc79bc	0.030819766
32	0xbe86a928	-0.2630093
33	0x3f4eaa5e	0.8072871
34	0xbe307cc1	-0.1723509
35	0xbef71926	-0.48261374
36	0xbf35d1cd	-0.71023256
37	0xbd3e209b	-0.046417814
38	0x3df9ee12	0.122036114
39	0xbe5fbe3f	-0.21849917
40	0xbf25cef0	-0.64768887
41	0xbf0967e3	-0.53674144
42	0x3d824d80	0.06362438
43	0x3e83b714	0.25725615
44	0x3e646fe1	0.22308303
45	0xbef97595	-0.4872252
46	0x3e189b44	0.14902979
47	0x3e0b50bf	0.13605021
48	0xbbb8ad48	-0.005635891
49	0xbe089370	-0.13337493
50	0x3d91f693	0.071271084
51	0xbee1a85c	-0.4407376
52	0x3e2fcc55	0.1716779
53	0xba814fd0	-0.0009865705
54	0x3e928a36	0.28621072
55	0xbd9ae057	-0.07562321
56	0xbee83e66	-0.45360106
57	0xbedbeb87	-0.4295313
58	0x3e871c25	0.2638866
59	0x3ecbbe02	0.39793402
60	0xbef75dbe	-0.48313707
61	0xbd56f26e	-0.052477293
62	0x3d53e621	0.05173314
63	0x3ee97022	0.45593363
64	0xbcb65ae2	-0.022260133
65	0xbd6ef74b	-0.058341306
66	0x3eb7b004	0.35876477
67	0x3f0f78aa	0.56043494
68	0xbdbd3285	-0.092381515
69	0xbdc425b9	-0.095775075
70	0xbe64c8df	-0.22342251
71	0xbeb51fd8	-0.35375857
72	0xbd1b6b5b	-0.03794418
73	0x3ee070ef	0.43836161
74	0xbea6cd40	-0.32578468
75	0x3d6df6dd	0.058096755
76	0xbe942205	-0.28932205
77	0x3e3ea64f	0.18618129
78	0xbe7d66f3	-0.24746303
79	0xbd49d9eb	-0.04928009
80	0xbdac62bd	-0.0841727
81	0xbe1a9e84	-0.15099531
82	0x3eae8131	0.3408294
83	0x3eecee68	0.4627564
84	0xbd4b15be	-0.04958128
85	0xbe569369	-0.2095467
86	0x3ea51a71	0.32246736
87	0xbe3d3d60	-0.18480444
88	0x3f0a3c31	0.53998095
89	0x3cf0cddc	0.029395036
90	0xbe0199fa	-0.12656394
91	0xbe08c750	-0.13357282
92	0x3c3d6ed1	0.011562065
93	0xbf2c96f9	-0.67417866
94	0xbe0f8e39	-0.14019097
95	0x3f19ac64	0.6002867

mlp_encoder.norms.0.module.weight f4 [128]
0	0x3f9e0e4d	1.2348114
1	0x3f8d90da	1.105983
2	0x3f9bd581	1.2174531
3	0x3f81b1c9	1.0132381
4	0x3f500333	0.8125488
5	0x3f465740	0.7747688
6	0x3fb2eb6b	1.3978094
7	0x3fae9c53	1.3641456
8	0x3f839387	1.0279397
9	0x3fcacf94	1.5844598
10	0x3f264c8c	0.6496055
11	0x3fad5a34	1.3543153
12	0x3f6287a7	0.8848824
13	0x3f072943	0.52797335
14	0x3f57443d	0.840885
15	0x3f875e6a	1.0575688
16	0x3fa36bbd	1.2767254
17	0x3fa45bd5	1.2840525
18	0x3f8349f3	1.0256943
19	0x3f6ff4fb	0.93733186
20	0x3f7659d8	0.9623084
21	0x3fab62b0	1.3389492
22	0x3f331eee	0.6996907
23	0x3f1a4327	0.60258716
24	0x3f9bec51	1.2181493
25	0x3f4ce105	0.8003085
26	0x3f8fa4c6	1.122216
27	0x3fd6ec2d	1.6790825
28	0x3f6e2809	0.9302984
29	0x3f6ef2fe	0.93339527
30	0x3f94ff64	1.1640439
31	0x3f703f5b	0.9384667
32	0x3f429db7	0.76021904
33	0x3f40e7c7	0.75353664
34	0x3f7ea28f	0.99466795
35	0x3f903873	1.1267227
36	0x3f9f46fd	1.2443539
37	0x3fa29291	1.2700979
38	0x3f918bd9	1.1370803
39	0x3f78f122	0.9724294
40	0x3fadbb5c	1.3572803
41	0x3f82e756	1.0226848
42	0x3f7e9835	0.99451
43	0x3f89d170	1.076704
44	0x3f4a3dc3	0.7900049
45	0x3f63033d	0.88676816
46	0x3fa43854	1.282969
47	0x3f89a5e9	1.0753757
48	0x3f81bb99	1.0135375
49	0x3f8b193b	1.0867075
50	0x3f786b1c	0.97038436
51	0x3f4407bc	0.765743
52	0x3f97d21b	1.1860994
53	0x3f51956f	0.8186864
54	0x3f892e70	1.0717297
55	0x3f3f2fc3	0.74682254
56	0x3f91da14	1.1394677
57	0x3fa20088	1.2656412
58	0x3f54a67f	0.8306655
59	0x3f444bd7	0.7667822
60	0x3f897299	1.0738097
61	0x3f98b667	1.1930665
62	0x3f5aaca7	0.85419697
63	0x3f1e8774	0.61925435
64	0x3f84179f	1.0319709
65	0x3f6f371b	0.9344346
66	0x3f6c18f6	0.9222559
67	0x3f8ceb3e	1.100929
68	0x3f2ac487	0.66706127
69	0x3f4f3f1c	0.8095567
70	0x3fc68a6f	1.5510997
71	0x3f84b2ee	1.0367105
72	0x3f2dde0b	0.67916936
73	0x3f84e140	1.0381241
74	0x3fb31c6f	1.3993052
75	0x3fbc5a9c	1.4715152
76	0x3f62db0f	0.88615507
77	0x3f93409e	1.1504095
78	0x3f5b1362	0.8557645
79	0x3f64e92f	0.8941831
80	0x3f9d8f7e	1.2309415
81	0x3f87b8cf	1.0603274
82	0x3f3a1fa9	0.7270456
83	0x3fb8b7bd	1.4431072
84	0x3f8612a2	1.0474436
85	0x3f7f040a	0.9961554
86	0x3f962012	1.1728537
87	0x3f4e5e0b	0.8061225
88	0x3f45fd73	0.7733986
89	0x3f94b2df	1.1617087
90	0x3f6538e2	0.8953992
91	0x3fa1e0a6	1.2646682
92	0x3f10a97e	0.56508625
93	0x3faf595e	1.3699148
94	0x3f854bf9	1.041381
95	0x3f842c4c	1.0326018
96	0x3f86e3d2	1.0538275
97	0x3f5ea775	0.8697427
98	0x3f834556	1.0255535
99	0x3f8d1ae0	1.1023827
100	0x3f5308af	0.82435125
101	0x3f44987e	0.76795185
102	0x3f717ec9	0.94334084
103	0x3f97b0a6	1.1850784
104	0x3f5d551b	0.86457986
105	0x3f637a44	0.8885844
106	0x3f9bca60	1.2171135
107	0x3f7fe37f	0.99956506
108	0x3f6327d9	0.8873268
109	0x3f17b05f	0.59253496
110	0x3f9525bb	1.165214
111	0x3fa3a0b6	1.278342
112	0x3f4ea38d	0.8071831
113	0x3f3cf997	0.73818344
114	0x3f59f772	0.85143197
115	0x3f6a9559	0.91634136
116	0x3f44da55	0.7689565
117	0x3f5754dd	0.84113866
118	0x3f7d378c	0.9891288
119	0x3f9b3594	1.2125726
120	0x3f5f7443	0.87286776
121	0x3fb80c5a	1.4378769
122	0x3f8211bc	1.0161662
123	0x3f88b13f	1.0679091
124	0x3f4ff4b2	0.8123275
125	0x3f6aa873	0.91663283
126	0x3f939a63	1.153149
127	0x3fa485b9	1.2853309

mlp_encoder.norms.0.module.bias f4 [128]
0	0xbf195764	-0.5989897
1	0xbd983035	-0.0743107
2	0xbf1433d7	-0.578916
3	0xbf1688e2	-0.58802617
4	0xbf14a3aa	-0.5806223
5	0xbe328e6b	-0.1743714
6	0xbf388cad	-0.72089654
7	0xbe72d90a	-0.23715606
8	0xbe29ad1a	-0.1656994
9	0xbe0ae689	-0.13564505
10	0xbe304880	-0.17215157
11	0xbe211311	-0.1572993
12	0xbf12dd07	-0.5736851
13	0xbe25c573	-0.16188602
14	0xbf079bc1	-0.52972037
15	0xbe97bf4e	-0.2963814
16	0xbec40b2a	-0.38289768
17	0xbe79a7da	-0.24380437
18	0xbef6e629	-0.48222473
19	0xbe3023ac	-0.17201108
20	0xbe38e5ed	-0.1805646
21	0xbf260a1e	-0.6485919
22	0xbe4a9453	-0.19783144
23	0xbee6b626	-0.45060843
24	0xbf0d762a	-0.5525843
25	0xbf02fbba	-0.51165354
26	0xbf0bc58a	-0.54598296
27	0x3d3768e8	0.04477778
28	0xbee439ab	-0.44575247
29	0xbf06fe19	-0.5273147
30	0xbf26cf1b	-0.6515977
31	0xbf2e00e4	-0.6797011
32	0xbe1c2ed6	-0.15252241
33	0xbe3037fb	-0.17208855
34	0xbea03607	-0.3129122
35	0xbf68531b	-0.9075181
36	0xbdfa87b0	-0.122329116
37	0xbf326068	-0.69678354
38	0xbf391c26	-0.72308576
39	0xbea40818	-0.32037425
40	0xbce153a4	-0.027505703
41	0xbe6f03bd	-0.2334127
42	0xbe8c57c1	-0.274107
43	0xbce39ddc	-0.027785234
44	0xbe4dc7e2	-0.2009578
45	0xbf21972f	-0.6312131
46	0xbd97bf3c	-0.07409522
47	0xbdcd8347	-0.10034805
48	0xbf0a39a3	-0.53994197
49	0xbe67c1de	-0.22632548
50	0xbf0f472c	-0.55967975
51	0xbed0bae3	-0.40767583
52	0xbeef5f29	-0.4675229
53	0xbeec9b3b	-0.4621218
54	0xbef7b025	-0.48376575
55	0x3db828c6	0.08992152
56	0xbed1f7b7	-0.41009304
57	0xbef4326f	-0.47694728
58	0xbeeb750c	-0.45987737
59	0xbeb51ea8	-0.3537495
60	0xbf39be54	-0.7255604
61	0xbec288fb	-0.37995133
62	0xbe6ecf81	-0.23321344
63	0xbe8ba141	-0.27271464
64	0xbf26d05d	-0.6516169
65	0xbef91674	-0.48649943
66	0xbe51b9b1	-0.20480992
67	0xbf3657ce	-0.7122773
68	0xbeab142b	-0.33413824
69	0xbea4300b	-0.32067904
70	0xbdecf66d	-0.115704395
71	0xbf1d7870	-0.615119
72	0xbf2c4c03	-0.67303485
73	0xbf3d4a3b	-0.7394139
74	0xbe2ea911	-0.17056681
75	0x3e3431e1	0.17597152
76	0xbe83ca34	-0.25740206
77	0xbee44d62	-0.44590288
78	0xbefbe9c0	-0.49201775
79	0xbee69881	-0.45038226
80	0xbf14c30f	-0.58110136
81	0xbef6d508	-0.48209405
82	0x3e2db50d	0.16963597
83	0xbf70e734	-0.9410279
84	0xbf0cffec	-0.55078006
85	0xbe9b3a82	-0.30318075
86	0xbeee41fc	-0.46534717
87	0xbef26d48	-0.47349
88	0xbefc8a24	-0.49324143
89	0xbe650fb5	-0.22369273
90	0xbf34c015	-0.70605594
91	0xbd71bdc1	-0.059018854
92	0xbeb39239	-0.35072497
93	0xbe3621ca	-0.17786327
94	0xbf1cf5c1	-0.6131249
95	0xbec65c8f	-0.38742492
96	0xbd65dab7	-0.056116786
97	0xbd1544fb	-0.036442738
98	0x3da6196f	0.0811032
99	0xbefb152d	-0.49039593
100	0xbf24079f	-0.6407413
101	0xbf0b5e80	-0.5444107
102	0xbf1e29c0	-0.61782455
103	0xbeeea0af	-0.46606967
104	0xbf070a15	-0.5274976
105	0xbf5b1ccf	-0.85590833
106	0xbe0865fe	-0.13320157
107	0xbf021f06	-0.5082859
108	0xbf303cd5	-0.6884282
109	0xbeaf6afa	-0.34261304
110	0xbe88ebcc	-0.267424
111	0xbea5c37c	-0.32375705
112	0xbf16377b	-0.58678406
113	0xbec65c70	-0.387424
114	0xbe99f7b4	-0.30071795
115	0xbf384bdc	-0.7199075
116	0xbec316ca	-0.38103324
117	0xbe913d9e	-0.28367323
118	0xbf2f37ae	-0.68444335
119	0xbee5739c	-0.44814765
120	0xbee06f97	-0.43835136
121	0xbf372ac3	-0.71549624
122	0xbedbc291	-0.4292188
123	0xbe27a368	-0.16370928
124	0xbda5123b	-0.08060118
125	0xbf4f1d46	-0.8090404
126	0xbd8efc85	-0.06981758
127	0xbdb568ac	-0.08857855

mlp_encoder.norms.0.module.running_mean f4 [128]
0	0xbf90fec5	-1.132775
1	0x3deeff5f	0.11669802
2	0xbf154773	-0.5831215
3	0x3e269574	0.1626795
4	0x3f0d95eb	0.5530688
5	0x3e869b1c	0.26290214
6	0xbe81c1f5	-0.2534329
7	0xbf400eaf	-0.75022405
8	0xbf9c56a1	-1.2213937
9	0xbe24b4d0	-0.160846
10	0xbed73035	-0.42028967
11	0x3eddbfdb	0.43310437
12	0xbeb23902	-0.34809119
13	0x3eb9d72f	0.36296985
14	0x3f4861c5	0.78274184
15	0xbefc86b3	-0.49321517
16	0x3eee4460	0.4653654
17	0xbf36ff52	-0.7148334
18	0xbeaba95e	-0.33527654
19	0xbfaa012b	-1.3281606
20	0xbf02eeb6	-0.51145494
21	0xbf8d81d6	-1.1055248
22	0x3da510f8	0.08059877
23	0x3ddad266	0.106846616
24	0xbf37a17a	-0.7173077
25	0x3bacf721	0.0052784835
26	0x3eafbd6d	0.34324208
27	0xbf359f1f	-0.70945925
28	0xbf91ae9a	-1.1381409
29	0xbd5743d4	-0.05255492
30	0xbf924a16	-1.1428859
31	0xbf138599	-0.5762573
32	0x3e242e38	0.16033256
33	0x3e57b8e1	0.2106662
34	0x3f7d8b58	0.99040747
35	0xbf802084	-1.0009923
36	0xbef1dc3e	-0.47238344
37	0x3f963d29	1.1737415
38	0x40004352	2.004109
39	0x3f5f50fd	0.87232953
40	0xbed2a1f0	-0.41139174
41	0x3ef96970	0.48713255
42	0xbecd8f3d	-0.40148345
43	0x3e03e753	0.12881212
44	0x3f9b2f57	1.2123822
45	0xbe9bb5d9	-0.30412176
46	0xbfba8d2e	-1.4574335
47	0x3fabe233	1.3428406
48	0xbeffa350	-0.49929285
49	0x3d1f385f	0.03887212
50	0x3e47418b	0.19458596
51	0x3ec1325f	0.37733743
52	0x3f05bae1	0.5223828
53	0xbcfaaa61	-0.030598821
54	0x3df92553	0.12165322
55	0xbeabeed8	-0.3358066
56	0x3f4f21d1	0.80910975
57	0x3f67b3ac	0.9050853
58	0xbc8242cf	-0.015900997
59	0x3d7baba2	0.06144298
60	0xbefcc0de	-0.49365896
61	0xbf79565f	-0.97397417
62	0x3d3d95da	0.046285488
63	0xbe8e6a7a	-0.2781561
64	0xbf97c1fd	-1.1856076
65	0xbee157e9	-0.44012383
66	0x3f2be8d3	0.67152137
67	0xbf366016	-0.71240366
68	0xbcef9c9a	-0.029249478
69	0x3f4b929c	0.79520583
70	0xbeac6713	-0.3367239
71	0x3f2b4030	0.6689482
72	0xbd581738	-0.052756518
73	0xbe63eeb5	-0.22259028
74	0x3ee721ed	0.4514307
75	0x3e9bbe7d	0.3041877
76	0x3f9197de	1.1374471
77	0xbfde1c52	-1.7352393
78	0x3f090ff2	0.53539956
79	0xbf0071b0	-0.50173473
80	0xbf9dbc49	-1.2323085
81	0xbf22dd54	-0.6361897
82	0xbfd307a2	-1.6486704
83	0x3ee559a8	0.44794965
84	0x3f3ca841	0.73694235
85	0xbe30eec4	-0.17278582
86	0xbf6b1c1a	-0.91839755
87	0x3e891400	0.2677307
88	0x3f91bc53	1.1385597
89	0x3f0a8a1d	0.54116994
90	0x3f4458cb	0.7669799
91	0xbeb3e825	-0.3513805
92	0xbe8704d5	-0.26370874
93	0xbece3808	-0.40277123
94	0x3f38fdf3	0.72262496
95	0x3ef31104	0.4747392
96	0x3e277676	0.16353783
97	0xbf3fc873	-0.74915236
98	0x3fb50911	1.4143392
99	0x3f8a179c	1.0788455
100	0x3e4266ac	0.18984479
101	0x3f0e6c60	0.5563412
102	0xbe08420c	-0.13306445
103	0xbe139f71	-0.14416291
104	0x3d5daac6	0.05411794
105	0x3f1a5d8c	0.6029899
106	0xbf585e9e	-0.84519374
107	0x3dd40e55	0.10354296
108	0x3f84e803	1.0383304
109	0x3ebbb84d	0.36664048
110	0xbe36bdc6	-0.1784583
111	0xbf9b32e5	-1.2124907
112	0x3f87fc5c	1.0623889
113	0x3fb3a95f	1.4036063
114	0x3cb3151d	0.021860654
115	0x3e015494	0.1262992
116	0x3c41f2c3	0.011837664
117	0x3f8cdde5	1.1005217
118	0x3ee44ebf	0.44591329
119	0xbf8eccca	-1.1156247
120	0x3e213e7b	0.1574649
121	0x3eddfc0a	0.43356353
122	0xba9b0cb4	-0.0011829347
123	0xbe74d53f	-0.23909472
124	0x3e1501f1	0.14551522
125	0x3f1e4c3a	0.6183506
126	0xbfd4e1ec	-1.6631446
127	0xbf57fc26	-0.84369123
