runs/StudentModel_Baseline_01122201/student_best_mae.pth (torch, 361028 bytes, 47 tensors)

discrete_embedding.embedding_layers.0.weight f4 [7, 6]
00000000: 2fb0 9b3e 6552 103f 5333 d1bd a86c d4be
00000010: 198d 143e e81a 3dbd 7dcf e2be 04ea 5a3c
00000020: 17a4 d33e c51c 13be 4ac2 443f 079b c03e
00000030: 96f9 e53d 3f2f 8f3d 5140 9d3c cc8b 6dbc
00000040: 19e9 82be f96f a43d faad 893d a808 b3be
00000050: 65fb 7d3e 609d b5be c037 ef3e 18be 893e
00000060: 0141 4e3e 5590 63bb f4c5 c0be ee60 743d
00000070: 1318 573e 27c3 e83e d5ad fbbd 4704 35be
00000080: 1db7 8bbd 0dd6 dbbe 8877 243e 5b11 0e3f
00000090: 5b97 1abe 2c4d 64be 107c c3be 62e0 43be
000000a0: 575f 6c3e 2dda 183e
0.30407855 0.56375724 -0.102148674 -0.41489148 0.1450695 -0.046168238 -0.44298926 0.013361458
0.41336128 -0.14366443 0.7685896 0.37618276 0.11229245 0.06991433 0.019195708 -0.014498662
-0.25568464 0.080291696 0.067226365 -0.34967542 0.2480293 -0.3547163 0.4672222 0.26902843
0.20141985 -0.003472348 -0.37651026 0.05966275 0.21005277 0.4546139 -0.12289015 -0.17677413
-0.068220355 -0.42936745 0.16061223 0.5549523 -0.150968 -0.22295064 -0.3818059 -0.19128564
0.23083244 0.14926977

discrete_embedding.embedding_layers.1.weight f4 [2, 1]
00000000: 845b 14bf 20f9 2abc
-0.5795214 -0.010435373

discrete_embedding.embedding_layers.2.weight f4 [2, 1]
00000000: 310f a33e 65f6 96be
0.31847528 -0.2948486

discrete_embedding.embedding_layers.3.weight f4 [3, 2]
00000000: 7067 0fbf f661 aebe b794 a4bc 31a2 cd3e
00000010: 8ca9 fb3e 9c4e a0be
-0.5601721 -0.34059113 -0.020090444 0.40162805 0.49152792 -0.31309974

mlp_encoder.lins.0.weight f4 [128, 14]
00000000: 7b8b 00bf 2ddd 363d 2057 7a3d 7530 bebf
00000010: 76d5 0cbe 5413 a33e 8d8f 813d 8f91 e23e
00000020: cc2f 713e ab8c 023e d82f 833e c743 0d3e
00000030: 3316 5d3e 43b3 843e 31f2 ea3e 9b6a 883b
00000040: 62e1 8fbf a30f 26be e243 b3be f05b e23d
00000050: 1ae5 1a3e 191d 42be c36f 863e d2c3 f43e
00000060: 1060 04bf d89a 4abe 7e28 00bd 3a67 b4bd
00000070: 4556 6fbf 1659 593f 4b8e 323f 4368 1b3d
00000080: ca66 273e 037c fe3e cfb4 97bd e6e5 1dbe
00000090: 01ef 6bbe 443e 6abd f300 85be 92af 7abd
000000a0: 4f4d 22bd a5d5 d2be 1852 71be 9e2c 9f3b
000000b0: 54b1 52bf f351 9f3e 34dd 1dbe 3cec 953d
000000c0: f026 de3e 5a4f 12bd 64cf 083f 70e0 043f
000000d0: ca95 1a3f 9720 f43e 03ba b93e 8a65 9b3e
000000e0: 23fe 343f cba8 8bbf f8fd 17bd ca1f a53d
000000f0: 418a 683e 5b3e 2f3e a882 e0be bee6 01bf
00000100: 60e2 a4bd f02a 613e 02da bebb 2977 4b3e
00000110: c5c7 6fbe 6f91 eb3d 2c14 b7be dae7 a03a
00000120: 34a2 fc3d 1140 523f 7750 dfbe ec3b ab3e
00000130: 613f 6f3e 7e37 373d 2517 8c3c 0df0 9a3e
00000140: bbd3 8abe 89cf 42bf 3b9a 19be 8935 673e
00000150: 73b4 7ebe 7c5b 863e d927 eebd f012 cbbf
00000160: e31b 1c3e 9eed b8bc 13e4 98be 6a00 a03d
00000170: bb5c 543d 657c c0bd 5b0d 813d 0c9c 9bbb
00000180: 5527 853e 3d1d 673e 4e0e 60bf cd6d 9dbc
00000190: 5a10 693f c8e7 ba3d b6e2 f83d 86c5 b73e
000001a0: 121d 9fbe 725d 323e 2299 04be fb35 43bd
000001b0: 7d97 e33e 07b0 32be f99b f43e 17f6 c63e
000001c0: 9883 a0bf 76e5 0c3f 89c7 c33e 525f 333d
000001d0: 3c9b ffbe ace8 1fbe e1b6 2bbf ecd4 753e
000001e0: 5d01 a0be 9028 fabd f966 543d f190 223e
000001f0: 3a18 42bd d743 143e 9473 8fbf ca00 313f
00000200: 5348 b93e 2d0f b9bd ceb9 99be 5173 de3e
00000210: b3a6 9abd 39f8 6ebd 0896 c5be bb1b d93d
00000220: 0f06 29bf 6a24 54be 33a8 7abe 5a17 c6be
00000230: 0a71 26be c8a1 f73d f598 063f aa71 483e
00000240: 7562 f8bd 3ad2 eb3d 29b7 e03e 37c5 5b3d
00000250: 65b0 c5be d77c 653e 8743 e03e 2b38 2f3f
00000260: 57ea ba3e e897 01bf ee5d a93e 52aa 793f
00000270: a73e 3fbf 1384 c6be 5ad9 553e 59b8 5bbd
00000280: c878 393e 9a8c 36bf 7a3e bc3e c44e a9bc
00000290: 005a 9ebd b00a 92bd 00ea bf3e f87c 8b3e
000002a0: 77cc 28bf 2e94 1c3f ba80 3f3e 6b9c 8cbf
000002b0: d7f3 413e a428 e0be b735 5bbc 9918 d3be
000002c0: 5cf4 1dbe 4ff8 8e3e 8392 c63e a5b4 183e
000002d0: 1c49 973e 210c 35be 71c5 223e 0f5b fabe
000002e0: c2a7 833e 6afd 463d 21af 093e f745 c8bc
000002f0: d5c8 05bc 17b7 57bd b53c 96be 81f6 1bbe
00000300: 9ccd 593f 0340 583f abc6 9a3c 7b49 273e
00000310: 3ef7 103d 3b81 933e cbae 2bbf 6363 2d3f
00000320: cb1b 203e afea a73c 3313 fd3e e05d b1be
00000330: a267 053f 332d adbe 360e 93be dc72 d1be
00000340: 7a70 99be 7b54 983e defd fdbe 2abc 56be
00000350: 8a5c fd3e cdb5 1bbf 4fbc ee3e c6e4 28bd
00000360: 58eb 8fbe f027 8f3d 886e e63c 88f3 4b3f
00000370: 90c1 fb3e 4420 dfbe b921 123e b0ff 373e
00000380: d5ad 01bf 1af0 883e 1e81 7abf e3c3 653d
00000390: f38a 203f eb0f 48bf 0519 803d a247 a2be
000003a0: 07bc 0e3f 3b6f b33e 482d 1fbf 09fc 28be
000003b0: 06c2 d83e e25d d7bd b8c1 08bf f7d4 f63e
000003c0: 4f58 32bf d55a 18bf aa3d c53c f60c b9bc
000003d0: 142e 023f 2144 f9bd 3345 a03e baea 2b3e
000003e0: 5519 4c3e d948 63bc d5d3 993e 2dc5 853e
000003f0: 4137 0cbf 581d 77bf 94b7 3d3f f8ee d63d
-0.5021283 0.044644523 0.061118245 -1.4858538 -0.13753304 0.31850684 0.06326208 0.44251677
0.2355339 0.12748973 0.2562244 0.13795386 0.215905 0.25918016 0.45887902 0.004163099
-1.1240656 -0.16216902 -0.35012728 0.11052692 0.15126458 -0.18956412 0.26257142 0.4780565
-0.5170908 -0.1978563 -0.031288616 -0.088087514 -0.9349101 0.8490156 0.6974837 0.03794123
0.16347805 0.49703988 -0.074075334 -0.1541973 -0.23040392 -0.057188287 -0.25977287 -0.061202593
-0.03962451 -0.41178623 -0.23566473 0.0048576137 -0.8230183 0.3111721 -0.15416414 0.07320449
0.43389082 -0.035720207 0.5344145 0.51904964 0.6038481 0.47681114 0.36274728 0.30350906
0.7070028 -1.0910887 -0.037107438 0.08062704 0.2270899 0.1711363 -0.43849683 -0.5074271
-0.0805099 0.21989036 -0.0058243284 0.19869675 -0.2341605 0.11502349 -0.35757577 0.0012276128
0.12335625 0.8212901 -0.43616077 0.33444154 0.23364021 0.044730656 0.01710088 0.3026127
-0.27114663 -0.76097924 -0.1500024 0.22579016 -0.24873523 0.26241672 -0.11628694 -1.5865154
0.15245013 -0.022574242 -0.29861507 0.07812579 0.051846247 -0.093987264 0.063013755 -0.004748827
0.2600657 0.22569747 -0.8752183 -0.019217396 0.91040576 0.0912624 0.12152617 0.35892886
-0.31076866 0.17418459 -0.1294904 -0.0476589 0.44451514 -0.17449962 0.47775248 0.38859627
-1.2540159 0.5503763 0.3823817 0.043792076 -0.49923122 -0.15616101 -0.67075926 0.24007004
-0.3125104 -0.12214768 0.051856015 0.15875603 -0.047386386 0.14479004 -1.1207147 0.6914183
0.36187991 -0.09036098 -0.3002457 0.43447354 -0.075513266 -0.058342192 -0.38591027 0.10600992
-0.6602487 -0.20717016 -0.24478225 -0.3868969 -0.16254058 0.12091404 0.52577144 0.1957461
-0.12128154 0.11514707 0.4388974 0.053654876 -0.3861114 0.22410904 0.4380152 0.6844508
0.36506912 -0.50622416 0.33079475 0.97525513 -0.74704975 -0.3877264 0.20883694 -0.053642605
0.1811248 -0.7130829 0.36766416 -0.020667441 -0.0773201 -0.07130945 0.37483215 0.2724378
-0.6593699 0.61163604 0.18701449 -1.0985235 0.18940674 -0.43781006 -0.013379506 -0.41229704
-0.15425247 0.2792382 0.38783655 0.1491266 0.29547966 -0.17680408 0.1589563 -0.48897597
0.25713927 0.04858152 0.13445713 -0.024447424 -0.008165558 -0.052664842 -0.2934319 -0.15230753
0.8507936 0.84472674 0.01889356 0.16336624 0.03539204 0.28809533 -0.6706359 0.6772978
0.15635602 0.020497648 0.4942871 -0.34641933 0.52111256 -0.33823547 -0.2872178 -0.40907943
-0.29968625 0.29751953 -0.49607748 -0.20970216 0.49484664 -0.6082428 0.46628043 -0.0412338
-0.2810924 0.06990039 0.028128877 0.79668474 0.49171114 -0.43579304 0.14270677 0.17968631
-0.5065587 0.26745683 -0.9785327 0.056095015 0.6271202 -0.7814929 0.06254772 -0.31695276
0.55755657 0.350458 -0.6217847 -0.16502394 0.42335528 -0.105159536 -0.5342059 0.48209354
-0.69666 -0.595136 0.024077255 -0.022589188 0.5085156 -0.12171198 0.31302795 0.1678876
0.19931538 -0.013872349 0.30044428 0.26126996 -0.5477181 -0.9652915 0.74108243 0.104947984

mlp_encoder.lins.0.bias f4 [128]
00000000: b6a7 353c 32c6 10bf d2e1 4fbe 1dbd e13d
00000010: 5a99 053e 0c23 12bd 8435 2f3f 33aa 0c3e
00000020: 5bab bebe 488b af3e d242 aebe 19b0 2dbe
00000030: df83 d33e 66e1 4f3f 3d19 973e 583a 5a3e
00000040: 4a21 543e 7647 98be 8599 a93a 584f 2ebf
00000050: 436f 063d a14b 33be ced5 43bf 4130 f0be
00000060: 26c1 ad3e 426b f0bd 5fb4 03be a36c 97be
00000070: d12c 45be fde5 ba3e 8b58 aa3d cdfd d7be
00000080: 0838 073f a37a ae3e 96b3 4d3e 163f d7be
00000090: c4fb 91bf 89bc 9f3f 958c d53e 1db5 8c3f
000000a0: 32aa bf3e 265f 5c3e c3c4 03be 73a2 153f
000000b0: e57f de3e 4f99 513e 46d0 5bbf 84c2 a43e
000000c0: 164a 38bf 05ee 623e 816d e53e 2491 d43e
000000d0: 2a7b 743e 3bc5 b33c b401 0f3f 60a3 253f
000000e0: 039f 2b3f b894 ab3e c2cd 36be c632 f2be
000000f0: 9bb7 743e fa60 f5be 3f2d fabe 2b8c 02bf
00000100: 05e7 9cbe eba9 6e3d c16c 953d a24f 1bbf
00000110: 5567 66be 933d e23d ce3d 7a3e 51ea 203e
00000120: f5d5 533e 8d42 0cbf 4928 a63e 1d0f 4d3f
00000130: eef7 233e 87a8 13bf 929d 933e 7074 dfbe
00000140: 3b21 3abf 0678 54be 492e 49bf 1ffd adbe
00000150: 7b23 093e 5bd5 1abe 0008 7b3e 85e6 833d
00000160: 88b3 ab3e 5820 0a3f 2fc6 943d c177 d83d
00000170: c50b e5be 045a 81be 4ec8 343f 3e17 803e
00000180: 6b0e 3f3f 7ae7 0e3e d461 603f 4392 123f
00000190: 20e4 de3e edfd 11be ba37 a73e f45e b1be
000001a0: b394 8abd df06 2cbd ea20 48be 144b c93e
000001b0: 27d4 fb3e e057 d7be 3a07 1f3e cdda 01bf
000001c0: a7ef cc3e 11ed b93f ceb0 dbbd d0f5 ddbd
000001d0: d577 eabe 89e3 c73d 1170 73be 5b0e 85be
000001e0: 3478 733e 8abe 3a3f b600 34bf 7714 613e
000001f0: 4125 02bf eef5 043f 02b1 5abf c4e4 72be
0.011087349 -0.5655242 -0.20300987 0.110223986 0.1304678 -0.035677955 0.68441033 0.13736801
-0.3724011 0.3428595 -0.34035355 -0.16961707 0.41311547 0.81203306 0.29511443 0.21311319
0.20715824 -0.2974202 0.0012939429 -0.6808982 0.03282095 -0.17509319 -0.76498115 -0.46911815
0.33936423 -0.11739208 -0.12861775 -0.2957507 -0.19255377 0.36503592 0.083176695 -0.42185822
0.5281987 0.3407794 0.20088038 -0.42040318 -1.1404958 1.2479411 0.41708818 1.0992771
0.37434536 0.21520671 -0.12868027 0.58451 0.4345695 0.20468639 -0.85864675 0.32179654
-0.71988046 0.2216111 0.44810107 0.41516984 0.23875108 0.021944633 0.55861974 0.64702415
0.6703951 0.335119 -0.17851928 -0.47304362 0.23898165 -0.4792555 -0.48862645 -0.5099513
-0.30645004 0.058267515 0.07296134 -0.60668385 -0.22500356 0.110469006 0.24437639 0.15714385
0.20687087 -0.5478905 0.3245261 0.80101186 0.16012546 -0.5767903 0.28831154 -0.43643522
-0.72706956 -0.2074891 -0.7858625 -0.3398218 0.13392441 -0.15120451 0.2451477 0.064404525
0.3353541 0.539556 0.07264363 0.10569716 -0.44735542 -0.2526399 0.7061814 0.25017732
0.74631375 0.13955489 0.87649274 0.5725443 0.4353342 -0.14257021 0.32659703 -0.34642756
-0.067666434 -0.04199874 -0.19543806 0.39315093 0.49185297 -0.4205923 0.155301 -0.5072449
0.4002659 1.4525472 -0.10727082 -0.10837901 -0.4579455 0.09760196 -0.23773219 -0.25987515
0.23776323 0.7294699 -0.70313585 0.21980463 -0.50838095 0.5193776 -0.8542634 -0.2372008

mlp_encoder.lins.1.weight f4 [128, 128]
00000000: 437e 18bf a8e5 8bbe 7ceb f0be cbb0 263e
00000010: 20d4 d63e 9151 043d 392d 0bbf c7b9 0bbe
00000020: 8894 81be b42f a2be d9b7 8abe b219 05bf
00000030: 7388 44bd d94e ae3e 084e 8d3e 3ad9 623b
00000040: f398 83be 4e7d 11bf ee56 aa3e afc5 403e
00000050: 0bec 163e d5c2 e63e 7b6e 1dbd 3853 713e
00000060: 7bfe 07bf 5255 993d ca74 c53d b36a a4bf
00000070: e59f 8a3e 5270 b13d 934a 9bbe 58ed 283e
00000080: af90 083e 4403 3dbe daac 05bd 28aa 903e
00000090: 5e63 5a3c a6e9 1c3f e339 11be a636 11be
000000a0: 496c fa3c 0819 d43c 2b9e 1fbf 62bb 0cbe
000000b0: b70a 95be c9ad 1d3e 5167 b9be 4fac 66be
000000c0: 7f66 173d 92d2 403e 5f85 c3be b5fd 3fbc
000000d0: 3bcf 90bd d2d7 81be f41f 27bf fc07 f73d
000000e0: 55cb 4d3e 276c 093e 1774 193e e9a3 d23d
000000f0: 6ce9 ed3e 4944 77be c183 9a3d 467a 463d
00000100: eff1 83be 95d2 01bf 630c 033e fc0c 913e
00000110: f384 723e e267 0b3d e2f6 febe 7465 c43e
00000120: 27b6 303d 9fdc a1be b001 5dbe 714b 91bf
00000130: 8fd1 9abe b4c2 c53c 1ca9 14be 144e 65be
00000140: 3214 52be 1b37 3c3d 6589 2c3e 467a b7bd
00000150: 4973 013f 93a3 823e de9e 13be 77bc 173e
00000160: f9a5 263c 158c 4a3e 80c9 dfbe 3e52 8bbf
00000170: fb2e 5e3e 974a e6be cffe 393e 6450 05be
00000180: 02a9 1bbf 27aa d03c 962d 99be 81bb 5a3d
00000190: 42e5 493e 3645 bf3e c64e 083d 7263 c8bd
000001a0: 796c 433e 1cbf babd d62e 75bd 22cb aabd
000001b0: 4bb1 173e 60c8 293e 3eab 7ebe 2200 0e3d
000001c0: 3831 993d d0ea a13e b873 86be 5d28 1ebe
000001d0: 35cc 863b e3cf bf3d e96c b7bd f66c 86be
000001e0: 219d 0a3c 5765 08bf ef82 583e 14dc c93d
000001f0: 1fb9 16be e484 813c d0a4 b53e d2d1 72be
00000200: 5f8f 15bf 0d87 97be 6b6a fc3d 33e6 76be
00000210: 56da 9cbf 0717 d4bc 8101 09be abc4 55be
00000220: 276f cdbc e2d0 e73e d1e0 72be 9fd0 74be
00000230: 3fea 763e 6b31 18bf 1542 0d3f c76b 46bd
00000240: 5211 37bd 7bfc 01bd fa5c 69be 076b abbe
00000250: 9299 e3be 2a8d 393f ceea 36bf 2bdd 10bf
00000260: 17e5 053e cbce 803e 515d 86bf 0775 de3e
00000270: 2184 dd3d 08af ab3e 00de 1bbf cc46 eebd
00000280: c396 b83e f570 92bd 321b 96bf ff99 43bd
00000290: 7342 bbbe d6d6 043f 06a0 983d 7a19 c23e
000002a0: 6dab 3bbe 0e58 213f 4b1f 62be e3e1 f83e
000002b0: d562 c9be 6d9a 5e3e efca 99be 79f9 87bd
000002c0: 3fa4 e5bd 3244 273f 0442 2abe cd81 bf3d
000002d0: 4f3b 1ebf dee0 81be 20c9 12be 35d6 6cbb
000002e0: f280 b5bd e39d 8d3e dfaf 33be 537c 4cbf
000002f0: 9706 583f 868c f8be 3366 26be 9adc c83d
00000300: c492 e7be 68f3 9a3d 07ce 63be 8085 52be
00000310: b525 503e 7a6a 59bf 5832 1c3f 5ff3 65bf
00000320: e0b9 1c3b 54f8 fcbe 1f10 e6be 82e2 703e
00000330: 3d2e d9be d967 6d3e c6e7 54bd 4878 2e3e
00000340: 04a7 953e d3dc a13e 8c0c d73c fcdd 6abc
00000350: e857 e53d f23b d3bd 207a d7be 6371 913e
00000360: 7af8 8fbe 5c95 d33e df05 f1be b1ba 523e
00000370: a487 ffbe f6b3 9abe e9b3 ce3e 093e a73d
00000380: a60c 123f dd5d 5c3b be67 f13c 1c92 1abf
00000390: 29b9 8dbe 3d77 04bf 9976 da3a 4d84 9ebd
000003a0: 00e9 ec3e 6ea7 90bd d92b 4b3d 5a78 d7bc
000003b0: ad09 d6be 3516 a0be 4302 83bd 326d 133d
000003c0: 2c36 313e 1a2a d8be 6428 303f 6561 6a3e
000003d0: f2ab f63d b828 d4be c914 433e de16 e5bd
000003e0: 9bb0 bd3e 5eb7 4abe 0e90 b73d e8e5 253e
000003f0: 6bed 92bd 7dd6 0e3f b509 2bbf cf21 aa3d
-0.5956766 -0.2732365 -0.4705466 0.16278379 0.41958714 0.03230435 -0.5436588 -0.13645087
-0.25308633 -0.3167702 -0.2709339 -0.5199233 -0.04798169 0.3404453 0.27598596 0.003461434
-0.25702628 -0.56831825 0.33269447 0.1882541 0.14738481 0.4507052 -0.03843544 0.23566902
-0.5312268 0.07486977 0.09641416 -1.2845062 0.27075115 0.086640015 -0.30330333 0.1649679
0.13336442 -0.18458277 -0.032635547 0.2825482 0.013329355 0.6129402 -0.14182238 -0.14181003
0.030569213 0.025890842 -0.6235072 -0.13743356 -0.29109737 0.15398325 -0.36211637 -0.22526668
0.036962982 0.18830326 -0.38187692 -0.011718203 -0.07070776 -0.2535997 -0.6528313 0.1206207
0.20097096 0.13420163 0.14985691 0.1028517 0.4646715 -0.24147142 0.07544661 0.048456453
-0.25770518 -0.5071195 0.12797694 0.2833022 0.23683529 0.034034617 -0.49797732 0.38358653
0.043142464 -0.31613633 -0.21582675 -1.1351148 -0.30238006 0.024140693 -0.14517635 -0.22393066
-0.20515516 0.04595099 0.16849287 -0.08958869 0.50566536 0.25515422 -0.14416072 0.14817987
0.010171407 0.1978 -0.4370842 -1.0884473 0.21697609 -0.44978783 0.18163608 -0.13018948
-0.6080476 0.02547176 -0.29917592 0.053401474 0.19716361 0.3735749 0.03327825 -0.09784593
0.19084348 -0.091184825 -0.05985912 -0.08339526 0.14813726 0.16580343 -0.24870011 0.034668095
0.07480091 0.3162446 -0.2626016 -0.15445085 0.004113699 0.09365823 -0.0895632 -0.26255006
0.008460314 -0.5327963 0.21143697 0.0985643 -0.14719056 0.015810438 0.35477304 -0.23712853
-0.5842189 -0.29595223 0.12324985 -0.24111252 -1.2254131 -0.025889887 -0.1337948 -0.20875804
-0.025077416 0.45276552 -0.23718573 -0.23907708 0.24112795 -0.59450406 0.5517896 -0.04844263
-0.044694252 -0.031734925 -0.22789374 -0.33480093 -0.44453102 0.72481024 -0.71452034 -0.56587476
0.13075672 0.2515777 -1.0497228 0.4344866 0.10816217 0.33531976 -0.6088562 -0.11634597
0.36052522 -0.07150451 -1.1727049 -0.047754284 -0.36574134 0.51890314 0.07452397 0.37910062
-0.18327112 0.63024986 -0.2208225 0.48609838 -0.39333215 0.21738596 -0.3003764 -0.0663938
-0.11212968 0.6533843 -0.16626745 0.093509294 -0.6180925 -0.25366873 -0.14334536 -0.003613842
-0.08862485 0.2765952 -0.17547558 -0.79877204 0.84385055 -0.4854471 -0.16249923 0.098077014
-0.4522916 0.07565957 -0.22246562 -0.20558739 0.20326884 -0.84928095 0.6101432 -0.8982448
0.00239145 -0.4940821 -0.44934174 0.23523906 -0.4241809 0.23184146 -0.05197885 0.17038071
0.29228985 0.31613788 0.0262511 -0.014335152 0.111984074 -0.10314168 -0.4208536 0.2840682
-0.2811926 0.4132489 -0.47074792 0.2057903 -0.49908173 -0.30215424 0.40371636 0.08166129
0.5705055 0.0033625283 0.029468413 -0.60379195 -0.27680328 -0.51744443 0.0016667425 -0.07740078
0.46271515 -0.07063185 0.049602363 -0.026302505 -0.41804257 -0.31266943 -0.06396916 0.03599281
0.17305821 -0.4221962 0.6881163 0.22888716 0.12044515 -0.41437316 0.19050898 -0.11186002
0.37048802 -0.19796512 0.08963023 0.16200984 -0.0717419 0.55796033 -0.66811687 0.0830723

mlp_encoder.lins.1.bias f4 [128]
00000000: 71e0 bfbe 82b5 e53e 9177 673c 1cb6 b63e
00000010: 3aff 50be 4ba0 ea3c ae30 523e ff51 2a3f
00000020: 6e3b a83d 3c8a 92be f912 81bc f08b aebe
00000030: ab8d 2b3e d861 a8be 6be8 a13d 405d 063f
00000040: b399 ec3e 3b60 9f3e be10 833e e5ec 5f3d
00000050: 969c c23e 5218 2ebd 05d8 fbbe cc38 e9be
00000060: 272c 173f 59c1 7e3e 6e90 4e3d 0dd6 ea3e
00000070: dca7 623e 2672 9abc 63ff 6dbd db14 e33e
00000080: 487d 793e 1bd5 693d fbc9 79be ced2 233f
00000090: fff7 3cbf 7f49 67bd 5b35 043e a73b 093e
000000a0: 7c6c f73e 041a c83e 536f 30bf 7322 003d
000000b0: e808 233f 19cc 823e dc20 f43c cc2a 893d
000000c0: 8423 243e 50e4 01bd c1f8 9abe 0f2a 1d3e
000000d0: 0252 d6be 8426 5d3d 7cfd 35be 70f3 783e
000000e0: 6e47 ab3d 92f1 c6be 97a2 973e 2293 8bbe
000000f0: f9e2 9bbe 7488 14be 9954 213c 0dea 1f3e
00000100: 3b54 b73c 0251 fb3e 1620 453e f12c 3f3e
00000110: a874 9bbd 7ed1 a93e b278 573e 72ab 24bf
00000120: f174 b93d 9e3c 403d 4325 0d3f 3621 e3bd
00000130: 651c 9ebc 650b 593e 1c20 fd3e 1406 abbd
00000140: 3b83 793e 1758 0ebf 3e76 f43e f3ff 3abe
00000150: c202 f43e d04a 633e 4dee 763e f63d 2c3f
00000160: a87b 73be 484d 62be 02bc 86be fa20 c53e
00000170: 1c13 e83e 3e9b 563f b82f 9d3e 1a44 1f3e
00000180: 4c7b fe3d e696 ed3e 42d3 28bf 96e2 0cbf
00000190: ba92 ae3d 96c6 1b3e 9255 ccbd c184 0abf
000001a0: 5474 253e 7d24 b6be b1c5 74be 6f07 0ebe
000001b0: 30e2 f9be db64 edbe 58d8 cdbe ba82 163f
000001c0: 8902 3f3e c0c4 623d 83cb fcbe 17c1 34be
000001d0: e85f d9be 8915 ac3e b6a7 a7be cc38 df3c
000001e0: a424 1f3a bd97 9b3d c956 473e 41ce de3d
000001f0: e1bb ee3e b09a 9dbe f4dc 4c3e 4802 bbbe
-0.37475923 0.44865042 0.014127628 0.35685813 -0.20409861 0.028640887 0.20526382 0.66531366
0.0821446 -0.2862109 -0.015756117 -0.3409114 0.16753261 -0.3288715 0.07905658 0.5248604
0.46211013 0.31128106 0.2559871 0.05466928 0.3801009 -0.042503662 -0.49188247 -0.45551145
0.59051746 0.24878444 0.050430708 0.45866433 0.22134346 -0.018853258 -0.058104884 0.4435185
0.24364197 0.057088 -0.24393456 0.6399354 -0.7381591 -0.056466576 0.12910978 0.13401662
0.48324955 0.39082348 -0.6891987 0.031282853 0.63685465 0.2554634 0.029800825 0.06697616
0.16029173 -0.031711876 -0.3026791 0.15348075 -0.41859442 0.05399181 -0.17772478 0.24311614
0.083632335 -0.3885618 0.29616234 -0.2726069 -0.30446604 -0.14505178 0.00984683 0.15616627
0.022379031 0.49085242 0.19250521 0.18669488 -0.0759061 0.33167642 0.21042135 -0.64324105
0.09055508 0.04693281 0.5513498 -0.11090319 -0.019300649 0.21195753 0.4943856 -0.08350769
0.24366467 -0.55603164 0.47746462 -0.182617 0.47658354 0.22196507 0.24114342 0.67282045
-0.2377764 -0.22099793 -0.26315314 0.38501722 0.4532708 0.8383063 0.3070047 0.15553322
0.12425861 0.4640419 -0.65947354 -0.5503324 0.085240796 0.15212473 -0.09977259 -0.54108816
0.16157657 -0.35574713 -0.23903538 -0.13870023 -0.4880538 -0.4636601 -0.4020412 0.5879322
0.18653311 0.055363417 -0.49374017 -0.17651783 -0.42455983 0.3361018 -0.3274514 0.027248763
0.00060708285 0.07597301 0.194667 0.108791836 0.46627715 -0.3078208 0.20006162 -0.36525178

mlp_encoder.lins.2.weight f4 [128, 128]
00000000: 9d34 663e c8db 0fbf 9cc4 1dbf acb8 8fbe
00000010: c7ee d3be ab56 23bf b49f 913e 2d7d ff3d
00000020: 94f0 6d3e b5e9 9abe f800 c1be 2057 723d
00000030: ddd3 a9be de49 7e3e 5cd0 fabe bfd6 82be
00000040: 7082 16bf 60bd 053e 5bfd e5be d4c9 a5be
00000050: 4fb8 c1be 0198 a8be a5d0 84be a9d7 e8bd
00000060: 2af7 bd3d a285 d23e e37b e03d e821 2b3e
00000070: 9f50 bcbe 05a7 74be 9b79 943d 9688 9ebd
00000080: 6363 443e 472a 6abe 31a6 6a3d 6941 ab3e
00000090: 4a5d 5dbe 1398 d43c 5740 aabe cf66 fcbe
000000a0: c277 783e ca18 10bf 7510 13be 9423 6abe
000000b0: f70d e83d 7d4b 123e 7914 91be a00e c3be
000000c0: ef6e b7be d910 5abf 33ac 493d f1af 27be
000000d0: c7c2 1dbe 0ba1 1abe b43d e6bd d9e1 36bf
000000e0: 683b 2dbf 8048 7abe 93fb acbf eed4 2cbe
000000f0: a0d9 1a3d 40f5 0abd a3a6 1abf b4af b93e
00000100: e77e 8c3e ec1c 9f3d e294 cabd 1fc1 8e3d
00000110: 3e75 bf3d 5c95 d7be 8b2f 133e 6e59 c63d
00000120: 5085 a43d 7b03 bf3c eabd 4fbe 45a3 b33e
00000130: ca3d 99be c1fc a4be 724e 4e3e 2eb7 68be
00000140: 7751 40bd a391 77be 6d00 9cbe 35a8 243e
00000150: d75d c4be 44e9 cdbd 3e52 e8be 699c 25bf
00000160: aef7 cdbe a36b 83be 8d13 06be 6169 e3be
00000170: e4e8 053e 507f 10bf ca92 203e 0218 58be
00000180: 1549 3cbe d3ab b83e 6734 eabe 1459 d6be
00000190: 7eef c1be 86bb e6be 86d2 29bd 9538 a5be
000001a0: a8fb 1e3e ff16 603d 48d2 33bd 892b 46be
000001b0: 2d9e 803e de93 f53d 2e06 09bf 8300 b2be
000001c0: e7bc dcbe 68f8 3fbe 87a1 bd3b afd6 dbbc
000001d0: 9046 f83c 75c3 56be 620d a0be 1659 693e
000001e0: fc16 44be b000 bdbe de64 413e 94ba db3d
000001f0: ced9 1a3e 62c4 d93d 1694 9c3e 8d4a ca3e
00000200: 23ac c23d d170 33be a33f edbe 4aa7 26be
00000210: d255 3fbf 692e a0be f435 a83d 0793 863d
00000220: 6229 3ebd 9d46 6abe 9912 a4bd 0df2 a8bd
00000230: 0709 93be f8ba 3f3e a96c 8bbe 53ac 8c3d
00000240: 03c4 6dbe 5e54 4ebd 30c6 c1bd 166d 153e
00000250: 0744 75be eaab 7bbe 3de8 f1be bbea 61bd
00000260: 5f27 213c cb63 883e 66cb 6fbb f556 1f3e
00000270: a0aa 12bf b0f8 02be a9c0 aa3d ce21 9e3e
00000280: 2676 c03e a951 81be 51e4 093e ac06 c03e
00000290: 42d2 f0be d208 1d3e a694 b3be ba22 0f3d
000002a0: 22bf 5c3e cec6 23bc 44f3 70bb f722 14bc
000002b0: f1c5 74bd d4a2 653e 4b3e 2abf 7e35 b3be
000002c0: 729b 04be 2f73 0abf 9b01 183e 9380 e83d
000002d0: 074a 183e 52d4 733e facc d73d f946 dbbe
000002e0: a45d 21bd 235f 82bc bd8b 65bf c94b 84be
000002f0: 8a20 593e 1a54 e0be 52d6 c5be 97e7 4a3e
00000300: 6ad6 1c3d feb9 ee3d dd4a 333e 6bc8 323e
00000310: 7352 103e 47a8 d1be 45db 51bd e97c 233e
00000320: 26cc 373e 3d61 8bbd f7da 01bf 9a28 da3e
00000330: 94e6 0abe 9a97 cabe b7ef 783e 7adb c03d
00000340: ecf7 093e 5904 e33d 7759 f6bd d222 dbbc
00000350: cf8d adbe 57bf cdbe c08e debe a342 1ebf
00000360: b7e7 8abd 2c1f 503d b619 febe c911 85be
00000370: ac4c edbe 0670 adbe 0a9b 613e 5146 1cbe
00000380: f4f9 303e 2319 b23e 766d 92be 85f2 02bf
00000390: 2151 9d3d 0134 2dbf 08af 2ebe e547 52bc
000003a0: 49a5 e23d da7e 463e 98bb 323e 9af8 893e
000003b0: 4f3c 7bbd bd02 753e 663a 4abc cae5 693c
000003c0: 993a 5cbe b5aa b8bd 6a8c 8b3e 7cef eebd
000003d0: 9154 1f3e 7e3c 443e 26ed cf3d f213 393d
000003e0: 41c7 e4bd 77ec 0ebf 7e19 5c3e d034 853e
000003f0: 9095 693e 50e1 10be e425 233e efc8 973e
0.22481008 -0.56194735 -0.6162813 -0.2807058 -0.4139311 -0.6380412 0.28442156 0.12475047
0.23236305 -0.3025643 -0.37696052 0.05916512 -0.3316945 0.24832866 -0.4898709 -0.25554463
-0.5879278 0.13060522 -0.44919857 -0.32380545 -0.3783593 -0.3292847 -0.25940433 -0.11369259
0.092756584 0.4111758 0.109611295 0.16712153 -0.3678026 -0.23891838 0.07249757 -0.077408955
0.19178538 -0.2286769 0.0572874 0.3344834 -0.21617618 0.02595142 -0.33252212 -0.49297187
0.24264434 -0.56287825 -0.14361747 -0.22865134 0.113307886 0.14286609 -0.28335932 -0.38097095
-0.35826823 -0.8518196 0.049236488 -0.1637571 -0.15406333 -0.15100496 -0.11242238 -0.71438366
-0.6766877 -0.24441719 -1.3514274 -0.16878101 0.0378052 -0.033925295 -0.6041052 0.36266863
0.2744057 0.07769188 -0.098916784 0.06970429 0.09348534 -0.4210614 0.14373605 0.09685026
0.0803324 0.02331709 -0.2028729 0.35085502 -0.29929954 -0.32224086 0.20147112 -0.22726128
-0.04695269 -0.2417665 -0.30469075 0.16079791 -0.38352844 -0.100542575 -0.45375246 -0.6469179
-0.40228027 -0.25668058 -0.13093396 -0.44416335 0.13077122 -0.56444263 0.15680996 -0.21102908
-0.18387254 0.3606859 -0.45743105 -0.41864836 -0.3787803 -0.45064944 -0.041460536 -0.3226973
0.15525687 0.05470943 -0.04390171 -0.19352545 0.2512068 0.11991094 -0.53525054 -0.34766015
-0.4311287 -0.18747103 0.005787078 -0.026835768 0.030307084 -0.20972998 -0.3126021 0.2278789
-0.19149393 -0.36914587 0.18886134 0.10728946 0.15122148 0.1063316 0.3058173 0.39510003
0.09505489 -0.17523505 -0.46337613 -0.16274753 -0.74740326 -0.31285408 0.08213416 0.06571012
-0.046426184 -0.228785 -0.0801136 -0.082492925 -0.28717825 0.18723667 -0.2723134 0.06868806
-0.23219304 -0.050373428 -0.094616294 0.14592394 -0.23951732 -0.24577299 -0.47247496 -0.055155497
0.009836047 0.26638636 -0.003658974 0.15560515 -0.57291603 -0.12790179 0.08337528 0.30885166
0.3759014 -0.25257614 0.13466002 0.3750509 -0.47035414 0.15335396 -0.35074347 0.034945227
0.21557286 -0.009996129 -0.0036766091 -0.009041539 -0.059759084 0.22425395 -0.665013 -0.3500175
-0.12949923 -0.54082006 0.14844362 0.113526486 0.14871989 0.23811463 0.10537143 -0.42827585
-0.039395943 -0.015914505 -0.8966635 -0.2583907 0.21203819 -0.43814164 -0.38640076 0.19814907
0.03829042 0.11656569 0.17509027 0.17459266 0.14093952 -0.40948698 -0.051234502 0.15965618
0.1794897 -0.06805656 -0.5072474 0.42609102 -0.13564521 -0.39568788 0.24310194 0.09416862
0.13473481 0.110848136 -0.12028783 -0.026750002 -0.33897254 -0.40185043 -0.43468285 -0.6182043
-0.06782477 0.050810978 -0.4962899 -0.25990131 -0.46347558 -0.3387453 0.22031799 -0.15261199
0.1728285 0.34784803 -0.28599137 -0.51151305 0.0768149 -0.67657477 -0.17058957 -0.012834524
0.11066682 0.19384328 0.17454374 0.2694748 -0.06133681 0.23926826 -0.012343025 0.014275977
-0.21506728 -0.09016935 0.27255565 -0.11666772 0.15559603 0.19163701 0.10152654 0.045185037
-0.11170817 -0.55829567 0.214941 0.26016855 0.2281096 -0.1414845 0.15932423 0.29645488

mlp_encoder.lins.2.bias f4 [128]
00000000: 58ef 98be 2c02 62bd f3b4 373d 8948 4b3e
00000010: d459 90bd 9ba5 2d3d cd9c 83be eec8 d1be
00000020: 7f2a 83bf 5823 ea3e 7a70 1bbf 5002 29be
00000030: 6f59 35be c25d 10be a88f ec3a a41d abbe
00000040: 161d 55bd 1518 a4be 61f3 973e 9174 e43e
00000050: 0bc4 b3be 3463 8a3e 8f4d eebd 4801 213d
00000060: 3be1 753e f47c a03e b052 763e 4e28 4ebe
00000070: 1bad d4be 22c6 eebe 2870 7dbe 9a26 393f
00000080: 4d66 b5bd 6f49 c4bd b815 2cbe f9ef 5abe
00000090: 073d 55be 4f28 533e c362 d73c d425 6d3e
000000a0: 4d4d e13c eb6d 3a3f c9c7 a83e 6c90 e9be
000000b0: 3c4f 5c3e 321e 45be e23a cd3d b19d 88bc
000000c0: 7c9a 00be 253a a6be cad6 a03e b97f 893e
000000d0: 4de6 79be 50a1 f43d aebb 523e 3c5e 813e
000000e0: 0d9c ecbe a0bb fb3d 9f0c fabd 5b10 723d
000000f0: 050e c8bd 6333 18be 6006 2bbe c869 8ebe
00000100: 7bb6 b43e 4043 403e 6b2c a73e ce2c a8be
00000110: cd09 2d3e c66f 60bb 2eb4 063d d2c6 89be
00000120: ea3a 943e 7988 cc3d 1f4d debd 6fc0 afbe
00000130: d58b 133e 64b6 c0bd 6529 3a3d 23ad d23e
00000140: 5fed a3be 00f7 47be efa7 263e 3449 b2bc
00000150: 7fbb dfbd fdab dbbe 066b a23e 0dee a03e
00000160: c6d3 28be 8259 213f 5098 25be 1774 cf3e
00000170: c2eb 19be 3887 b0be 9094 1ebf 51ce dabe
00000180: e2c6 593e a44c b1be 783b c93b d576 2a3d
00000190: e706 893e 590b d23d bf23 853e e08f 473f
000001a0: ec8c 9a3e 8455 4dbe f4d7 18bd a5a3 2c3d
000001b0: 8011 f13c ecc2 cb3e 6617 7ebe d7e6 873e
000001c0: 879b 1a3f 1db0 3bbe c717 85be c77c 83be
000001d0: a618 933e ffc2 16bd 6c58 e3be 170e a0be
000001e0: 58d5 843e fbc0 01bf 6c42 66bf c03d 143e
000001f0: 6a59 09bf 4295 71be 9b26 c8be b889 19be
-0.29870105 -0.055177853 0.0448503 0.19851889 -0.07048383 0.04239426 -0.25705567 -0.4097361
-1.0247344 0.4573009 -0.607185 -0.16504788 -0.17709897 -0.14098266 0.0018048184 -0.33421052
-0.05202969 -0.32049623 0.2967787 0.44620183 -0.35110506 0.2702881 -0.11635887 0.039307863
0.240117 0.31345332 0.2405498 -0.20132563 -0.4153832 -0.46635538 -0.24749815 0.72324526
-0.08857403 -0.09584319 -0.1680516 -0.21380605 -0.20824061 0.20620845 0.02629221 0.23158962
0.02750268 0.7282397 0.32964924 -0.45617998 0.215146 -0.192498 0.10020997 -0.016676756
-0.12558931 -0.32466236 0.3141387 0.26855257 -0.24404259 0.119448304 0.20579407 0.25267208
-0.46212807 0.12291646 -0.122094385 0.05909763 -0.09768299 -0.14863352 -0.1670165 -0.2781508
0.35295472 0.18775654 0.32651076 -0.32846683 0.1689827 -0.003424631 0.032886676 -0.269095
0.28951198 0.099869676 -0.108545534 -0.34326503 0.1440881 -0.09409788 0.045449633 0.41147718
-0.32017037 -0.19527817 0.16274999 -0.021763422 -0.10924434 -0.42904654 0.31722277 0.31431618
-0.16487035 0.63027203 -0.16171384 0.40518257 -0.1503134 -0.34478164 -0.6194544 -0.42735532
0.21267274 -0.34628785 0.0061411224 0.041617233 0.2676308 0.10256071 0.26003835 0.7795391
0.3018564 -0.20052153 -0.037315324 0.04214825 0.02942729 0.3979715 -0.24813613 0.26543304
0.60393566 -0.183289 -0.25994703 -0.25681135 0.28729743 -0.036807057 -0.44403398 -0.3126075
0.25944018 -0.5068509 -0.899451 0.14476681 -0.5365206 -0.23592094 -0.39091954 -0.14993942

mlp_encoder.lins.3.weight f4 [96, 128]
00000000: 251c f4bc 79cd 353e b80a a03d 8865 2dbe
00000010: 6476 1a3e 5015 eabd 074c a4bd 7e6d d73c
00000020: 5124 a73d 4033 60bc f08b 15be 32b5 433e
00000030: 6829 a53e ad0d 6f3e 5007 53be 6f60 a33d
00000040: d040 75be 4503 88ba 19ff e83d e8c1 01bf
00000050: af81 d7bd 7b31 a9be da89 2e38 139c 843e
00000060: 4b95 2d3e e3e8 ac3c 9177 0cbe e468 3a3e
00000070: 6e1e 8bbe ad4d 03bf 9695 67bf db81 723d
00000080: e017 323e cf7a 2bbd 7289 2ebe e1aa 853d
00000090: 88cb d63d 9b12 963c 3c8a 023e fa3f 22bb
000000a0: 870d bebd 355f 993e 8e02 a33c 5f0a 403e
000000b0: 9f12 bc3b f949 d1be 2864 a5be f4a9 fdbd
000000c0: 0b0c 4ebd 22a8 e33d 4057 9bbe e51b 7b3d
000000d0: 7565 a6be 53fb bc3d 76cc e3be b694 b43d
000000e0: f3b7 24be 2fda 0a3e bca4 e9bd 981e 60bd
000000f0: b0dd f9bd db85 893e 5398 36be 5665 4dbe
00000100: 38e7 f5bd f5ef 76be 6606 823e 58a9 453d
00000110: 06b9 2b3e a0bf 043e 6a5e 3f3e 4286 06bd
00000120: 8caf b9bd 81f8 51be 5d26 c4be 498b 813d
00000130: 81a3 01bf 5c25 a33c be36 333e e5a2 24bd
00000140: 6b87 2dbe 537d 2d3d e484 26be 2112 843d
00000150: 8150 13bf 15b0 a23d e636 4abd dcdf c33d
00000160: 14ad a4be cff6 30bd 7764 1abe c25d dabd
00000170: 71e8 8c3e a60c b2be 5dbc 04bf b029 69be
00000180: 2198 9f3d ea9d c9bd 3717 07bc c48e 3abd
00000190: 0405 6bbd 6fab 04be 2a83 973c 17e8 f5be
000001a0: 8946 52bd 55c1 153e a25d d33d 20b7 f6bd
000001b0: ab4b a13e 767d de3e 63e1 ef3e f55d 463d
000001c0: b66b f3be adbe c4bd 2603 50bd 6e7b bfbe
000001d0: 6687 5ebd 6640 25bc 2c69 87bd 0395 d83d
000001e0: f37b 463e 7b31 2cbe 6f35 383e 91e1 f0be
000001f0: b5ba 93be 1396 04be f083 0bbe ddbd 9fbe
00000200: 5827 943e 8992 853e 0f3d 243e fce2 783e
00000210: a159 ff3d 5729 66bf 792c d63e e8b4 fdbe
00000220: 7ebd 80bc c1c7 de3e aab2 28bc 689c d13d
00000230: 5578 29bf 45a9 ed3e 0d6b 2fbe f380 bcbe
00000240: f97d 07be ccc0 1bbe b384 163e 56ec c6be
00000250: cfa0 2c3e 7eea 95be 17b0 e9be 6b95 543e
00000260: 6977 0c3e 2b6f 1b3e 1b37 ce3e 1198 883e
00000270: 0804 8abe 109f 5fbf 582b 21bf 10e5 68bd
00000280: 30c2 a63e 0a6c 023f dc71 e9be ddc9 913e
00000290: 7087 30bd 8584 a53e 95b0 e93d 0201 503e
000002a0: 65fd 24be 8f77 703e 70a6 c23e 8973 fc3d
000002b0: a3f8 e73e 5028 22be a346 b93e 0962 34be
000002c0: 7b2f ad3e 70d8 b23d a96f b8bd dda4 0d3d
000002d0: c28b 143f d41f df3e 6e66 bebe e76d 793e
000002e0: dae4 333f 9113 ec3d e824 8b3e 4efd 4d3e
000002f0: 3438 063f 519e f63e 8ade e93e 83e0 2c3f
00000300: 5c75 953e 46d5 82bd f64f 7b3d 46fe 6e3e
00000310: a238 d53e 4cb6 81be f0cf 493e 1b55 67bf
00000320: eb75 063d 208d 35be c4e0 e6be a9a6 5d3e
00000330: 625c a83d 862b 803c 8ed5 853e 4628 7b3e
00000340: e44b cb3c a1ff 593e b507 22bd 8ef2 eb3d
00000350: ec1a 6fbe e33b f93d ff2d d13e 72ac f93e
00000360: b00c 17be 8334 7b3d b662 91bd 97d6 5fbf
00000370: 34eb 8abd c6f1 0fbf 9533 cebe b23d 303e
00000380: 4058 55bf 333d e7bd 55f7 e43d 8517 fcbe
00000390: bae9 62be 58e0 1d3f eac2 04bf d4a2 0bbf
000003a0: a07c 20bf b7ef 763e c00e 863e 47f7 c9bd
000003b0: 16a9 f73e aa2c f43e f71a bdbd 7bfb cf3e
000003c0: 2759 a0be 4599 30bf 56ae 6d3e 8f75 58bf
000003d0: 389b fc3e 7899 fd3e 30e7 853e d00d a93e
000003e0: bf60 e73e 7466 4c3e aab7 5fbe a504 cbbe
000003f0: 55fd af3e 9ade 5abd 457b 2dbf e4ef 623d
-0.029798577 0.17754163 0.078145444 -0.16933262 0.15084225 -0.11429846 -0.080223136 0.026297327
0.08161224 -0.013684094 -0.14604163 0.1911209 0.32258153 0.2334506 -0.20608258 0.079773776
-0.23950505 -0.0010376951 0.11376781 -0.506865 -0.10522782 -0.33045563 4.1613217e-05 0.25900325
0.16951482 0.021107143 -0.13717486 0.18204075 -0.27171654 -0.512904 -0.90462625 0.05920587
0.1739192 -0.041865166 -0.17044619 0.06526733 0.10488039 0.018319419 0.12748045 -0.0024757371
-0.09279924 0.2995545 0.01989868 0.18753956 0.0057395245 -0.4087675 -0.32302976 -0.123859316
-0.050304454 0.11116053 -0.30340004 0.0613059 -0.3249928 0.09227624 -0.4449193 0.08817427
-0.16085796 0.13559793 -0.11408374 -0.054716676 -0.12200487 0.26859936 -0.17831545 -0.20058188
-0.12006992 -0.24114974 0.25395507 0.048257202 0.167698 0.12963724 0.1868836 -0.032842882
-0.09066686 -0.20504953 -0.3831052 0.06325395 -0.5064011 0.019915275 0.17501351 -0.04019441
-0.16946189 0.042355847 -0.16261631 0.0644877 -0.57544714 0.07943741 -0.04936876 0.09564182
-0.32163298 -0.043204125 -0.15077387 -0.10662414 0.2752109 -0.34775275 -0.5184992 -0.22769809
0.07792688 -0.09844573 -0.008245281 -0.04554631 -0.05737783 -0.12956022 0.018495161 -0.48028633
-0.0513368 0.14624532 0.103205934 -0.12046647 0.31503043 0.43455094 0.46851644 0.04842945
-0.47543114 -0.09606681 -0.050784253 -0.37398857 -0.054328345 -0.010086155 -0.06611857 0.10575297
0.1938322 -0.1681575 0.17989133 -0.47047094 -0.28853384 -0.12947874 -0.13624549 -0.31199542
0.28936267 0.2608836 0.16038917 0.24305338 0.12468267 -0.8990683 0.41830805 -0.49552083
-0.015715357 0.43511775 -0.010296503 0.1023491 -0.6619924 0.46418205 -0.1713068 -0.3681713
-0.13231649 -0.15210265 0.14699058 -0.38852185 0.16858219 -0.29280466 -0.45642158 0.20760123
0.13717426 0.15179126 0.40276417 0.26678517 -0.269562 -0.87352085 -0.6295676 -0.056859076
0.32570028 0.50946105 -0.4559468 0.28474322 -0.043097913 0.32327667 0.114106335 0.20312884
-0.16112287 0.23483108 0.38017607 0.12326724 0.45306882 -0.1583569 0.36186704 -0.17615522
0.33825287 0.087326884 -0.090056725 0.034581054 0.58025753 0.4357897 -0.37187523 0.2435833
0.70271075 0.115271695 0.27176595 0.2011616 0.5242951 0.4816766 0.45677596 0.6753008
0.291911 -0.06388335 0.061355554 0.23339185 0.4164477 -0.25334394 0.19708228 -0.90364236
0.0328273 -0.17729616 -0.45093358 0.21645607 0.082207456 0.015645754 0.26139492 0.24527082
0.02481646 0.21288921 -0.03955813 0.11520873 -0.23350114 0.121696256 0.40855405 0.48764378
-0.14750934 0.061329376 -0.07098906 -0.87436813 -0.06783143 -0.5622829 -0.4027373 0.17211035
-0.83337784 -0.1129097 0.11179987 -0.49236694 -0.22159472 0.61670446 -0.51859915 -0.5454533
-0.6269016 0.24114881 0.26183128 -0.098616175 0.4837119 0.47690326 -0.09233659 0.40621552
-0.31318018 -0.6898387 0.23211035 -0.8455438 0.49337173 0.4953115 0.26152945 0.3301835
0.45191 0.19960958 -0.21847406 -0.3965198 0.34372965 -0.053434946 -0.6776622 0.05540456

mlp_encoder.lins.3.bias f4 [96]
00000000: 10fc 793e 88b7 943f 15cb 01be ba62 ed3d
00000010: 3fb5 6b3d 44a5 663e 6503 573e 7d3c 083f
00000020: a15d 113f 9d07 3fbd 7f1f 0bbd b095 e5be
00000030: e82a 48bd ec9e 38be 899c 92bf 7563 493c
00000040: 4a4f fa3d 9b4a 933e b93b 97bd b37e e83d
00000050: 5376 ecbc 788f 92be 24dc d43d 2dec 14be
00000060: 477e 683b d3d6 90bd 4699 103e b60c d03d
00000070: 21b2 b43e 3b67 98bd 8eaf 44bd 01a8 913c
00000080: ce72 b9be e117 503f b93d a0be ac0f 16bf
00000090: 9d80 38bf 0df1 d33a 779d e73c 5949 2ebe
000000a0: 753f 35bf 2091 0bbf dfd0 9c3d a99f 843e
000000b0: 3ed2 643e 6f1e eebe a64f 2c3e f705 093e
000000c0: dc08 edbb 3105 f5bd 56d8 a13d 2c20 dbbe
000000d0: 3ce1 1e3e f013 8ebb 361a 723e 7929 b4bd
000000e0: a20b eebe 4c19 e5be 49e3 863e 1346 f13e
000000f0: 0ea3 d4be 935e 4ebd 284b 983d 5448 f73e
00000100: 4231 1dbd 369a 0c3c 1026 953e 3fbf 183f
00000110: fb66 1ebe 89f6 bfbd f821 34be 6c74 e5be
00000120: d391 5e3d 598a d63e 80bb 9abe c720 823d
00000130: 83cb 5dbe 0fba 093e 110a 92be e4c6 d1bd
00000140: ebe9 53be cf5b 1ebe f9fe 853e e538 d23e
00000150: f83b 643c 6d46 55be 62e4 863e 3517 2cbe
00000160: d076 e93e 1f60 4b3d 6c04 16be 8b81 08be
00000170: e59c 20bc 8a57 2fbf b3d5 00be 7df1 1f3f
0.2441256 1.1618509 -0.12675126 0.11591096 0.057545897 0.22523981 0.20997389 0.532173
0.5678349 -0.04663812 -0.033965584 -0.44840765 -0.048869044 -0.18029374 -1.1454021 0.012291779
0.122221544 0.28767857 -0.07384438 0.11352291 -0.028865015 -0.28625083 0.10393551 -0.14543219
0.0035475658 -0.070722245 0.14120969 0.101586744 0.35292152 -0.07441565 -0.048018984 0.017780306
-0.36220402 0.81286436 -0.3129709 -0.58617663 -0.7207125 0.0016169861 0.028273327 -0.17020167
-0.7079995 -0.5451832 0.076570265 0.2590306 0.22345826 -0.46507594 0.16827258 0.13381182
-0.007233722 -0.11963881 0.07902591 -0.42797983 0.15515608 -0.004335873 0.23642811 -0.08796973
-0.4649325 -0.44745862 0.2634528 0.47123775 -0.4153065 -0.05038316 0.0743621 0.4829737
-0.038377054 0.008581689 0.29130602 0.5966682 -0.15468971 -0.09373195 -0.17591083 -0.44815385
0.054338288 0.41902426 -0.30221176 0.06353908 -0.21659665 0.13449882 -0.28523305 -0.102430135
-0.20694701 -0.1546471 0.2617109 0.41059032 0.013930313 -0.20827647 0.26346117 -0.16805728
0.4559846 0.049652215 -0.14650124 -0.13330667 -0.009803032 -0.6849295 -0.1258152 0.62477857

mlp_encoder.norms.0.module.weight f4 [128]
00000000: ac8b a23f 0374 8d3f dfbf 9b3f b809 7b3f
00000010: aa25 4e3f 01e6 423f b3a5 b33f fc95 b03f
00000020: 06e8 843f 717d cc3f c11d 273f b9dc a93f
00000030: 79a8 613f 1949 003f e829 5f3f 2193 863f
00000040: 796a a53f 67d0 a53f 227a 773f 5775 663f
00000050: 0afa 6f3f 1ff1 ad3f 5455 2a3f 2b4e 1e3f
00000060: 7cb1 993f ecca 473f 29b5 893f c25c d83f
00000070: f3a3 663f 81c4 6e3f 7bc5 973f 34e4 663f
00000080: 3e1a 3e3f 43d6 413f db1e 743f e59a 913f
00000090: 417e 9e3f 8361 9d3f f061 933f 968d 7a3f
000000a0: 3d56 ae3f 07eb 813f 86fc 773f af03 963f
000000b0: 4280 443f f3d2 643f 9bbf a73f d4a0 893f
000000c0: cad0 7f3f 7b67 8b3f 50d7 763f 14b5 433f
000000d0: d5c1 973f b125 523f c1f5 893f 661e 393f
000000e0: 5386 8e3f 6afe 9f3f 5650 533f 3cd0 3e3f
000000f0: eaf0 8b3f beef 983f 7e17 533f 8aba 1e3f
00000100: be1a 833f 1c54 6a3f bb28 6d3f 9cde 8c3f
00000110: c288 253f 8a0f 453f 9ea1 cb3f 4281 823f
00000120: dff7 243f ae03 823f 1683 b03f 5b18 bf3f
00000130: 8ba9 5b3f e7b3 933f b5b6 663f 4dcf 623f
00000140: ff70 9e3f f70c 873f 8eec 373f bda7 b53f
00000150: 82da 843f ab67 823f 140a 983f 22ad 4f3f
00000160: eb2e 453f a010 953f c36a 643f 80ba a33f
00000170: 4539 103f 047f b33f 7afe 8b3f c15d 853f
00000180: 8a8a 8b3f 8985 5b3f 3a6d 793f c5ad 8c3f
00000190: e24a 4e3f 6fac 433f 18db 703f 3f4c 943f
000001a0: 3f4a 623f 0318 673f b018 983f 900c 783f
000001b0: d0eb 653f c0f7 1f3f c39d 933f 6566 a03f
000001c0: 7a2c 4e3f 3241 3f3f e03e 5c3f 03e4 6f3f
000001d0: 2587 443f 7544 473f 3f42 803f 172f 983f
000001e0: 8485 5a3f 9885 b63f b2f4 863f 1131 863f
000001f0: e596 4a3f 46cd 723f 80f1 923f 5098 a73f
1.2698874 1.1051029 1.216793 0.98061705 0.8052622 0.7613221 1.4034942 1.3795772
1.0383308 1.5975782 0.65279776 1.3270484 0.88147694 0.5011154 0.8717332 1.051365
1.2923118 1.2954224 0.96670735 0.90022796 0.93740904 1.3589209 0.6653645 0.61838025
1.2007289 0.7804401 1.0758411 1.6903307 0.90093917 0.9326859 1.1857141 0.9019196
0.7425879 0.7571756 0.9535958 1.1375395 1.238228 1.2295383 1.1514263 0.97872293
1.3620068 1.014985 0.96869695 1.1719874 0.76758206 0.8938438 1.3105348 1.0752206
0.9992796 1.0890955 0.9642229 0.7644818 1.1856028 0.8208876 1.0778123 0.7231201
1.1134742 1.2499516 0.8254446 0.7453649 1.0932896 1.1948164 0.8245772 0.62003386
1.0242536 0.9153459 0.92640275 1.1005435 0.646618 0.76976836 1.5908697 1.0195696
0.6444072 1.0157373 1.3790004 1.4929308 0.8580558 1.1539277 0.9012254 0.88597566
1.2378234 1.0550832 0.7184533 1.4191815 1.0379183 1.0187887 1.1878076 0.81123555
0.77024716 1.1645699 0.89225405 1.279129 0.56337386 1.4023137 1.0937035 1.0419236
1.0901654 0.85750633 0.9743229 1.099053 0.8058301 0.7643499 0.9408431 1.1585768
0.8839454 0.90271014 1.1882534 0.9689417 0.89812946 0.6248741 1.153252 1.2531248
0.80536616 0.74708855 0.8603344 0.93707293 0.76768714 0.7783883 1.0020217 1.1889371
0.8535998 1.425952 1.0543425 1.0483724 0.79136497 0.9484447 1.147995 1.3093357

mlp_encoder.norms.0.module.bias f4 [128]
00000000: b216 19bf 77b0 a6bd a9ca 18bf b38d 1abf
00000010: dff0 1abf 0374 71be fe3b 3abf d9b7 6dbe
00000020: d228 09be 8188 fdbd 0930 2dbe 37ce 24be
00000030: eeea 15bf 9eae 25be eab6 04bf 860b 98be
00000040: 29be cabe a9a8 65be e595 12bf e198 2fbe
00000050: c0ee 4ebe eb7a 24bf 1dc6 5cbe 5e47 e0be
00000060: fe9b 11bf d82e 13bf 1e6c 14bf 8fbb 223d
00000070: 1642 f1be 9e1e 0abf 3a95 27bf 7400 36bf
00000080: 83ee 23be 7f0b 2dbe 4c94 b3be f0c4 66bf
00000090: ad6c 14be 1101 3bbf 081f 39bf 51e8 abbe
000000a0: 34a4 41bd 7a3a 62be c8f8 97be ca75 d7bc
000000b0: 7fad 53be 5440 21bf 9eea 51bd 9937 76bd
000000c0: 29ed 0dbf 82c1 64be 07b8 12bf fde8 d7be
000000d0: 4278 f0be 1359 f9be 7d7e f9be 87e2 8f3d
000000e0: b7ad d2be 17cb 00bf 9744 febe e5f0 c3be
000000f0: 5a2d 3bbf 556b c6be 2c84 85be ec65 9abe
00000100: 9ebc 2cbf b709 04bf 25f1 46be 6d6b 36bf
00000110: 2062 b2be ec94 b1be 9bd5 03be 6159 21bf
00000120: 1f4b 39bf ce08 46bf 93b7 38be 7a7c 273e
00000130: 1d64 98be 97db e3be 128e eebe bb85 f2be
00000140: 2bac 18bf 09e7 f6be 9e2e 313e 8399 79bf
00000150: fb3d 0ebf c7b7 acbe ec28 e9be 1904 f9be
00000160: 165f 05bf 2641 61be fe8b 38bf 794b abbd
00000170: 3503 b2be 94ad 45be e731 17bf 152e c3be
00000180: 0a39 69bd defd 23bd 1390 9e3d 9930 fdbe
00000190: 511e 2dbf cfd5 0dbf 244a 20bf 0739 f5be
000001a0: 4bbd 08bf e3f6 56bf 0f8e 17be 7620 05bf
000001b0: 4a24 31bf 2435 acbe 7290 9bbe be56 b7be
000001c0: 52d5 1ebf ba6b cfbe dee3 96be 6354 37bf
000001d0: c8af c0be f36f a9be f8a6 34bf d730 f5be
000001e0: e08a ddbe f9cf 39bf 3f0a d1be 28fa 3bbe
000001f0: bda3 d6bd 2a2d 54bf 0fa4 9dbc dc47 82bd
-0.59800255 -0.08139127 -0.59684235 -0.60372466 -0.6052379 -0.23579411 -0.7274779 -0.23214664
-0.13394478 -0.12379552 -0.16912855 -0.1609429 -0.585616 -0.16179892 -0.51841605 -0.29696292
-0.39598206 -0.2242762 -0.5725997 -0.17148162 -0.20208263 -0.6425006 -0.21559949 -0.4380445
-0.5687865 -0.5749335 -0.57977474 0.03972965 -0.47120732 -0.5395297 -0.65462077 -0.7109444
-0.16008954 -0.16898917 -0.3507408 -0.9014425 -0.14494582 -0.730485 -0.72312975 -0.3357568
-0.047275737 -0.2209262 -0.29681993 -0.026301283 -0.20671652 -0.6298878 -0.05124914 -0.060111616
-0.5544 -0.22339442 -0.57312053 -0.42169943 -0.4696675 -0.4870077 -0.48729315 0.070256285
-0.4114816 -0.5030989 -0.49661705 -0.38269725 -0.73116076 -0.38753763 -0.26077402 -0.30155885
-0.67475307 -0.51577324 -0.19427927 -0.7125767 -0.34840488 -0.3468393 -0.12874453 -0.63027006
-0.7238025 -0.77357185 -0.18038778 0.16356078 -0.2976388 -0.4450347 -0.46592766 -0.47367653
-0.5963771 -0.4822314 0.1730294 -0.97499865 -0.55563325 -0.3373396 -0.45539033 -0.4863594
-0.52098215 -0.21997508 -0.7208861 -0.08364005 -0.34768072 -0.19304496 -0.5906052 -0.38121095
-0.056939162 -0.04003703 0.07742324 -0.4945114 -0.67624384 -0.5540437 -0.6261313 -0.4789507
-0.5341384 -0.8397047 -0.14800285 -0.52002656 -0.69196 -0.33634293 -0.3038364 -0.35808367
-0.6204425 -0.40511876 -0.29470724 -0.7161314 -0.3763411 -0.33093223 -0.70567274 -0.47888824
-0.43270016 -0.72582966 -0.4082813 -0.18357146 -0.10480449 -0.82881415 -0.019243268 -0.06361362

mlp_encoder.norms.0.module.running_mean f4 [128]
00000000: d7be 92bf 94b2 073e f09f 1bbf a279 2b3e
00000010: 0569 083f 68fe 533e 7ae4 5bbe 12de 44bf
00000020: 6925 a2bf bc23 30be 5e02 02bf b57f d73e
00000030: a935 bdbe 586c df3e 8668 603f 378c ebbe
00000040: 2365 e73e 4437 44bf 1c9c 86be c13b a3bf
00000050: 5fe8 f5be fec9 91bf 2b77 5c3d 54bb 143e
00000060: 43e8 25bf 7bc3 1d3e 040b a83e 859c 2ebf
00000070: 5c9d 9bbf 335b f83c b9b7 94bf 2d90 efbe
00000080: 1b39 393e 0000 3b3e 3940 7e3f 1c2c 69bf
00000090: 3a01 04bf b396 973f bdf0 ff3f 02c1 653f
000000a0: 21b7 a4be 2ab0 fd3e 5e50 02bf 182e 073e
000000b0: af95 953f 3718 a6be 33c2 c6bf 6c2e b53f
000000c0: d7e8 0ebf 884b ba3d 8c28 303d 34b5 c53e
000000d0: 2806 033f 057a 77be 89b1 753e c632 64be
000000e0: adfb 5e3f 0b3f 823f 250c a9bd 7d46 953d
000000f0: 4dab 02bf 6f8a 68bf 3430 013e 1808 89be
00000100: 568e 8dbf 990b fdbe 3e0b 2a3f e00c 32bf
00000110: aa26 a13d bd78 4e3f 2559 a7be 9466 1b3f
00000120: c9fb 84bd 3ffa 6fbe ce4f ce3e d56e a53e
00000130: 7f3f 8e3f 65f2 dbbf b8f4 203f b6f9 f5be
00000140: 1f9b 8dbf 553d 26bf f81f dabf 8d63 f93e
00000150: a627 393f 2b93 54be bf60 80bf b45a 823e
00000160: 1c76 983f 27ec e63e ca27 3d3f 5c5f bdbe
00000170: 4483 a5be 4682 d4be ef28 4a3f 7a68 fd3e
00000180: 028d 5c3e c97f 37bf 1782 b13f 50e7 963f
00000190: d105 b83d 2bc2 183f f22b b1bd 91a2 15bd
000001a0: 9091 a23d 49b0 283f 04de 49bf 26b9 153e
000001b0: 72a0 8e3f f3e8 b93e 2e72 22be a5e7 9bbf
000001c0: ca3b 833f 3911 b03f fba7 d63d 8a7b 353e
000001d0: e1a0 fb3d df30 933f 0890 a53e 0fce 8fbf
000001e0: ffbe a83d 3715 913e 70de 05bd bf42 a0be
000001f0: 9af0 143e fd50 193f 3d42 d9bf e676 61bf
-1.146449 0.13251716 -0.6079092 0.16745618 0.5328525 0.20702517 -0.21473876 -0.7690135
-1.2667667 -0.17201132 -0.5078486 0.4208962 -0.36955002 0.43637347 0.8765949 -0.46005413
0.4519435 -0.7664683 -0.26290977 -1.275261 -0.48028848 -1.1389768 0.053824585 0.14524585
-0.6480753 0.15406601 0.32820904 -0.6820758 -1.2157397 0.030316925 -1.1618568 -0.46789685
0.1808819 0.18261719 0.99316746 -0.9108293 -0.5156437 1.1842865 1.9995342 0.8974763
-0.32170966 0.49548465 -0.5090388 0.13201177 1.1686305 -0.3244035 -1.5528015 1.4154792
-0.55824035 0.09096438 0.04300742 0.3861481 0.5118127 -0.2416764 0.23993506 -0.22284994
0.87102777 1.0175489 -0.082542695 0.07288835 -0.51042634 -0.9083623 0.12616044 -0.26763988
-1.1059062 -0.4942291 0.66423404 -0.69550896 0.07868703 0.8065298 -0.326852 0.60703397
-0.06493337 -0.23435305 0.4029526 0.3231112 1.1113127 -1.7183348 0.6287341 -0.48042077
-1.1062964 -0.64937335 -1.7041006 0.48708764 0.72326124 -0.20759265 -1.0029525 0.25459826
1.1911044 0.45102045 0.7388884 -0.36986816 -0.3232671 -0.4150564 0.7896871 0.49493772
0.21538165 -0.7167936 1.3867825 1.1789341 0.089854844 0.59671277 -0.0865096 -0.03653199
0.0793792 0.6589399 -0.78854394 0.1462141 1.1142714 0.3631054 -0.15863869 -1.2180067
1.0252621 1.3755256 0.104812585 0.17722908 0.122865446 1.1499289 0.3233645 -1.1234759
0.082395546 0.28336498 -0.032682836 -0.31300923 0.14544907 0.59889203 -1.6973339 -0.8807205

mlp_encoder.norms.0.module.running_var f4 [128]
00000000: f46e 853e ae73 4e3e 1520 463e 87b4 8e3e
00000010: 8f2f f83d c197 353e 2e3d 8c3e f808 683e
00000020: 6c0d 223e 8183 513e 065b 323e b512 493e
00000030: fd20 503e a8d8 4f3e abe0 4f3e 1efc 143e
00000040: 2f69 743e d969 273e a2e3 903e 5119 3c3e
00000050: 323f 713e e248 ab3e 0760 143e 6f60 613e
00000060: ed6c 543e f683 0c3e 5301 383e a020 2a3e
00000070: 9da3 283e f024 593e de38 8a3e c8c9 253e
00000080: 9bb0 2b3e 5b2c 383e 40f4 0f3e 9938 243e
00000090: 51ee 543e 9537 813e c02c 803e d9ae 453e
000000a0: 8cf8 073e 79f6 333e 80c7 823e 8359 103e
000000b0: 786a 123e 12a1 1e3e b0a4 173e 97aa 3e3e
000000c0: cbf3 2f3e 0f09 7c3e e330 763e c29f 3c3e
000000d0: 741b 923e e08a 133e 97ed 373e afe5 353e
000000e0: b1b3 573e 1a21 8b3e 06e4 3d3e c954 243e
000000f0: 1ab3 8f3e 602f 713e 2593 713e cac7 7c3e
00000100: 9890 933e 03fb 333e 5cf2 083e 376d 4f3e
00000110: 8f62 423e 3aca 213e 1444 253e 1747 253e
00000120: 2bbb 983e 2e1f 8a3e 5c44 483e 4163 083e
00000130: 67dd 3e3e 02c4 433e 3053 5b3e 42d5 573e
00000140: 3ebf 603e 95ce 743e bec1 243e de80 4f3e
00000150: 4a1c 7f3e 768c 833e 9619 713e a375 6d3e
00000160: 0fcf 0d3e 4bbe 413e 1002 c63d 8e11 0c3e
00000170: 49be 653e b129 223e 3896 753e aaff 623e
00000180: eb48 043e 015a 2d3e bde9 8c3e 624a 833e
00000190: a064 233e 68b6 523e 3499 183e 9e5b 273e
000001a0: 5a22 203e e3cd 443e c5fd 4f3e 8351 563e
000001b0: edc3 573e a008 583e b78a 393e c2e7 413e
000001c0: 45d1 1a3e 87c3 863e 03b4 413e 5899 543e
000001d0: d1db 0f3e 964e 133e 56bb 753e 663c 7f3e
000001e0: 51c2 243e 60e8 693e df41 9a3e fbaf 4c3e
000001f0: 0864 423e 6e21 5a3e 36a7 663e fa52 193e
0.26061213 0.20161316 0.19348176 0.27872106 0.12118446 0.17733671 0.27390426 0.22659671
0.15825433 0.20460321 0.17417535 0.19636042 0.20325084 0.20297492 0.20300548 0.145493
0.2386825 0.16348971 0.2829867 0.18369032 0.23559263 0.33454043 0.14489757 0.22009443
0.20744677 0.13722214 0.17969255 0.16614008 0.16468664 0.21205497 0.2699651 0.16190255
0.16766588 0.1798567 0.14058018 0.16037215 0.20794035 0.25237718 0.25034142 0.1930498
0.13278407 0.1757449 0.2554283 0.14096646 0.14298427 0.15491131 0.14808917 0.18619762
0.17182843 0.2461283 0.24042086 0.18420318 0.2853657 0.14408445 0.17961727 0.17763399
0.2106464 0.27173692 0.18544015 0.16047968 0.2806633 0.23553228 0.23591287 0.24685588
0.28821254 0.17576222 0.13373703 0.20256506 0.1898291 0.157998 0.16139251 0.161404
0.29830298 0.26976913 0.19557327 0.13319112 0.18639146 0.1911774 0.21418452 0.21077445
0.21947953 0.2390693 0.16089532 0.20264003 0.24913135 0.256931 0.23544917 0.23189406
0.13848518 0.18920247 0.09668362 0.13678572 0.2243587 0.15836217 0.23983085 0.2216784
0.12918441 0.16928865 0.27522078 0.25642687 0.15956354 0.20577395 0.14902192 0.16343543
0.15638104 0.19219165 0.20311649 0.20929532 0.21070834 0.2109704 0.18119322 0.18936065
0.15118892 0.2632105 0.18916325 0.20761621 0.14048697 0.14385447 0.23997244 0.24925384
0.16089751 0.2284255 0.3012838 0.19989006 0.18983471 0.21301815 0.22524723 0.1497306
