runs/StudentModel_Baseline_01122201/student_best_accu.pth (torch, 361087 bytes, 47 tensors)

discrete_embedding.embedding_layers.0.weight f4 [7, 6]
000000 7c 4e 9e 3e 65 3e 0e 3f 1f ce b0 bd f6 08 d0 be
       0.30919254 0.55563956 -0.086330645 -0.40631837
000010 52 fb 15 3e 00 e6 55 bd 6c 8c e0 be 29 a8 44 3c
       0.14646652 -0.0522213 -0.43857133 0.012002983
000020 38 74 d8 3e f2 49 0b be fa 52 45 3f 99 3c bb 3e
       0.42276168 -0.13602427 0.7707974 0.3656967
000030 a5 0e e5 3d 80 ce a0 3d 4a 4f b5 3c d0 42 2a bc
       0.11184434 0.07851887 0.022132535 -0.010391906
000040 6f 01 87 be a1 73 a5 3d be 74 92 3d 3b 8e b0 be
       -0.2636828 0.08078695 0.07151173 -0.34483513
000050 1d 5d 74 3e 56 83 b9 be 65 fa ec 3e 41 15 83 3e
       0.23863645 -0.36233014 0.46284786 0.25602153
000060 8e ac 57 3e 3d 5c ad bb 46 32 c5 be ce fc 5f 3d
       0.21061918 -0.0052905367 -0.38514918 0.054684453
000070 88 6d 54 3e 92 3e eb 3e 47 cb 02 be 66 2f 34 be
       0.20744908 0.45946175 -0.12772857 -0.17596206
000080 bf cf 89 bd 72 31 dd be fa d5 29 3e 90 f1 0f 3f
       -0.067290775 -0.43201786 0.16585532 0.5622797
000090 7d e2 2b be 22 0b 71 be 4b e6 bf be f7 f0 47 be
       -0.16785617 -0.23539403 -0.37480387 -0.19525515
0000a0 79 fd 72 3e f7 10 20 3e
       0.23729505 0.15631472

discrete_embedding.embedding_layers.1.weight f4 [2, 1]
000000 f0 43 16 bf fd ed 44 bb
       -0.58697414 -0.0030049079

discrete_embedding.embedding_layers.2.weight f4 [2, 1]
000000 28 74 ad 3e 5d 5b a1 be
       0.33877683 -0.31515017

discrete_embedding.embedding_layers.3.weight f4 [3, 2]
000000 ad 00 0f bf 0d 6c b1 be 2b 24 98 bc ba 4a cf 3e
       -0.55860406 -0.3465275 -0.018571934 0.404867
000010 6d b8 f9 3e 73 46 9e be
       0.48773518 -0.30913123

mlp_encoder.lins.0.weight f4 [128, 14]
000000 11 1a 04 bf 96 ad 7c 3d a8 00 97 3d f4 10 bd bf
       -0.51602274 0.061688982 0.07373172 -1.4770799
000010 97 14 21 be 2e 3a 9c 3e 79 d9 8b 3d 15 2a de 3e
       -0.1573051 0.30513138 0.06828589 0.4339148
000020 bd ee 74 3e d3 77 d6 3d fa 8e 79 3e 7e 06 fb 3d
       0.23919196 0.104720734 0.24370947 0.12257098
000030 a2 b3 6c 3e 54 35 84 3e 5c 14 ec 3e df d6 cb 3c
       0.231154 0.25821936 0.46109283 0.024882732
000040 40 ac 8e bf f9 2f 0d be 96 3c ad be 53 b3 de 3d
       -1.1146317 -0.13787831 -0.33835286 0.10874047
000050 72 f9 25 3e 9f 93 5c be 31 d4 82 3e b6 2a f4 3e
       0.16208437 -0.21540688 0.25552514 0.47688836
000060 9b f3 06 bf 42 57 55 be 86 35 41 bc f8 d7 b5 bd
       -0.5271546 -0.20834067 -0.011792546 -0.088790834
000070 5a 89 69 bf 65 b6 59 3f 53 e7 34 3f da cb 37 3d
       -0.91225207 0.85043937 0.7066547 0.044872142
000080 06 cf 2a 3e 75 ba ff 3e 5d 0f 80 bd 3a 79 16 be
       0.16680536 0.49946943 -0.0625293 -0.14694682
000090 63 4c 78 be df 85 70 bd eb 36 84 be e7 f4 79 bd
       -0.24247889 -0.05872142 -0.2582315 -0.061024573
0000a0 85 82 3d bd e7 9d d0 be bf 6f 85 be 27 fc 6d 3c
       -0.04626705 -0.4074547 -0.26061818 0.01452545
0000b0 d6 10 4c bf d9 94 a9 3e a5 4f 26 be 01 88 9c 3d
       -0.7971319 0.33121374 -0.1624132 0.07643128
0000c0 2c 81 db 3e f3 f0 9c bc fb 57 0b 3f 9b 1c fc 3e
       0.42871988 -0.019157862 0.5443112 0.49240574
0000d0 54 3d 1b 3f 34 e3 ed 3e 4e 06 b7 3e 49 75 a6 3e
       0.60640454 0.46462405 0.35746998 0.32511356
0000e0 f8 36 41 3f c2 19 8a bf 17 b8 3b bd d6 0a a7 3d
       0.754745 -1.0789111 -0.04582986 0.08156364
0000f0 ba 13 67 3e 8b 76 0f 3e 19 c5 d7 be 25 a5 04 bf
       0.22566119 0.14010064 -0.4214256 -0.5181449
000100 9a 59 a7 bd e4 fc 6f 3e 2b 2f cc 3b 93 5f 57 3e
       -0.08171387 0.23436314 0.006231209 0.21032552
000110 97 e0 47 be 0e 12 df 3d fe 73 b1 be 8c 3e 7c bc
       -0.19519268 0.108921155 -0.34658808 -0.015395772
000120 29 7b c8 3d 88 86 52 3f 3f f8 e9 be 95 4b aa 3e
       0.09789116 0.8223653 -0.4569721 0.3326079
000130 99 b1 84 3e 5f cc 29 3d f9 31 30 3d 6d 7b 93 3e
       0.25916746 0.04145467 0.043016408 0.28805104
000140 23 bd 87 be da 19 40 bf 91 a0 25 be 2a fd 54 3e
       -0.26511487 -0.75039446 -0.16174532 0.207997
000150 24 07 87 be d8 83 8f 3e aa 32 f6 bd 7b 43 c9 bf
       -0.26372635 0.28030276 -0.12021382 -1.5723718
000160 ad a5 14 3e 46 51 52 bc 80 6a 93 be 64 16 b0 3d
       0.14516325 -0.01283676 -0.2879219 0.08598021
000170 87 e6 16 3d b2 0b 09 be 43 4c 3e 3d 0b 39 c2 bc
       0.03684094 -0.13383368 0.046459448 -0.02370884
000180 88 5f 88 3e dc 70 6d 3e a2 d1 62 bf cc 3a 25 bd
       0.26635385 0.23187584 -0.88601124 -0.040339276
000190 08 5c 6c 3f bd 6b 9e 3d 6c 69 12 3e a1 d4 ba 3e
       0.9232793 0.07735393 0.14298028 0.36490348
0001a0 49 d3 96 be d2 1b 2f 3e b3 d3 0c be fe 94 38 bd
       -0.29458073 0.17100456 -0.13752632 -0.045063965
0001b0 6b 65 e8 3e 9d 5c 23 be f1 57 ea 3e 90 42 c5 3e
       0.45389876 -0.15953298 0.4577022 0.38527346
0001c0 e4 ea a1 bf a7 50 09 3f f4 d2 c6 3e 88 05 15 3c
       -1.2649808 0.5363869 0.3883282 0.009095557
0001d0 6a 85 00 bf 85 f4 1d be cf c6 29 bf 0f e0 69 3e
       -0.50203574 -0.15425308 -0.6631898 0.22839378
0001e0 50 b1 9d be 2d e5 e2 bd d7 a8 5a 3d 3b 35 20 3e
       -0.3079934 -0.11078868 0.053383674 0.15645306
0001f0 e1 d1 85 bd 11 6a 0c 3e de 69 90 bf a2 c8 2b 3f
       -0.06534172 0.13712336 -1.1282308 0.67103016
000200 e3 1b bd 3e b3 4c da bd 5f 62 95 be 91 0d dd 3e
       0.36935338 -0.106591605 -0.29176614 0.43174413
000210 b3 69 b5 bd d0 c2 f5 bc 83 db ca be 69 64 c2 3d
       -0.08858051 -0.03000012 -0.396206 0.09491808
000220 ca ab 27 bf 8b 0c 4f be 1d 30 7e be 04 65 c7 be
       -0.65496504 -0.20219629 -0.24823041 -0.38944256
000230 e7 af 20 be 98 6e 09 3e 87 87 05 3f 0e 16 4a 3e
       -0.15692101 0.13421094 0.52159923 0.19734976
000240 62 c0 09 be 8c 69 ed 3d b0 24 de 3e b2 c0 88 3d
       -0.13452294 0.11592397 0.43387365 0.06677379
000250 73 c7 ba be 16 5a 75 3e bc bf e0 3e 01 70 2e 3f
       -0.36480293 0.23960146 0.43896282 0.68139654
000260 70 ea ba 3e c7 f9 04 bf a3 13 9f 3e 21 5a 77 3f
       0.36506987 -0.5194363 0.3106967 0.966219
000270 7b 7f 3f bf 2d 79 c6 be 93 ff 4a 3e 4b 18 3c bd
       -0.74803895 -0.38764325 0.19824056 -0.045921605
000280 9b a6 5a 3e a1 61 3a bf 72 b4 bc 3e b9 11 4f bd
       0.21352617 -0.7280522 0.3685642 -0.05055401
000290 9c d0 b1 bd 1f 26 a6 bd ae 64 c7 3e b1 de 6d 3e
       -0.08682367 -0.0811274 0.38944 0.23229481
0002a0 c4 51 29 bf d7 82 22 3f 72 57 49 3e 67 c0 8b bf
       -0.6614039 0.63480896 0.19662264 -1.0918092
0002b0 bc 7f 4a 3e 35 ff d4 be 7c a1 0a bd ca ca cb be
       0.1977529 -0.41600958 -0.03384541 -0.39803153
0002c0 77 f2 21 be 2c e6 89 3e ed bd be 3e 14 f3 0f 3e
       -0.15815149 0.2693342 0.37254277 0.1405757
0002d0 6d 43 9a 3e 4b 9d 2e be 34 e0 2b 3e 2b 50 f8 be
       0.30129567 -0.1705219 0.16784745 -0.48498663
0002e0 98 0d 80 3e 3e dc d3 3c cd 93 1b 3e ab e6 b7 bb
       0.2501037 0.025861856 0.151931 -0.0056122146
0002f0 59 21 60 bc 59 38 38 bd c5 60 94 be 86 d5 28 be
       -0.013679826 -0.044975612 -0.2898008 -0.16487703
000300 73 23 59 3f c1 ba 56 3f c3 40 e2 3c 31 53 30 3e
       0.84819716 0.83878714 0.027618771 0.17219235
000310 f9 66 e6 bb 3c 76 8a 3e 18 dd 29 bf d5 04 18 3f
       -0.0070313183 0.2704333 -0.6635299 0.59382373
000320 f8 77 10 3e 25 d1 11 3d e7 0f f7 3e 20 44 a2 be
       0.14108264 0.035599846 0.4825432 -0.316926
000330 52 5f 0b 3f 08 64 b5 be 6a 6e 9c be eb 1b da be
       0.5444232 -0.3542788 -0.3055299 -0.42599425
000340 e6 c9 a4 be 34 9a a9 3e 6e 91 fc be 3a e6 51 be
       -0.32185286 0.3312546 -0.49329704 -0.2049798
000350 69 e9 f8 3e b6 fb 1e bf af 57 ec 3e 82 d8 13 bd
       0.48615578 -0.6210283 0.46160647 -0.03609515
000360 16 42 91 be 04 80 8c 3d a4 61 a2 3c a8 29 48 3f
       -0.28370732 0.068603545 0.01982195 0.7818856
000370 93 7b f4 3e 94 fa e3 be 20 f1 20 3e c7 3c 37 3e
       0.4775053 -0.44527113 0.15716982 0.17894278
000380 70 47 03 bf 68 eb 95 3e a9 48 7b bf 98 d6 89 3d
       -0.5128088 0.29281163 -0.98157746 0.06730384
000390 3f 0a 20 3f 91 7e 43 bf a4 6d 56 3d fb 72 9b be
       0.62515634 -0.76365 0.052350655 -0.3036116
0003a0 dc bf 08 3f cb 32 ba 3e bc a6 1e bf 00 0a 36 be
       0.53417754 0.36366877 -0.61973166 -0.17777252
0003b0 90 38 d7 3e fb 7a c1 bd 02 7f 09 bf 1d 2d ff 3e
       0.4203534 -0.09447285 -0.53709424 0.49839106
0003c0 cf da 31 bf 46 23 14 bf e6 27 b8 3c f7 74 f5 bb
       -0.694745 -0.57866323 0.022479963 -0.00749075
0003d0 c0 b9 04 3f 72 3a 01 be 74 d8 9b 3e cd 82 01 3e
       0.5184593 -0.12619951 0.30438578 0.12647553
0003e0 2b df 3f 3e f5 d7 e3 bc 9a b5 9b 3e cf da 86 3e
       0.18737476 -0.027812937 0.30411988 0.26338813
0003f0 e7 ae 09 bf c3 5e 76 bf 62 00 38 3f 57 f9 e7 3d
       -0.53782505 -0.96238345 0.71875584 0.11326855

mlp_encoder.lins.0.bias f4 [128]
000000 bd c6 df 3c 06 b2 15 bf 15 48 42 be d0 78 02 3e
       0.027316445 -0.5847477 -0.1897281 0.12741399
000010 03 a5 be 3d 4e 0a 99 bc 6d 9f 2d 3f f4 94 00 3e
       0.09308817 -0.018681671 0.6782139 0.12556821
000020 d4 47 c0 be da 8c b9 3e 49 e0 a1 be 9a 6d 26 be
       -0.375548 0.36240274 -0.31616428 -0.16252747
000030 ff 5a c5 3e b5 08 49 3f f5 8f 8a 3e b4 7e 57 3e
       0.38545987 0.7852891 0.27062955 0.21044427
000040 96 9c 63 3e 05 23 98 be f4 f2 19 bd 28 f9 30 bf
       0.22227702 -0.29714218 -0.037585214 -0.6913018
000050 5e 44 c5 3c e9 35 e5 bd aa 6b 42 bf 9c 5a f4 be
       0.024080452 -0.11191923 -0.7594553 -0.4772538
000060 a8 61 a4 3e 41 6e c3 bd a7 6d 0b be 8d e9 9d be
       0.32105756 -0.09542514 -0.13616048 -0.30842248
000070 33 19 3e be 32 58 b4 3e e8 f2 b1 3d da 0a f8 be
       -0.185643 0.35223538 0.08688909 -0.4844578
000080 01 8c 05 3f 4f 98 9d 3e 6d e9 42 3e a5 97 ea be
       0.52166754 0.30780265 0.19034357 -0.4581882
000090 00 07 93 bf ad 07 9c 3f 7d 26 d8 3e 29 df 89 3f
       -1.1486511 1.2189842 0.42216864 1.0771228
0000a0 63 74 be 3e 11 de 64 3e 27 66 19 be 7d 61 23 3f
       0.3719817 0.22350337 -0.14980374 0.6382063
0000b0 da d2 e3 3e 4e 81 42 3e 5b 5e 59 bf cf 92 8f 3e
       0.44496804 0.18994638 -0.849096 0.28041694
0000c0 21 cb 3e bf 41 59 4a 3e 2f 55 e8 3e ee 2e c0 3e
       -0.745287 0.1976061 0.4537749 0.37535805
0000d0 d7 61 8f 3e c6 67 78 3d 08 f7 0b 3f 80 d9 27 3f
       0.28004333 0.06064584 0.54673815 0.65566254
0000e0 d0 86 1f 3f 6c d1 b5 3e b1 a8 46 be 42 58 ee be
       0.6231508 0.3551134 -0.19400288 -0.4655171
0000f0 dd 02 70 3e 1b cc fb be 98 dc fb be d6 55 01 bf
       0.23438592 -0.49179158 -0.49191737 -0.505216
000100 de dc a8 be d0 e6 21 3d 75 d7 b5 3d 48 c4 15 bf
       -0.32981008 0.03952676 0.08878986 -0.58502626
000110 a2 8a 89 be 38 bc b8 3d 8e 61 83 3e ed 99 2f 3e
       -0.2686358 0.09020275 0.25660366 0.17148562
000120 e3 28 53 3e 18 c2 02 bf a7 b8 ab 3e 00 a3 44 3f
       0.20621066 -0.51077414 0.33539316 0.7681122
000130 ff 2d 39 3e 98 5a 13 bf 45 ca 7d 3e fa 41 da be
       0.18083952 -0.5756011 0.24784191 -0.4262846
000140 3e fa 48 bf 88 8e 67 be f0 e2 3c bf d9 0d ae be
       -0.7850684 -0.22612965 -0.7378378 -0.3399494
000150 24 99 29 3e fa 54 10 be 1b f9 7e 3e 5b d5 8e 3d
       0.16562325 -0.14094916 0.24899714 0.06974288
000160 fc f4 c9 3e ec 78 0d 3f 17 2f 25 3d 7e b0 f7 3d
       0.3944472 0.5526264 0.04032811 0.1209421
000170 3f 4d de be 85 bb 91 be 41 fd 2f 3f 97 46 5e 3e
       -0.4341831 -0.2846338 0.6874581 0.21706615
000180 a7 8f 3f 3f c9 81 0e 3e fc 9a 67 3f 24 11 14 3f
       0.7482857 0.13916697 0.9047086 0.57838655
000190 0c 65 cb 3e 73 86 15 be dd 09 b2 3e 71 ce b4 be
       0.3972553 -0.1460207 0.3477315 -0.35313752
0001a0 0c fd 8d bd 98 d4 67 bd dd 9c 36 be 9b b0 be 3e
       -0.069330305 -0.05659923 -0.17833276 0.37244114
0001b0 1e c2 00 3f a8 3b d6 be 38 5a 18 3e 80 6e 05 bf
       0.502962 -0.4184239 0.14878166 -0.52121735
0001c0 9b a8 e6 3e ec b5 b8 3f b4 ca 02 be cd 7d 02 be
       0.4505051 1.4430518 -0.12772638 -0.12743302
0001d0 65 7b ee be c4 60 e8 3d 57 7e 79 be f8 25 85 be
       -0.46578518 0.113465816 -0.24364601 -0.2600553
0001e0 77 30 83 3e 3c bd 40 3f 9c 4c 36 bf 48 0d 71 3e
       0.25622913 0.7528875 -0.71210647 0.23540223
0001f0 85 75 06 bf f3 32 04 3f 7d 8d 55 bf 82 2c 78 be
       -0.5252307 0.5164024 -0.8341902 -0.24235728

mlp_encoder.lins.1.weight f4 [128, 128]
000000 65 bc 0c bf 8a 23 8e be 1b 48 f7 be 67 a4 0c 3e
       -0.5497497 -0.2776149 -0.482972 0.1373459
000010 1a d5 d1 3e 6f c9 d6 3c 1b c7 04 bf ee 49 10 be
       0.40982896 0.026219098 -0.5186631 -0.14090702
000020 ad 5c 8a be e3 be ac be 23 53 8b be c1 18 0b bf
       -0.2702383 -0.33739385 -0.27211866 -0.54334646
000030 ce 6a c1 bc c1 4f a9 3e c5 73 88 3e bf 4b a0 3b
       -0.023610499 0.3306866 0.26650825 0.004891842
000040 8c 04 91 be f8 dd 0c bf 58 8f b2 3e 89 67 3b 3e
       -0.28323781 -0.550262 0.34874988 0.18301214
000050 64 23 17 3e b8 5b ed 3e a5 23 24 bd b1 3e 6b 3e
       0.14759594 0.46359038 -0.040073056 0.22973134
000060 bd f3 0a bf 76 fd 9a 3d ba bd de 3d 8b 28 a4 bf
       -0.54278165 0.07567875 0.10876031 -1.2824873
000070 51 73 85 3e 40 fe a9 3d 95 6b 93 be ce 6f 2a 3e
       0.26064542 0.083004475 -0.28793016 0.16644213
000080 dd c6 0d 3e 09 f7 23 be e8 02 d0 bc b5 30 94 3e
       0.13845392 -0.16012205 -0.02539201 0.2894341
000090 f2 1e 41 bb fa a2 1b 3f f0 b4 01 be d8 d4 1c be
       -0.0029467908 0.6079556 -0.12666678 -0.15315568
0000a0 32 5c 14 3d c8 37 a4 3c 1a 94 1e bf 83 3a 07 be
       0.036220737 0.02004613 -0.61944735 -0.13205914
0000b0 32 5e 91 be a7 aa 1e 3e b1 22 bc be 6f d7 74 be
       -0.28392178 0.15494786 -0.36745217 -0.23910306
0000c0 b7 7c dc 3c c9 b2 2e 3e 1b 10 c8 be 32 36 69 bc
       0.026914937 0.17060389 -0.39074787 -0.014234113
0000d0 e3 b9 9f bd 05 7c 69 be 10 6e 23 bf 11 ea e4 3d
       -0.07799127 -0.22801216 -0.6383982 0.11177457
0000e0 72 06 3e 3e 09 25 0f 3e 34 4b 18 3e 58 c2 e1 3d
       0.18557146 0.13978972 0.14872438 0.11023396
0000f0 f9 27 ed 3e 65 71 7c be 91 f1 9b 3d e7 63 fb 3c
       0.4631956 -0.24652632 0.076144345 0.030687286
000100 d5 46 82 be a9 d0 02 bf 28 0d 11 3e c5 15 85 3e
       -0.25444666 -0.5109964 0.14165175 0.2599317
000110 e4 36 6c 3e 84 a3 30 3d 30 55 00 bf f8 d6 c5 3e
       0.23067814 0.04312469 -0.50129986 0.3864057
000120 57 0d 04 3d ae 80 a2 be cd db 76 be f7 54 92 bf
       0.032239284 -0.317388 -0.24107285 -1.1432179
000130 5b a1 a2 be 12 d1 81 3c ff c4 2e be 3f 70 58 be
       -0.3176373 0.015846763 -0.17067336 -0.21136568
000140 a0 e9 2a be 28 8e 17 3d 63 98 29 3e 9d 78 f2 bd
       -0.16690683 0.037000805 0.16562037 -0.118394114
000150 e0 06 07 3f c9 99 79 3e 0b 64 0b be d7 c2 13 3e
       0.52744865 0.2437507 -0.13612382 0.14429794
000160 fc 43 be 3c 83 22 50 3e 83 dc e2 be 59 a8 89 bf
       0.023225777 0.20325665 -0.44308862 -1.0754501
000170 35 66 61 3e a0 c8 e7 be 78 97 29 3e c4 21 1b be
       0.22011645 -0.45270252 0.16561687 -0.151496
000180 0b 12 15 bf 82 50 94 3c ca b0 a8 be af 58 7d 3d
       -0.58230656 0.018104795 -0.3294738 0.061852153
000190 2f e8 34 3e 50 ba bc 3e e1 5d 09 3d 48 0a ef bd
       0.17666696 0.36860895 0.033536796 -0.11671883
0001a0 d8 6c 3c 3e 85 b2 06 be a9 f5 8b bd 21 d4 89 bd
       0.18400896 -0.13154037 -0.06833965 -0.067299135
0001b0 0c f8 06 3e 9c a6 30 3e da 6c 5e be fb 1a 96 3c
       0.1318056 0.17251056 -0.21721211 0.018323412
0001c0 fd d4 57 3d 53 51 a2 3e 08 20 8d be 2c 2a 21 be
       0.052693356 0.3170267 -0.275635 -0.15738744
0001d0 be 9b 2f 3c e6 8c b1 3d 42 2a c8 bd 4d b2 6e be
       0.010718284 0.08669452 -0.09773685 -0.23310204
0001e0 96 1c 48 3c 4b da 08 bf b1 9a 59 3e 19 66 bb 3d
       0.012213847 -0.5345809 0.21250416 0.09150333
0001f0 4b 45 0c be d7 a9 3e 3d a9 73 ba 3e 56 6b 80 be
       -0.13698308 0.04654869 0.36416367 -0.2508189
000200 06 05 19 bf 80 5b a0 be c3 ea eb 3d 0b d1 61 be
       -0.5977329 -0.3131981 0.115193866 -0.220524
000210 13 cf 98 bf 14 cb 1c bd 28 bb 14 be cc f0 6c be
       -1.1938194 -0.038279608 -0.1452452 -0.23138732
000220 1a 1b 85 bb 1b 34 e6 3e 40 86 8c be c9 99 81 be
       -0.0040620686 0.44961628 -0.27446175 -0.2531264
000230 5d c3 67 3e 09 98 13 bf 3a f5 07 3f df fa 7a bd
       0.22633119 -0.5765386 0.5310856 -0.061274406
000240 e9 67 7f bd ad b5 45 bd 9a 39 6b be b1 79 b3 be
       -0.062354956 -0.048268963 -0.22971192 -0.3505378
000250 8e 9b e8 be d8 f2 44 3f 39 f7 32 bf 17 f5 0a bf
       -0.4543118 0.7693305 -0.6990848 -0.5428023
000260 08 8f 2e 3e d5 ad 75 3e 6e dc 81 bf 3c 53 d4 3e
       0.1704675 0.23992093 -1.0145395 0.41469753
000270 93 83 d7 3d 09 20 a1 3e 2e e0 1a bf ab 88 05 be
       0.10523143 0.31469753 -0.6049832 -0.13040416
000280 b1 86 ca 3e 4f d2 9f bd 87 82 95 bf 97 0b 06 bd
       0.39555886 -0.07803785 -1.1680459 -0.032725897
000290 66 88 c0 be 43 a1 10 3f 43 c4 3c 3d e8 76 c2 3e
       -0.37604064 0.56496066 0.046085607 0.37981343
0002a0 ef 46 4d be 56 4c 1e 3f 9a dc 6a be ce 04 fa 3e
       -0.2004659 0.6183523 -0.22935715 0.4883179
0002b0 a0 ed d3 be b9 2d 58 3e 4a 6e 9a be 43 0e ab bd
       -0.4139223 0.21111192 -0.3016227 -0.083523296
0002c0 4a f7 f4 bd ee d0 24 3f 28 41 2e be db cf 05 3e
       -0.11961229 0.643813 -0.17017043 0.13067572
0002d0 9e fe 1c bf fe 6f 5f be 02 b1 1e be ae df d8 3b
       -0.61326015 -0.21820065 -0.1549721 0.0066184616
0002e0 d1 69 8b bd c6 1f 81 3e 3b e5 3d be c1 1d 47 bf
       -0.06807292 0.25219554 -0.18544476 -0.77779776
0002f0 67 c3 5d 3f 73 69 fe be 69 0e 2a be 3c 10 cf 3d
       0.86626285 -0.49689826 -0.1660706 0.10110518
000300 6b 4e ec be e9 d2 95 3d 86 1b 62 be 35 dc 31 be
       -0.46153578 0.073156185 -0.22080812 -0.17369159
000310 e6 fd 63 3e 82 ba 56 bf 53 0f 1c 3f 4c 95 5e bf
       0.22264823 -0.8387834 0.6096088 -0.8694656
000320 74 16 8c 3c 66 af fe be a8 50 e8 be f7 2d 59 3e
       0.01710055 -0.49743193 -0.45374036 0.2120894
000330 0b 83 d6 be a5 20 7b 3e 7c 17 64 bd a4 cc 21 3e
       -0.41896853 0.24524172 -0.05568646 0.1580072
000340 fd 95 92 3e da e8 94 3e 1e 86 e9 3c be fd 0b bd
       0.28630057 0.29083902 0.028506335 -0.034177534
000350 36 bb be 3d 8e ab fb bd 45 80 db be 42 96 88 3e
       0.093130514 -0.12288581 -0.428713 0.26677138
000360 b7 3d 97 be 08 32 ce 3e 41 ae f7 be 4e 23 49 3e
       -0.29539272 0.40272546 -0.48375133 0.19642374
000370 b5 5b f7 be ac 2c 9e be b2 c5 cb 3e a4 d4 8d 3d
       -0.48312154 -0.30893457 0.39799267 0.069253236
000380 0c b8 0b 3f 6d 77 db bc b0 70 08 3c 49 31 1b bf
       0.5457771 -0.026790345 0.008327648 -0.6062208
000390 4a 91 73 be f2 d1 f8 be 1e b0 64 bb fc ed b1 bd
       -0.23785892 -0.48597676 -0.0034895013 -0.0868797
0003a0 5e af e8 3e 63 83 9e bd ae 1b 26 3d c0 c0 01 bd
       0.45446295 -0.07739904 0.04055374 -0.03167796
0003b0 cc c2 d7 be 59 b2 ae be cc 72 a9 bd ec ce 31 3d
       -0.42140806 -0.34120443 -0.08273849 0.043410227
0003c0 c5 58 1b 3e 5b 7e d6 be 2f 5e 2a 3f 56 65 63 3e
       0.15170582 -0.41893277 0.6654996 0.22206625
0003d0 c6 23 d8 3d 5a 6e d4 be e3 13 36 3e f1 b3 02 be
       0.10553698 -0.41490442 0.17781024 -0.12763955
0003e0 68 2a b5 3e 58 13 4f be cc 1f 91 3d f5 ba 3d 3e
       0.35383916 -0.20222223 0.07086143 0.1852835
0003f0 d2 26 6b bd 50 dc 07 3f 66 27 29 bf e1 cc 89 3d
       -0.05741007 0.53070545 -0.6607574 0.06728531

mlp_encoder.lins.1.bias f4 [128]
000000 e5 24 b9 be 9b 6f eb 3e ae b0 88 3c b9 2b c9 3e
       -0.3616096 0.45983586 0.01668581 0.3929117
000010 5f c0 59 be e0 8d 79 3d fd 78 22 3e e2 74 2a 3f
       -0.2126479 0.06092632 0.15866466 0.665846
000020 04 6a 5a 3d 63 34 9b be 18 da b3 bc 07 df ad be
       0.05332376 -0.30313405 -0.021954581 -0.3395922
000030 c5 33 35 3e 0d ea 9a be 61 8b 6e 3d 30 db 08 3f
       0.1769553 -0.30256692 0.05823839 0.53459454
000040 5a 8b f7 3e 9a b3 8b 3e 89 d4 5e 3e 30 4f 1e 3d
       0.48348504 0.27285463 0.21760763 0.038649738
000050 73 21 c6 3e 09 86 33 bd 37 c7 fe be 3b 65 f5 be
       0.38697395 -0.043828998 -0.49761364 -0.47928795
000060 88 25 15 3f 24 ba 5e 3e 37 29 64 3d 1a c0 e1 3e
       0.58260393 0.21750695 0.055703368 0.44091874
000070 f9 b4 52 3e e2 58 58 bb 19 7c 80 bd 28 9c f6 3e
       0.20576848 -0.0033011963 -0.0627367 0.48166013
000080 fc 5d 68 3e f9 7c 86 3d f4 7f 3e be 65 fd 2b 3f
       0.22692102 0.065668054 -0.18603498 0.67183524
000090 1d b8 3c bf 14 46 2a bd 41 91 27 3e ee 6e 01 3e
       -0.73718435 -0.041570738 0.16364004 0.12639973
0000a0 17 e0 fe 3e 22 8a cc 3e d0 34 2d bf 25 a2 cd 3c
       0.49780342 0.39949137 -0.6765871 0.02510173
0000b0 f3 f1 27 3f 0d 90 82 3e 85 0b 4b 3d c6 a2 16 3d
       0.6560356 0.25500527 0.049571533 0.036776327
0000c0 0a a6 3e 3e d0 a6 a0 3b 38 55 97 be 7d 7b 03 3e
       0.18618026 0.004902698 -0.29557204 0.12840076
0000d0 a0 51 db be 15 0e 8b 3d ff 99 32 be b7 f6 8b 3e
       -0.42835712 0.06789795 -0.17441557 0.27336666
0000e0 6e 39 7f 3d bf 3f c9 be 5b 4a 91 3e ef c6 8e be
       0.06231063 -0.39306447 0.2837704 -0.2788615
0000f0 5a fc a4 be 8f 08 08 be 6e bc 91 bc 3d cb 21 3e
       -0.3222378 -0.13284515 -0.017790046 0.15800186
000100 da 41 dd bc 57 2d fc 3e f6 6d 37 3e 71 79 27 3e
       -0.02700894 0.49253342 0.1791304 0.1635492
000110 bc eb d3 bd de 36 9e 3e b4 70 36 3e 52 a7 22 bf
       -0.10347697 0.30901235 0.1781643 -0.6353656
000120 b2 62 bf 3d b6 ef 01 3d b3 12 14 3f c6 fb 2b be
       0.093449965 0.031722747 0.5784103 -0.16795263
000130 44 db 36 bd bd 12 3b 3e 9c 31 f5 3e 4d 5f a4 bd
       -0.0446427 0.18268867 0.4788941 -0.0802599
000140 e8 6f 2b 3e 33 f4 0d bf 93 94 e3 3e f3 3e 2a be
       0.16741908 -0.55450743 0.4444929 -0.16625576
000150 fc b4 ee 3e 13 92 7c 3e 9f 75 8a 3e f2 6f 29 3f
       0.46622455 0.24665098 0.27042863 0.6618644
000160 1f 32 6a be 9f 8b 3d be df b3 99 be 4b ee c8 3e
       -0.22870682 -0.18510292 -0.30020043 0.39244303
000170 f8 55 dc 3e c8 a9 55 3f d5 7b 98 3e ec 8d 1b 3e
       0.4303434 0.8346219 0.29781976 0.15190858
000180 0e e6 f2 3d ec 0b 03 3f 35 6e 35 bf 70 58 13 bf
       0.11860286 0.51190066 -0.7087129 -0.5755682
000190 5b 7a b4 3d 70 ef 15 3e 58 24 de bd 68 e9 ff be
       0.088124 0.1464212 -0.10846776 -0.49982762
0001a0 60 08 3c 3e 79 3b b3 be a1 a0 57 be 63 1b f6 bd
       0.1836257 -0.35006312 -0.21057369 -0.12016942
0001b0 d8 cc 02 bf 05 14 f3 be 5a fe d3 be 97 2c 0f 3f
       -0.51093817 -0.4747621 -0.41404992 0.55927414
0001c0 8a c9 40 3e 7a 8e 67 3d b9 5f 00 bf 19 c4 5b be
       0.18826881 0.05653236 -0.5014606 -0.21461524
0001d0 b8 44 e0 be 1c 3f a8 3e 0b d3 7b be d6 4d 70 3d
       -0.43802428 0.3286065 -0.24592225 0.05866798
0001e0 bc 57 39 bc d5 87 b8 3d 24 bd a0 3d 60 2e 0a 3e
       -0.011312421 0.09010283 0.07848576 0.13494253
0001f0 93 1e e9 3e cd ab a6 be 11 88 4c 3e e4 cd ab be
       0.4553114 -0.3255295 0.1997378 -0.3355552

mlp_encoder.lins.2.weight f4 [128, 128]
000000 e7 72 6f 3e 61 63 11 bf b0 a7 1c bf f0 0f 93 be
       0.23383676 -0.56792265 -0.6119337 -0.28723097
000010 72 bd ca be 3b ca 22 bf 82 c9 94 3e 9e 18 f0 3d
       -0.3959766 -0.6358983 0.29059988 0.11723445
000020 61 d0 70 3e ab ae 9a be c3 2a c4 be 40 d2 95 3d
       0.2351699 -0.30211386 -0.38313875 0.07315493
000030 4d 85 a8 be 43 73 73 3e 05 63 ff be 03 52 87 be
       -0.329142 0.23774438 -0.49880233 -0.26429757
000040 11 07 14 bf 61 e3 e4 3d b3 2c e9 be 89 3c af be
       -0.5782328 0.111761816 -0.45541915 -0.34225872
000050 6a 7d c4 be 43 fa a1 be 1b 03 81 be 51 56 e4 bd
       -0.38376933 -0.31636247 -0.25197682 -0.11149276
000060 72 7c bb 3d 85 78 da 3e 26 fb d8 3d e0 c7 16 3e
       0.091545954 0.42670074 0.10594778 0.14724684
000070 7a c4 bc be 71 de 7e be ec 9e 97 3d f7 60 e3 bd
       -0.3686865 -0.24889542 0.07403359 -0.11102479
000080 3d 16 41 3e ae b7 6d be 55 ad 9e 3d 4c e8 af 3e
       0.1885614 -0.232146 0.07747904 0.34356916
000090 12 86 6a be 26 08 c3 3c eb 44 b3 be d9 da fe be
       -0.22902706 0.023807596 -0.35013518 -0.49776343
0000a0 a4 cb 54 3e e4 d3 0d bf 1e 9d 34 be 5f e4 68 be
       0.20780808 -0.55401444 -0.1763806 -0.22743367
0000b0 0c 2b ee 3d cb 05 05 3e c3 67 95 be 0c 08 bd be
       0.11629304 0.12990491 -0.29180726 -0.36920202
0000c0 bb 1c bf be 66 c8 5b bf f5 ab 54 3d 95 85 31 be
       -0.37326607 -0.8585266 0.051921804 -0.17336114
0000d0 7c 5a 18 be 40 6a 26 be b0 8b 03 be 56 9d 39 bf
       -0.14878267 -0.16251469 -0.12846255 -0.725057
0000e0 61 b2 24 bf 15 25 80 be 90 52 a9 bf 81 55 39 be
       -0.64334685 -0.2502829 -1.3228321 -0.18099023
0000f0 33 f7 0a bb 76 b8 41 bd b9 bc 14 bf c2 48 bd 3e
       -0.002120447 -0.047295056 -0.5810047 0.36969572
000100 ee 76 94 3e 0f c2 b3 3d 62 aa cb bd cc aa 9f 3d
       0.28996986 0.08777248 -0.09944607 0.07796249
000110 94 d5 d9 3d 04 57 d6 be b0 2c fa 3d d0 62 b5 3d
       0.1063644 -0.41863263 0.12215555 0.088567376
000120 80 65 ac 3d 25 60 9f 3c e1 d3 5e be 03 57 b6 3e
       0.08417797 0.019455025 -0.21760513 0.3561326
000130 2d cf 97 be d9 b2 a7 be 63 44 5d 3e 3f 1d 78 be
       -0.2965025 -0.32753637 0.21608119 -0.24229906
000140 cf ea bb bd c3 5a 67 be eb 2d a5 be 63 ce 1d 3e
       -0.091756456 -0.22593217 -0.32261595 0.15410762
000150 62 3f c5 be 39 f1 ca bd ff 37 e0 be d1 1e 20 bf
       -0.3852492 -0.09909291 -0.43792722 -0.6254702
000160 75 e2 cb be c7 67 84 be 7d 72 1b be bb 71 e2 be
       -0.3982121 -0.25860426 -0.15180393 -0.44227394
000170 c3 48 c2 3d 69 70 0a bf b7 50 0d 3e 13 d3 5a be
       0.094865344 -0.54077774 0.13800322 -0.21369581
000180 c4 2c 43 be de bf b2 3e 28 94 eb be 64 80 db be
       -0.19060045 0.34912008 -0.46011472 -0.42871392
000190 f8 87 c1 be 75 40 df be 59 a8 8e bd af d9 ac be
       -0.37799048 -0.43603864 -0.069657035 -0.3375983
0001a0 9f 9f 20 3e 9a 20 85 3d ff 99 f2 bc 30 25 24 be
       0.1568589 0.06500359 -0.029614447 -0.16029811
0001b0 b9 db 70 3e b4 d5 07 3e 5d ab 09 bf 52 3a a7 be
       0.23521318 0.13265115 -0.53777105 -0.32661682
0001c0 85 13 db be 3a 7e 43 be 24 58 cc 3b c9 48 00 bd
       -0.4278833 -0.1909112 0.006236093 -0.031319413
0001d0 c1 8f ec 3c 7a 56 63 be bc e8 9f be a7 08 77 3e
       0.028877141 -0.22200957 -0.3123225 0.24124394
0001e0 10 17 3f be 3b 9f bd be a2 d2 23 3e 8a f2 e5 3d
       -0.18661141 -0.37035546 0.15998319 0.11227901
0001f0 28 1a f5 3d d7 8a e0 3d c4 e6 8b 3e 9e de cb 3e
       0.119678795 0.109639816 0.27324498 0.3981828
000200 80 d9 c7 3d fd 61 3d be 4c ba e7 be 61 a2 1c be
       0.09758282 -0.18494411 -0.4525932 -0.15296318
000210 d5 ff 3c bf cd 06 9f be b8 52 b5 3d 31 01 66 3d
       -0.7382787 -0.31059876 0.08853668 0.05615348
000220 1b 93 32 bd fd 6b 63 be 26 fa c6 bd ba dc a2 bd
       -0.043597322 -0.22209163 -0.09715681 -0.079522565
000230 48 2c 90 be 11 a3 34 3e 21 78 89 be c8 1e a9 3d
       -0.28158784 0.1764033 -0.26849464 0.08257824
000240 d8 42 5c be d2 09 68 bd 7f 5d b8 bd 32 b7 0f 3e
       -0.21509874 -0.05664999 -0.09002208 0.14034727
000250 ec 0a 78 be bc f1 5b be 68 d1 f7 be f2 5c 5b bd
       -0.24222916 -0.21478933 -0.48401952 -0.053555436
000260 a8 1d 8e 3c da b5 8a 3e b0 85 ea 3b 35 d1 19 3e
       0.017348126 0.27091867 0.00715705 0.15021212
000270 d3 a3 14 bf 68 75 00 be 30 0a b7 3d a2 4c 8d 3e
       -0.58062476 -0.12544787 0.0893749 0.2759753
000280 e2 4e bd 3e f3 d9 7b be cb b6 18 3e f0 e9 c1 3e
       0.36974245 -0.2459486 0.1491348 0.37873793
000290 fa 33 f4 be bb 80 1a 3e e6 58 b3 be 71 ad 14 3d
       -0.47695905 0.1508817 -0.35028762 0.03629822
0002a0 41 5d 4c 3e a5 64 f6 3b 54 08 7d bc 63 81 96 bb
       0.19957449 0.007519322 -0.01544388 -0.004593061
0002b0 89 f0 64 bd ba c5 5d 3e 3c 27 2f bf b7 32 b1 be
       -0.055893455 0.21657458 -0.6841924 -0.34609005
0002c0 f9 2a ff bd 63 49 0b bf 01 64 18 3e 74 6b da 3d
       -0.12459368 -0.54408854 0.14881898 0.10665026
0002d0 00 cb 2a 3e 4b 7c 76 3e 3a 27 c6 3d 6f d0 e2 be
       0.16679001 0.24070852 0.096754506 -0.44299647
0002e0 f9 c6 94 ba 3e 76 79 bc 30 b1 62 bf e7 24 88 be
       -0.0011350802 -0.015225945 -0.88551617 -0.26590654
0002f0 ef f9 49 3e a3 79 e6 be bb fe c1 be 94 cd 4d 3e
       0.19724248 -0.45014676 -0.37889656 0.20097953
000300 58 a3 4c 3d 0a d8 fc 3d c1 7f 41 3e 8f aa 36 3e
       0.049960464 0.12345894 0.1889639 0.178385
000310 7b ca 22 3e 34 39 cb be f1 86 8d bd 32 50 1d 3e
       0.15897553 -0.3969208 -0.06910504 0.15362623
000320 b6 3d 32 3e 35 51 7b bd 7f c7 03 bf 4b b3 d3 3e
       0.17406353 -0.061356742 -0.5147628 0.41347727
000330 67 c4 04 be 78 72 cc be 64 d0 78 3e 0c e5 a4 3d
       -0.12965547 -0.39931083 0.24298245 0.080515
000340 81 a0 e1 3d 84 18 02 3e 98 c0 fe bd bc 96 e5 bc
       0.11016942 0.12704664 -0.12439078 -0.028025977
000350 04 ef ae be e7 35 c3 be 9e 53 d6 be 3f c0 19 bf
       -0.3416673 -0.38127062 -0.4186067 -0.6005897
000360 f8 5c 60 bd 7f f4 4f 3d 1f fe 04 bf e7 6e 7b be
       -0.054776162 0.05077028 -0.5195026 -0.24554025
000370 15 21 fc be 8c 95 9d be f0 f3 46 3e 4f d9 1c be
       -0.4924399 -0.30778158 0.19428992 -0.15317272
000380 8c fd 3a 3e c6 48 ab 3e af 56 8b be da 63 02 bf
       0.18260783 0.3345396 -0.27214572 -0.5093361
000390 33 41 ad 3d da 33 2f bf ac 1e 2a be 8b 74 86 bc
       0.084597014 -0.68438494 -0.16613263 -0.016412994
0003a0 2d a2 d8 3d 6c 9a 39 3e b5 11 29 3e 40 7b 92 3e
       0.105778076 0.18125314 0.16510661 0.28609657
0003b0 0c a9 78 bd 8b 94 7c 3e 9a af 4d ba d0 85 00 3d
       -0.06070809 0.2466604 -0.0007846296 0.031377614
0003c0 12 44 48 be f8 5b a0 bd 84 04 86 3e 90 4e da bd
       -0.19557217 -0.07830042 0.2617532 -0.10659516
0003d0 97 80 1b 3e 0c 44 45 3e f0 3e ca 3d 2f c3 5c 3d
       0.15185772 0.19264239 0.098752856 0.05389708
0003e0 c2 dc d5 bd f5 c6 14 bf b9 47 5f 3e cf 79 80 3e
       -0.10442497 -0.58116084 0.21804704 0.25092933
0003f0 8a a5 6a 3e 8d 9d 10 be ed e9 0c 3e 98 0e 93 3e
       0.2291471 -0.14122601 0.1376111 0.28722072

mlp_encoder.lins.2.bias f4 [128]
000000 4f 7e 92 be c6 39 2f bd ce d5 e7 3c ad 8d 46 3e
       -0.2861199 -0.042779706 0.028300192 0.19389983
000010 a5 d7 aa bd 6b 03 0d bd cc 53 79 be ef 23 ca be
       -0.08341912 -0.034427088 -0.24348372 -0.3948054
000020 c4 bd 81 bf a2 19 f4 3e dc ab 1b bf 96 cb 29 be
       -1.0136037 0.47675806 -0.6080911 -0.16581568
000030 26 b5 3d be d2 54 0c be a0 e6 24 3c 86 9f a3 be
       -0.18526134 -0.13704231 0.010064751 -0.31957644
000040 4a f2 98 bd 62 39 94 be c6 71 9e 3e b2 a6 df 3e
       -0.07468088 -0.2895003 0.30946177 0.43681866
000050 9c 9d c6 be c0 81 92 3e f9 1e f2 bd b0 02 21 3d
       -0.3879212 0.28614616 -0.11822314 0.039309204
000060 ca b0 2d 3e 00 98 bb 3e 5c 66 7d 3e 91 d5 28 be
       0.16961971 0.36639404 0.24746078 -0.16487719
000070 11 e5 cf be be 61 d5 be 79 19 85 be fc 1d 3a 3f
       -0.4060445 -0.41676134 -0.25995997 0.72702
000080 07 2a e5 bd 6c e5 d4 bd ef 1b 0e be 64 c7 5e be
       -0.11189657 -0.10395321 -0.13877843 -0.21755749
000090 7d 73 3d be 65 68 3d 3e 43 02 04 3d b4 8e 66 3e
       -0.18501087 0.18496855 0.03222872 0.22515374
0000a0 78 0b 77 3d e8 9e 3b 3f e0 f1 bc 3e a0 d0 d9 be
       0.06031367 0.73289347 0.36903286 -0.4254198
0000b0 02 f0 73 3e cb 79 3e be 36 e9 8d 3d aa 49 75 bc
       0.23822024 -0.18601148 0.06929247 -0.014971176
0000c0 63 c3 0e be 47 5f 88 be 70 7f b0 3e 88 ff 8d 3e
       -0.13941722 -0.2663519 0.34472227 0.27734017
0000d0 7f ca 71 be 24 91 e7 3d 07 12 40 3e e6 6a 83 3e
       -0.23612402 0.1130698 0.18756877 0.25667495
0000e0 25 78 ec be 98 ca 0d 3e 0c e7 ee bd 1a f3 53 3d
       -0.46185413 0.13846815 -0.116651624 0.05174551
0000f0 9b 77 ce bd 81 0d 2d be 0c 75 70 be b6 da 50 be
       -0.10081407 -0.16899683 -0.2348215 -0.20395932
000100 b5 13 b2 3e 89 a3 31 3e d3 2d a7 3e dc 53 a4 be
       0.3478066 0.1734754 0.3265215 -0.3209523
000110 21 6c 23 3e 26 67 4d bd e6 ae 52 3d 4c 87 88 be
       0.15959217 -0.0501472 0.051436327 -0.26665723
000120 7e 61 8d 3e 31 8a cc 3d da 7f e7 bd 16 94 ae be
       0.27613443 0.099872954 -0.113036826 -0.34097356
000130 ec 8e 02 3e ba f7 b2 bd 12 6b 5a 3d 82 47 e8 3e
       0.12749833 -0.08738656 0.053324766 0.45367056
000140 54 c9 a7 be 21 b3 51 be 0a 07 4d 3e 4a e1 1b bd
       -0.3277079 -0.20478489 0.20022216 -0.03805665
000150 ac 7f 86 bd 4c 7a c2 be 87 91 ba 3e 27 a4 d1 3e
       -0.0656732 -0.3798393 0.36439154 0.4094555
000160 26 03 3c be d2 3a 2b 3f 3b f3 49 be 51 e0 b8 3e
       -0.18360576 0.6688663 -0.19721691 0.3610864
000170 5c 31 28 be 1d 53 be be cf 90 21 bf 94 6d de be
       -0.16425079 -0.37172785 -0.63111585 -0.43442976
000180 70 dc 39 3e b1 09 ac be ed af cd 3b c5 87 a5 3d
       0.18150496 -0.33601144 0.0062770755 0.080825366
000190 96 42 98 3e a2 51 ee 3d bc 7f 84 3e 92 3c 4a 3f
       0.297383 0.11636664 0.25878704 0.7899867
0001a0 f9 19 98 3e ff 8e 42 be 3d d4 6b 3c b3 f7 25 3d
       0.29707316 -0.18999861 0.014393863 0.040519428
0001b0 e5 7f 51 3d 1d 41 de 3e 05 df 82 be 9b 40 77 3e
       0.05114736 0.43409052 -0.25560775 0.24145739
0001c0 79 36 16 3f ee 53 32 be ef c0 63 be 87 93 46 be
       0.5867687 -0.17414829 -0.22241567 -0.19392215
0001d0 a8 2f 82 3e 11 fd f7 bc d1 c9 f0 be 7f 0f a0 be
       0.25426984 -0.030272039 -0.47028974 -0.31261823
0001e0 17 4c 82 3e ba 5d f2 be 1d 09 5d bf d3 0d 1a 3e
       0.25448677 -0.47337133 -0.8634203 0.15044336
0001f0 9f b1 08 bf 36 c9 6a be ed 31 b8 be ea 77 f8 bd
       -0.5339603 -0.22928318 -0.3597559 -0.12132247

mlp_encoder.lins.3.weight f4 [96, 128]
000000 80 1b 77 b8 af 31 45 3e 24 5d 8e 3d 27 14 3d be
       -5.8915e-05 0.19257234 0.06951359 -0.18464719
000010 f8 56 22 3e 62 0e cb bd 56 d1 93 bd af 08 88 3c
       0.15853488 -0.09914853 -0.07217662 0.016605703
000020 ac 6f 1d 3d f4 ed 13 3c dd 22 3c be 7d a3 48 3e
       0.038436577 0.0090289 -0.18372674 0.19593616
000030 8a 67 9f 3e 2a 80 5e 3e 8a 28 5e be 02 2b b9 3d
       0.31133682 0.21728578 -0.21695152 0.09041406
000040 bd 6e 70 be 21 b6 af 3b ca 53 e1 3d 53 37 04 bf
       -0.23479743 0.0053622876 0.110023096 -0.5164692
000050 b5 bf c4 bd a0 79 a3 be ab 7d 15 3c 7b 9d 84 3e
       -0.09606878 -0.3192873 0.0091242 0.25901398
000060 9d 19 36 3e 7b 67 9b bc 64 a8 d7 bd a6 23 49 3e
       0.17783208 -0.018970242 -0.10530165 0.19642505
000070 55 a9 94 be 46 28 ff be f2 ab 5f bf 92 90 df 3c
       -0.2903544 -0.49835414 -0.8737174 0.027290616
000080 63 12 47 3e 2c 63 fc bc aa 1d 4b be b0 98 91 3d
       0.19440608 -0.030809008 -0.19835535 0.07109201
000090 38 3a 35 3d dc 84 14 3d c0 92 b6 3d 54 fd 4a 3c
       0.044244975 0.036259517 0.08914709 0.0123895
0000a0 e6 44 da bd 7e 07 9d 3e 58 42 49 3d 87 a9 48 3e
       -0.106576726 0.3066978 0.049135536 0.1959592
0000b0 53 02 8d 3c a0 4c c9 be 12 2d 9b be 43 07 ff bd
       0.017213022 -0.39316273 -0.30307823 -0.12452557
0000c0 96 e2 31 bd 52 30 f9 3d 67 b2 ab be 1d 63 8e 3d
       -0.04342898 0.121674195 -0.33534548 0.06952498
0000d0 88 7a 97 be 53 6d bb 3d fe 56 e8 be a8 93 aa 3d
       -0.2958567 0.09151711 -0.4537887 0.083289444
0000e0 5d 5f 30 be ab 5f 0d 3e 2c 38 a7 bd a0 e9 80 bd
       -0.17223878 0.13806026 -0.08165011 -0.062945604
0000f0 17 e5 de bd 25 a1 88 3e c1 b7 27 be 96 fd 45 be
       -0.10883539 0.26685444 -0.1637869 -0.19335017
000100 b1 30 e6 bd 0d 28 8b be ce 07 82 3e 60 91 3d 3d
       -0.11239756 -0.27178994 0.2539658 0.04628122
000110 ba e0 23 3e 44 cf 0a 3e 70 04 4a 3e 02 df 09 bd
       0.16003695 0.13555628 0.19728255 -0.033659942
000120 92 42 be bd 39 fa 51 be 6b d4 c2 be 2c ea e4 3d
       -0.09290041 -0.20505609 -0.38052687 0.11177477
000130 d9 64 0c bf 38 96 a0 3c f6 76 32 3e 88 7b c2 bc
       -0.5484138 0.01960288 0.17428192 -0.023740545
000140 2c c1 3d be 9e de 72 3d d1 42 18 be 21 b5 8c 3d
       -0.1853072 0.059294336 -0.14869238 0.06870485
000150 50 7e 0c bf 61 42 bc 3d 85 46 e3 bc 0d 40 00 3e
       -0.5488024 0.09192348 -0.027743587 0.12524433
000160 1b a2 a0 be eb f1 3c bd da 65 26 be 27 27 0d be
       -0.31373677 -0.04612915 -0.16249791 -0.13784467
000170 3b 2e 94 3e a7 93 ba be 5d d9 01 bf 49 3f 58 be
       0.2894152 -0.36440775 -0.50722295 -0.21117891
000180 c5 0e 7f 3d 23 4c cb bd 49 20 83 bc f3 f8 6f bd
       0.062269945 -0.09926631 -0.016006606 -0.058587026
000190 1e 2c a1 bd d6 ef f1 bd b8 d0 7c 3c 35 28 e5 be
       -0.07869743 -0.11813323 0.015430622 -0.44757238
0001a0 2f b5 30 bd ff 0f 0e 3e 74 89 10 3e ec ff b7 bd
       -0.04314154 0.1387329 0.14114934 -0.0898436
0001b0 62 a7 a1 3e 8a 63 eb 3e e7 f9 e6 3e c1 32 40 3d
       0.31573015 0.4597438 0.45112535 0.046923403
0001c0 97 e8 f4 be b0 9a ea bd 7d 03 45 bd 7f 69 a8 be
       -0.47833702 -0.114552855 -0.04809903 -0.32892987
0001d0 cc be 45 bd 3e 23 85 3c a8 fc 29 bd 47 97 d8 3d
       -0.04827766 0.016252156 -0.041500717 0.10575729
0001e0 8a d8 3f 3e 6d 5b 0c be 1b 9b 3d 3e 54 b7 f2 be
       0.18734947 -0.13706751 0.185162 -0.47405493
0001f0 c7 d5 8b be d0 5f 21 be e6 6b ef bd a2 93 ab be
       -0.27311537 -0.15759206 -0.11690502 -0.33511072
000200 60 f7 91 3e cf cb 83 3e b4 2c 1a 3e 6d ce 6b 3e
       0.28509045 0.2574143 0.15056115 0.23027964
000210 45 42 ef 3d b7 2b 63 bf 64 8e d9 3e c5 54 f6 be
       0.11682562 -0.8873858 0.42491448 -0.4811155
000220 30 c3 1b bd e1 4a dd 3e 62 3a b5 bc d1 08 e4 3d
       -0.038027942 0.4322119 -0.022122566 0.11134494
000230 6a eb 2d bf 96 38 e5 3e 4e 4e 2e be 3e c9 be be
       -0.6793734 0.44769734 -0.17022058 -0.3726291
000240 ae 96 0e be 15 c9 22 be 87 bf 0d 3e 9c 0f c4 be
       -0.13924667 -0.15897019 0.13842593 -0.3829316
000250 ee bd 1d 3e ad 18 95 be 20 6f e7 be 23 97 54 3e
       0.15404484 -0.2912039 -0.4520197 0.20760779
000260 25 f0 02 3e e4 b3 16 3e f9 81 d4 3e d7 cc 83 3e
       0.1278692 0.1471706 0.4150541 0.25742218
000270 23 62 86 be f0 db 63 bf 40 01 1f bf ed bc 86 bd
       -0.26246747 -0.89007473 -0.6211128 -0.065790035
000280 22 ce a7 3e 59 53 03 3f d9 cc e8 be ac 9e 97 3e
       0.32774454 0.51299053 -0.45468786 0.29613245
000290 ca 7b 70 bd ce a8 a8 3e 48 94 bc 3d 3b 0a 5f 3e
       -0.058711804 0.32941288 0.0920797 0.21781246
0002a0 cd da 2e be bf fa 63 3e 90 89 cd 3e f2 27 08 3e
       -0.17075653 0.22263621 0.40144014 0.13296488
0002b0 c0 71 e2 3e 80 23 25 be b4 94 bb 3e 33 b8 39 be
       0.4422741 -0.16126823 0.3663689 -0.18136673
0002c0 b0 21 ad 3e b1 34 b6 3d cd 2b f3 bd 5d 9d 27 3d
       0.33814764 0.08896769 -0.11873589 0.040921558
0002d0 66 ee 0a 3f 39 6f d5 3e 8d 70 c1 be 97 56 67 3e
       0.5427002 0.4168642 -0.37781182 0.22591625
0002e0 40 d8 2e 3f 50 0f cd 3d a2 aa 9b 3e 9d 27 3c 3e
       0.6829872 0.10012686 0.3040362 0.18374486
0002f0 49 3b 07 3f b7 65 eb 3e 54 41 e4 3e 81 c8 28 3f
       0.52824837 0.4597604 0.4458109 0.65930945
000300 7c 8c 85 3e 3b 1e ad bd 3a 52 7b 3d d9 be 65 3e
       0.26083744 -0.08453032 0.061357714 0.22436084
000310 c8 e8 d3 3e cc 4e 74 be 68 6b 3c 3e f8 97 66 bf
       0.41388535 -0.23858184 0.18400347 -0.90075636
000320 3a db 82 3c 88 8e 35 be 65 11 e3 be 95 69 74 3e
       0.015973676 -0.17730153 -0.44349208 0.23868401
000330 76 ed 7e 3d 2c 66 33 3c 0a 98 7f 3e b5 1b 79 3e
       0.06223818 0.010949653 0.24960342 0.24326976
000340 00 bb 42 3c ce b2 58 3e b3 38 82 bd d7 81 fe 3d
       0.011885405 0.21161959 -0.06358471 0.12427109
000350 e0 09 5e be c5 de f0 3d b9 17 d6 3e 53 4d 01 3f
       -0.21683455 0.1176124 0.41814974 0.5050861
000360 3b d2 19 be 0c 62 68 3d 02 d1 b2 bd 6b 60 60 bf
       -0.15021603 0.05673413 -0.08731271 -0.8764712
000370 a8 44 87 bd 82 21 10 bf a0 ed c6 be a8 fd 38 3e
       -0.06604892 -0.5630113 -0.38853168 0.18065512
000380 22 ba 58 bf aa 72 f1 bd 12 ce d8 3d 66 89 fb be
       -0.84659016 -0.117894486 0.1058618 -0.49128264
000390 11 c2 5a be a2 25 20 3f 3e d6 04 bf ce 03 0d bf
       -0.21363093 0.62557423 -0.5188941 -0.5508393
0003a0 d3 39 21 bf 2a b2 78 3e ce 11 8e 3e cd ca ba bd
       -0.6297886 0.24286714 0.2774796 -0.091207124
0003b0 5e 25 f3 3e 5c 5c f6 3e 7d 63 b2 bd 79 8c d2 3e
       0.47489446 0.4811734 -0.08710382 0.41122797
0003c0 68 e1 96 be d3 9e 31 bf 8e f1 5d 3e 0b 97 56 bf
       -0.29468846 -0.6938297 0.21674177 -0.83824223
0003d0 02 f8 fa 3e 24 6a fb 3e 38 74 8b 3e 38 0f a9 3e
       0.4901734 0.49104416 0.27237105 0.33019423
0003e0 11 cf e2 3e 47 e7 49 3e 38 1e 50 be 35 5c ca be
       0.44298604 0.19717132 -0.20324028 -0.39523473
0003f0 26 05 b5 3e 86 03 89 bd 01 02 2f bf 59 1d 14 3d
       0.3535549 -0.06690125 -0.6836243 0.0361608

mlp_encoder.lins.3.bias f4 [96]
000000 ce aa 70 3e 06 e8 95 3f 20 09 c5 bd e7 ea 0f 3e
       0.23502657 1.1711433 -0.09620881 0.14054452
000010 f1 98 98 3d c7 90 65 3e 33 5c 6e 3e cd a2 06 3f
       0.07451046 0.2241851 0.23277359 0.52592164
000020 ef a7 08 3f ed 49 97 3b 9f fa 20 bd 0a 4b dc be
       0.53381246 0.004616967 -0.03930151 -0.43026
000030 54 9f 11 bd a7 63 53 be 72 47 91 bf ac 7a ee 3c
       -0.035552338 -0.20643483 -1.1349928 0.029111229
000040 f5 81 08 3e f7 57 93 3e f6 91 83 bd 97 b3 b8 3d
       0.13330825 0.2877805 -0.06424324 0.09018629
000050 c6 05 14 bd fb ea a8 be a6 a0 8d 3d f7 59 3a be
       -0.03613832 -0.32991776 0.06915407 -0.18198381
000060 d1 d6 ab bb f0 1d 91 bd 8b c1 0e 3e ef 94 e1 3d
       -0.005244114 -0.07085788 0.13941018 0.11014735
000070 f9 50 b3 3e 85 03 b6 bd c2 5c 44 bd f9 8a 7c bb
       0.35022715 -0.0888739 -0.047940023 -0.0038534983
000080 73 7d a7 be 58 cc 4f 3f 88 29 a0 be ac 42 11 bf
       -0.32712898 0.8117118 -0.31281686 -0.5674236
000090 63 cc 36 bf ec 33 d6 bc ca 74 8a 3d 3b 35 3d be
       -0.7140562 -0.026147805 0.06760557 -0.18477337
0000a0 02 fc 2b bf 98 e9 0d bf f3 c2 90 3d 5c 13 84 3e
       -0.6718141 -0.5543456 0.070684336 0.2579602
0000b0 9c b8 64 3e 8c 3d f2 be dd d2 1d 3e e8 75 11 3e
       0.22336048 -0.47312582 0.15412469 0.14205134
0000c0 8b 9f f0 bb 22 85 e4 bd ef d1 9f 3d a4 b9 c9 be
       -0.0073432378 -0.111582056 0.078037135 -0.39399445
0000d0 42 35 28 3e 59 dd 13 ba 5e 6d 78 3e 73 74 b3 bd
       0.16426566 -0.00056405884 0.2426047 -0.08762445
0000e0 48 c2 f8 be d5 7d e7 be 3b 4b 83 3e 1b 89 cd 3e
       -0.48585725 -0.4521319 0.25643334 0.40143666
0000f0 6d df e5 be 42 86 57 bd 5f 77 cb 3d d8 54 f6 3e
       -0.44897023 -0.052618273 0.099348776 0.48111606
000100 80 4e 89 bd e5 af 1d bc 8c 4a ce 3e 9f b2 1e 3f
       -0.06704426 -0.009624456 0.4029125 0.61991304
000110 ab 22 11 be df e0 56 bd 98 6f 56 be c2 f2 db be
       -0.14173381 -0.052460548 -0.20941007 -0.42958647
000120 8b 1c cd 3c 62 2d cc 3e dc 0e 9f be f0 94 84 3d
       0.025038024 0.39878374 -0.31066024 0.0647372
000130 a8 be 83 be c7 53 04 3e 19 3a 8b be f8 0d b3 bd
       -0.25731397 0.12922584 -0.27192762 -0.08742899
000140 ca 2f 45 be 62 46 1e be c8 eb 8d 3e 8a af de 3e
       -0.19256511 -0.15456536 0.2771895 0.434933
000150 33 2c 21 3b 44 a5 55 be ce b7 8d 3e 17 89 45 be
       0.0024592995 -0.20863825 0.27679294 -0.19290577
000160 c0 f5 ec 3e 4b f0 05 3d 56 6c 0f be f9 80 08 be
       0.46281242 0.032699864 -0.1400617 -0.13330449
000170 5a 5b 5f 3c 21 9a 2f bf 77 5e 09 be 61 50 24 3f
       0.01363262 -0.6859456 -0.13414942 0.6418515

mlp_encoder.norms.0.module.weight f4 [128]
000000 e8 40 9f 3f ed 27 8b 3f a7 8b 9b 3f fb 25 7c 3f
       1.2441683 1.0871559 1.2151994 0.98495454
000010 e3 01 4e 3f c5 7e 41 3f 69 0a b0 3f 92 78 b1 3f
       0.8047163 0.7558406 1.3753177 1.386492
000020 fa f8 85 3f fe 4e cd 3f ba 47 25 3f 90 54 ab 3f
       1.0466607 1.6039732 0.6456257 1.3385181
000030 1e 4f 5c 3f 09 65 02 3f 72 e8 58 3f 3a 44 86 3f
       0.86058223 0.5093542 0.84729683 1.0489571
000040 c6 ff a3 3f a1 b6 a5 3f 97 37 79 3f cc 7f 6a 3f
       1.2812431 1.2946359 0.9735045 0.9160125
000050 2c d5 75 3f 4b 01 af 3f b4 67 2d 3f 19 dc 1d 3f
       0.960284 1.367227 0.67736363 0.6166397
000060 47 35 9d 3f e6 21 45 3f 20 bf 8a 3f 57 ea d7 3f
       1.2281884 0.7700485 1.0839577 1.686839
000070 f7 a5 67 3f 17 3a 6f 3f e5 6a 98 3f a7 1b 71 3f
       0.9048762 0.93448013 1.1907622 0.9418282
000080 b8 07 40 3f 17 a3 41 3f d0 94 75 3f aa 24 93 3f
       0.7501178 0.7563948 0.95930195 1.1495564
000090 39 f3 9c 3f 56 5a 9d 3f 73 41 93 3f d5 89 79 3f
       1.2261726 1.2293193 1.1504349 0.9747594
0000a0 04 56 ad 3f be a8 82 3f 67 39 7c 3f 24 10 91 3f
       1.3541875 1.0207746 0.9852509 1.1333051
0000b0 05 42 49 3f e7 56 65 3f 18 3f a7 3f 1d b5 88 3f
       0.7861636 0.8958573 1.306613 1.0680271
0000c0 3d 97 80 3f 0c 6e 8a 3f 7c 5e 79 3f d8 58 46 3f
       1.0046154 1.0814834 0.97409797 0.77479315
0000d0 87 2c 98 3f d7 29 4f 3f 5e 26 8a 3f a5 12 3c 3f
       1.1888589 0.8092322 1.0792959 0.7346595
0000e0 1b 18 8e 3f f5 a8 a0 3f 06 f4 50 3f c7 94 39 3f
       1.1101106 1.2551562 0.8162235 0.7249264
0000f0 e7 20 8c 3f c4 4b 97 3f 5a e2 55 3f 3a 17 1b 3f
       1.0947541 1.1819997 0.8354851 0.60582316
000100 2e 6c 81 3f 3f 74 69 3f f0 64 75 3f f3 e6 8e 3f
       1.0111139 0.91193 0.95857143 1.116423
000110 43 4c 27 3f 9e b7 44 3f e9 8d cb 3f ee 83 81 3f
       0.6535074 0.7684268 1.5902683 1.0118387
000120 5e cb 22 3f 03 4c 84 3f 5f cc b3 3f 18 2f bd 3f
       0.63591564 1.0335697 1.4046744 1.4779997
000130 1e 1a 5c 3f 4c 21 91 3f 9e c8 62 3f bf fb 64 3f
       0.8597735 1.1338286 0.8858737 0.89446634
000140 01 97 9c 3f 56 2e 87 3f 0f ac 3c 3f a4 44 b8 3f
       1.2233583 1.0561016 0.7370004 1.4395947
000150 16 14 87 3f 96 b5 80 3f 8d b3 97 3f 08 a2 51 3f
       1.0553005 1.0055416 1.185167 0.81887865
000160 3a 82 48 3f 9b b2 93 3f 10 7c 66 3f aa bb a2 3f
       0.7832371 1.1538881 0.90033054 1.271352
000170 4b 7a 10 3f 04 bb b1 3f ff dc 89 3f b7 ee 84 3f
       0.56436604 1.3885198 1.0770568 1.038535
000180 4d fe 87 3f 78 cb 57 3f 09 0c 7e 3f 20 f4 8c 3f
       1.0624481 0.84294844 0.99237114 1.1012001
000190 a2 39 47 3f f1 88 45 3f 95 13 6d 3f 0e 77 94 3f
       0.77822316 0.7716208 0.92608005 1.1598833
0001a0 e4 e2 59 3f ec 39 66 3f 81 5d 9a 3f fd 6c 7a 3f
       0.8511183 0.8993213 1.2059785 0.9782255
0001b0 01 ef 62 3f 5c 6d 1f 3f 61 bf 90 3f ae 2f a1 3f
       0.8864594 0.62276244 1.1308404 1.2592676
0001c0 14 bf 48 3f 46 5e 3a 3f 24 06 5a 3f 99 e2 69 3f
       0.7841656 0.728001 0.8516562 0.91361386
0001d0 a1 ce 43 3f 25 4c 4d 3f 1e 13 7e 3f 34 d6 96 3f
       0.76487166 0.8019431 0.9924792 1.178412
0001e0 60 63 61 3f 68 36 b6 3f 00 25 84 3f 60 8d 89 3f
       0.8804226 1.4235353 1.0323792 1.0746269
0001f0 a0 2f 4b 3f 3c 61 72 3f d6 b2 92 3f 88 88 a7 3f
       0.79369545 0.9467962 1.1460826 1.3088541

mlp_encoder.norms.0.module.bias f4 [128]
000000 8e 54 1c bf c2 ac a9 bd 06 fb 18 bf 20 fa 1b bf
       -0.6106652 -0.08284904 -0.5975803 -0.60928535
000010 da 2f 18 bf a6 30 67 be 59 fa 3f bf f8 3e 61 be
       -0.59448016 -0.22577152 -0.74991375 -0.21996677
000020 7b 30 05 be 61 5e fa bd b6 08 3a be 57 c2 31 be
       -0.13006775 -0.122250326 -0.18167385 -0.17359291
000030 0b 72 19 bf 42 33 2a be 3a 72 0b bf 50 97 98 be
       -0.5993964 -0.16621116 -0.5447117 -0.29802942
000040 db c4 cb be 1c 57 77 be 96 c7 10 bf f2 74 2c be
       -0.39798626 -0.24154323 -0.56554544 -0.16841486
000050 7f c8 3c be 8f 05 22 bf e7 9a 61 be 52 d1 e2 be
       -0.18435858 -0.6328973 -0.22031747 -0.44300324
000060 90 3e 0b bf d1 2d 11 bf 8b eb 13 bf c5 4b 3a 3d
       -0.5439234 -0.56710535 -0.57781285 0.045482416
000070 0b 3b f2 be 31 6f 08 bf b3 38 24 bf b7 96 2d bf
       -0.4731067 -0.53294665 -0.64149016 -0.678081
000080 cc 0f 16 be ab 7c 25 be fa 40 b1 be 7a 03 65 bf
       -0.14654464 -0.16160838 -0.34619886 -0.8945843
000090 ac d8 1a be 92 82 3e bf 84 4a 38 bf c6 f3 a7 be
       -0.15121716 -0.74417984 -0.719887 -0.32803172
0000a0 4e 8f 26 bd 5d 92 71 be 89 0f 94 be 6e 21 f6 bc
       -0.04066401 -0.2359099 -0.28918102 -0.030045237
0000b0 d9 7e 4a be db c5 20 bf 82 6b 50 bd 9d 41 9f bd
       -0.19774951 -0.62801903 -0.050883777 -0.077761866
0000c0 dc 22 0e bf 3f 90 6e be 21 f2 10 bf ea f4 d0 be
       -0.5552194 -0.23297213 -0.5661946 -0.40811855
0000d0 47 73 f3 be c6 36 fb be ba 46 f9 be 7b e6 a7 3d
       -0.47548887 -0.49065226 -0.48686773 0.081982575
0000e0 91 07 da be bc 69 00 bf cd 4b fa be 60 c7 cb be
       -0.42583898 -0.5016134 -0.48885956 -0.3980055
0000f0 b5 49 39 bf d0 ba c2 be f6 a4 79 be 90 49 9b be
       -0.72378093 -0.38033152 -0.24379334 -0.3032956
000100 23 dd 2e bf b5 45 03 bf 99 19 35 be 68 f0 34 bf
       -0.6830618 -0.5127824 -0.17685546 -0.7067933
000110 82 88 b2 be 65 e2 b0 be 37 2b f3 bd 42 37 24 bf
       -0.34869772 -0.34547725 -0.11873477 -0.64146817
000120 01 1d 3c bf 28 14 41 bf d5 cc 36 be 1c 7b 2d 3e
       -0.73481756 -0.7542138 -0.17851575 0.16941494
000130 f4 9f 9b be 3d bb ec be 16 32 f5 be b2 2c ea be
       -0.30395472 -0.462366 -0.47889775 -0.45737225
000140 7c 5e 1b bf c8 1c f2 be e4 85 3f 3e f5 7b 72 bf
       -0.60691047 -0.47287583 0.18703419 -0.94720393
000150 99 54 0b bf 6c 6c a9 be ac 59 e6 be 22 ca ec be
       -0.5442596 -0.33090532 -0.4499029 -0.46247965
000160 6b 5f 02 bf 2a a3 69 be ea 97 36 bf 0a 01 87 bd
       -0.50926846 -0.22816148 -0.7132555 -0.06591995
000170 74 b7 b5 be 65 ec 3f be 0e c6 16 bf fc 7f c5 be
       -0.35491526 -0.18742521 -0.5889596 -0.38574207
000180 3d 05 53 bd 61 6b 5e bd 91 b6 7d 3d eb f3 fc be
       -0.051518667 -0.054301623 0.061941687 -0.49404845
000190 e7 1b 33 bf ea 5f 0c bf f3 54 25 bf d5 72 f6 be
       -0.6996445 -0.54833853 -0.6458275 -0.48134485
0001a0 6c eb 0f bf 46 61 58 bf df b9 f6 bd 26 af 00 bf
       -0.562186 -0.8452343 -0.12047171 -0.50267255
0001b0 bd 33 32 bf 9b ce a5 be 51 ea a5 be 37 6a b7 be
       -0.69610196 -0.3238419 -0.32405332 -0.35823223
0001c0 61 f2 1f bf 86 fe d2 be b1 9e 99 be d7 10 3d bf
       -0.62479216 -0.4120981 -0.30003884 -0.7385382
0001d0 36 c9 c2 be 6c 0b a3 be a1 9b 34 bf 23 dd f8 be
       -0.38044137 -0.31844652 -0.7054997 -0.48606214
0001e0 8c a6 d1 be 0c 52 3b bf 8b 20 d7 be d6 86 2d be
       -0.40947378 -0.7317207 -0.42017016 -0.16945967
0001f0 71 b4 e1 bd 69 ee 4d bf 4e 35 2b bd 32 d4 71 bd
       -0.110207446 -0.8044191 -0.041798882 -0.059040256
